1 DOF Non-linear duffing/linear_model_epsilon_parameters_m1.pth (torch, 8260 bytes, 7 tensors)

net.0.weight f4 [16, 3]
00000000: 459c 00bf bf7c 8fbf 3ec8 c3be 68bd a0bd
00000010: f8d2 c23f 9b59 c73e cd7e 143e 0562 0240
00000020: 64ea 14be e244 333b 9a7e 1d40 6c39 d3bc
00000030: adc1 aa3d 0d29 1540 501d cdbe 6e35 fe3c
00000040: 6aaf c0bf ac36 f2bd 6857 63bb 67a0 c83f
00000050: f0ce 7cbb c7cc 23be ae01 a2be cede c0bd
00000060: b1b2 a33e 786e ebbf eeaa 08bf 6660 b6ba
00000070: cc0a e73f f7ee 423b a16a dbbd 126f c7bf
00000080: 9837 d23d 9b00 57bd e048 d4bf 1435 833e
00000090: 18b9 95bd 85ec d1bf b471 b73e d289 35bd
000000a0: 1028 ed3f c91b f13d e4f8 7bbe 0491 e13f
000000b0: 86c6 8c3e 3569 a5be c401 dd3f 7dd8 9abe
-0.5023845 -1.1209944 -0.3823871 -0.078486264 1.5220633 0.3893555 0.14501496 2.0372326
-0.14542538 0.002735429 2.4608521 -0.025784217 0.08337722 2.3306305 -0.40061426 0.031031337
-1.5053532 -0.11826834 -0.003468955 1.5673951 -0.0038575493 -0.15996085 -0.31641906 -0.094174966
0.31972268 -1.8393087 -0.5338582 -0.0013914227 1.805017 0.0029744485 -0.10713697 -1.5580771
0.1026451 -0.05249081 -1.658474 0.25626433 -0.073106945 -1.6400305 0.35828936 -0.04432089
1.8527851 0.11772878 -0.24606663 1.762238 0.2749521 -0.3230683 1.7266164 -0.30243292

net.0.bias f4 [16]
00000000: c538 743d 4d8f 993e 98f5 5c3d f098 93be
00000010: ff0e a83e c912 3a3f a146 eb3e 7d9d 1dbe
00000020: e617 c03d a917 073f 3e46 26bd 8a30 04be
00000030: 6ed4 87be 5643 7ebe 1298 3b3c 06f6 e9be
0.059624452 0.29992142 0.053945154 -0.2882762 0.3282394 0.72684914 0.45952323 -0.15392108
0.09379558 0.5277048 -0.040594332 -0.12909141 -0.26529258 -0.24830374 0.011449831 -0.45695513

net.2.weight f4 [32, 16]
00000000: 8b90 7cbe 897f 2ebe b87f 39bd 5437 04be
00000010: 1c44 94bd 69fa 68be cda7 6cbe f5c5 963d
00000020: 4076 9fbd 25e3 15be f2e8 85bd 6779 29bc
00000030: b80c 26be e5f4 233d 4811 e13c 25c9 223d
00000040: 113f 80be 687a 443e 1944 843e 8935 a13f
00000050: 8a87 b83e d38a 85be 8431 f13e cb30 f43c
00000060: a855 573b f42a a43e fee2 76bf 48d7 d0be
00000070: c58b 0bbf 053e e03e ae5d 963e d5e4 b03d
00000080: c313 9ebe 2d89 bbbe e154 88be bd4a 013e
00000090: 0566 61be 0db3 4dbd c656 883d fa0b 9bbe
000000a0: b464 9abc 0a5d 23be a8df aebe d5bf 78bd
000000b0: cabb a1bd b170 1fbe 61e7 d2bd 9e5e ab3e
000000c0: 4cfe b53e 088d 21be ead1 c6be eb5d 2bbe
000000d0: a5d1 55be ac70 653d 2acd 68be a3ba 703e
000000e0: 343d 013f 5e58 57be 56de d73e 8a0b 1c3f
000000f0: 16ad c53e e9e5 03be 4ba2 4cbe 41c6 103e
00000100: 86e3 7c3c a6d1 3abe 0981 4b3a a9b7 6d3e
00000110: 31e3 d8bd 4b18 a53b 4463 acbd 1916 97bc
00000120: 732d adbd 4583 9e3d bc44 8d3d a96d a4be
00000130: 7e20 01be 3352 bcbb a35a a2be 83b3 d8be
00000140: 1324 19be b565 aebc 790d 20be d76c cf3e
00000150: ff03 9fbe a3a9 aebc 5bd7 e4be d0ea dabe
00000160: d7ad 7d3e 5e31 f6be 2bce 8b3e bc4a 3b3f
00000170: 2ea1 b03e fad5 f23c 2370 3abe 5ecc 35be
00000180: fbdf b3bd 8671 aabe 5581 933e 8ae3 c73f
00000190: 97fb d83d 29a7 eabd 009c 373e 9939 50bb
000001a0: 5e55 22be 7243 bdba 3cee d7bd 7251 1fbf
000001b0: 35ed 213e 22c3 613f c7a0 3c3d 09da b03e
000001c0: 6e35 6b3d 0254 f3bd 928c 953e 49c3 933f
000001d0: 9688 983e 05f6 5fbe 8d1f ad3e c3c8 f6bc
000001e0: 26d4 f73b fd31 d13d 7193 12bd 421c f7be
000001f0: 6df3 a1be 987d 183f db72 b43e 0a19 983e
00000200: a879 97be dcc8 f0bd a881 5c3e 82a3 0d40
00000210: 1e49 933e a2a5 53bf 68ef e2bc be65 223e
00000220: bd04 14bd 62ff a53d d813 16be 335a ffbe
00000230: 6f1b bbbe e6c4 013f 61d4 243e 59a8 9e3e
00000240: 623f 7bbe 1bc0 7dbe e254 7f3d a28a 2d3e
00000250: b30d 79be 90e3 25be cb10 73be c3ba 0dbb
00000260: bbda 93be 15a8 7dbe de53 b1bc 8d6d fb3a
00000270: cca8 04bd 0c12 e9bd 91a5 b83e 9672 ebbd
00000280: 49e8 303e 980a 453e 586f af3e 61d6 5e3f
00000290: 309d 3e3e 1549 c7bd b120 0a3f 1a5f 2bbe
000002a0: 4cf3 063d 4d24 b13e 2da2 afbd 2dcf a3bd
000002b0: ea41 f93d e15f b93e 5c19 513e df7e d73e
000002c0: 11d5 013e 36ac aa3d c0da 143e fb8e aa3f
000002d0: c45d e53d f8be ad3e f5c1 bf3e dbfb 2c3e
000002e0: c0c8 563d 11bf 553e d0ce f3bd ba10 ebbd
000002f0: f3f8 713d 1bed ad3e fbb0 453e 8c30 c93e
00000300: 1eeb c53d 58d1 b33e 8004 473e 9bb9 6dbe
00000310: b5b3 743d 35fb e4bc c0f0 353e 3ae8 cdbd
00000320: ffcb 0d3e 7bae c83e b882 3bbe 6f63 143e
00000330: daca b4be 8e83 933e 22ad a53e b624 933d
00000340: 4a38 c9bc 5af5 163d 243d 9bbe 03c2 3dbe
00000350: 2377 0f3e 9251 3fbe f6b0 a93d 8cdd 92be
00000360: afdc 19be d744 2dbe 918f 293d 0a36 b2be
00000370: 4f77 13be 66e2 75bd 0b14 a8be 47e4 1fbe
00000380: 4d71 7d3e bc26 443f ad29 8a3e c144 99bf
00000390: a8cf 07be bcc0 e23d f8fd b43e dc20 8e3e
000003a0: 1434 d13e c2a1 7b3e 615f d63e a9b2 403f
000003b0: 0cb7 62bc 787b d93e dd2e 953e 3346 473e
000003c0: 03a3 7fbe bc77 27bf 23a0 a1be f8f8 333e
000003d0: 7ff0 1b3d 5540 9b3d cc18 61bf cb41 fb3c
000003e0: fedc 673e 2776 50bf 1776 2f3f 521f 40bf
000003f0: 2296 253d 18e5 4abf fff9 aabe 2194 b5be
-0.24664514 -0.17040838 -0.045287818 -0.12911731 -0.07239553 -0.22751774 -0.23110886 0.07361976
-0.07786226 -0.1463743 -0.065385714 -0.010343886 -0.1621579 0.04002847 0.02747406 0.039742608
-0.25048116 0.1918732 0.25833204 1.2594463 0.36040908 -0.26082477 0.4710809 0.029808423
0.0032857452 0.3206402 -0.9644011 -0.40789247 -0.54510146 0.43797317 0.29368347 0.08637396
-0.30874452 -0.36628094 -0.26627257 0.12626167 -0.22011574 -0.050219584 0.06657176 -0.30282575
-0.018846847 -0.1595346 -0.3415501 -0.06072982 -0.07897146 -0.15570332 -0.10298038 0.33470625
0.35545576 -0.15776455 -0.38832027 -0.16735046 -0.20880754 0.056015655 -0.22734514 0.23508696
0.50484014 -0.21029803 0.42161816 0.6095511 0.38608617 -0.12880673 -0.19983785 0.14138128
0.015435105 -0.18244037 0.0007763063 0.23214592 -0.10590208 0.0050382963 -0.08417371 -0.018443154
-0.084559344 0.077398814 0.06897876 -0.32114914 -0.12610051 -0.0057471036 -0.31709775 -0.42324457
-0.14955167 -0.021288732 -0.1563014 0.40512726 -0.31057736 -0.021321123 -0.44695553 -0.42757273
0.24773346 -0.4808454 0.2730573 0.7316091 0.3449797 0.029643048 -0.1820684 -0.17753741
-0.08782955 -0.33289737 0.2880961 1.5616314 0.10594862 -0.114576645 0.17930603 -0.0031772612
-0.15852877 -0.0014439656 -0.105434865 -0.6223365 0.15813144 0.88188374 0.046051767 0.34541348
0.057424 -0.118812576 0.2920881 1.1543971 0.29791707 -0.21871193 0.33813134 -0.030125028
0.007563132 0.10214613 -0.035785142 -0.48263747 -0.31631032 0.5956664 0.35243878 0.29706603
-0.29585004 -0.11757061 0.21533835 2.2131047 0.2876672 -0.8267461 -0.027702048 0.15859124
-0.03613733 0.08105351 -0.14656007 -0.49873504 -0.36544368 0.5069107 0.16096641 0.30987814
-0.24535897 -0.24780314 0.06233681 0.16947415 -0.24321632 -0.1620009 -0.23736875 -0.0021626211
-0.28877816 -0.2477115 -0.021646436 0.0019182429 -0.03238754 -0.11380395 0.36063817 -0.11496465
0.1727611 0.19242322 0.34264636 0.87045866 0.1861465 -0.09730736 0.53956133 -0.16735497
0.03294687 0.34598008 -0.085758545 -0.079985 0.12170775 0.36205962 0.2041983 0.42088982
0.12678935 0.08333628 0.14536572 1.3324884 0.11199525 0.3393476 0.37452665 0.1689295
0.052437544 0.20873667 -0.11904681 -0.114778 0.059075307 0.3396996 0.19305794 0.3929485
0.09663986 0.35120654 0.1943531 -0.23215334 0.059741694 -0.027951816 0.1776762 -0.10054059
0.1384735 0.39195618 -0.18311584 0.14491056 -0.35311013 0.28811306 0.32358652 0.071847364
-0.024562974 0.03685508 -0.30320084 -0.18531041 0.14010291 -0.1868346 0.08285706 -0.28684652
-0.1502559 -0.16920792 0.04139668 -0.34806854 -0.14400981 -0.060030364 -0.32827792 -0.15614425
0.24750252 0.76621604 0.2698492 -1.1974107 -0.13262808 0.110719174 0.35350013 0.27759445
0.40860045 0.24573424 0.41869643 0.75272614 -0.013837587 0.42477012 0.29137316 0.19460373
-0.24964528 -0.65417075 -0.31567487 0.17575443 0.03807115 0.0758063 -0.8792846 0.030671021
0.22642896 -0.81430286 0.68539566 -0.7504779 0.04042638 -0.7925582 -0.33393857 -0.35464576

net.2.bias f4 [32]
00000000: f48a 463d 56dd f8be 4bfc 773d d250 5a3d
00000010: 80a7 ffbd c975 bd3e f6a8 1bbf a873 a2bc
00000020: 6568 25bf 9b4a 4b3d fa5b a0bd aed2 6abe
00000030: 981d 6f3d 4da3 27be c0e8 083f 3ece 743d
00000040: 3dab 18bd 9061 adbd 5509 c93e 7af4 d1bd
00000050: 7578 093e 1e3c 643e 1cce 96be 1db1 26bf
00000060: 72bc 2cbf cf05 abbd aa54 323e 494e 6bbc
00000070: 6b5a 0c3e dd85 25bd f46f b7be 5d47 b63d
0.04847236 -0.48606366 0.06054334 0.053299733 -0.1248312 0.37003925 -0.6080469 -0.01983054
-0.6461242 0.049631696 -0.07830043 -0.2293193 0.058377832 -0.16370888 0.5348015 0.059767
-0.03727268 -0.08465874 0.39264932 -0.10251708 0.13424857 0.22288558 -0.29454124 -0.65114003
-0.67475045 -0.08350717 0.1741511 -0.014361926 0.13706367 -0.040410865 -0.358276 0.0890033

net.4.weight f4 [16, 32]
00000000: 1ccf 1c3d c7ff 7cbe c8a2 6a3d 74c2 523f
00000010: fb20 5dbd 7a61 f83e f568 3abf d419 3abf
00000020: 5b81 b0be 3969 7eba 923a 47bf b1a1 79be
00000030: e9d0 64be 36d0 853c 8911 6c3d 1f06 413f
00000040: 27aa 28bf f63e 5abd b0e7 a03f 9c03 cbbd
00000050: ad50 20bf c286 86bb cbe3 ce3f fbdd edbe
00000060: ad15 30bf 2fc6 3a3f 7dfa d63d 0d22 d5be
00000070: 6ea9 c23e d1b2 91bc 00e6 8bbc 75ee 8e3f
00000080: e4bc 563d 08a2 9dbd 8148 33be 201a 53be
00000090: 2d37 debc 78cd 10be 6f9f 00be 3be7 37bd
000000a0: 60b1 7cbe 7965 d8bd a7fd 29be a902 81bb
000000b0: 1947 9bbd e165 26be 34d0 f6bc bd2d 37be
000000c0: ae9d 7abe f1ab 19be cb26 713d 2358 a7be
000000d0: 76df 18bd be30 88be bfea 19be 0894 a4be
000000e0: 2cd4 17bd 56cb 98bd 7ae9 88be 173f 62be
000000f0: 03cc 843c 8798 4abd e4b3 a3bd 3447 403d
00000100: af01 84bd d1d3 233e 0c9d 4e3d a5ff 4fbd
00000110: df02 263e 7f22 fb3d 44ca 873e 01b2 c9bd
00000120: 25ac 1fbc 6337 073e 8f81 84be 381f 8fbe
00000130: e0d2 f6bd f8ec 713d aa52 b7bd 80d9 8d3c
00000140: b934 b6bd 90dd d1bc fde3 d5bd 7e36 22be
00000150: edcb 953d b83c 66bd c8e3 a3bd a33b 2f3d
00000160: cc39 af3d 3735 173e 53f5 ecbc 447f 66be
00000170: 8801 043e 9b01 88be 1cd2 3c3d f9d1 a5bd
00000180: d34c 543d 44af 90b8 07ef 24bd 293a 3fbe
00000190: 28ea d93c 8e43 29bd c0a6 4f3c 5181 97bc
000001a0: 3424 d3bd e260 d23d 4e6d 54be 6bba aebd
000001b0: b5c3 65be 0113 debd 75fe 2fbe 9e1e 573d
000001c0: 86d6 5fbe d3b3 44be de93 2bbd 0b5a 39be
000001d0: 9cec dfbd b366 22be 65c5 a0bd c454 803d
000001e0: ee39 ec3d 2491 dfbd 352f 80be 8263 bcbd
000001f0: 761f 4bbd 6277 aebd 9996 0d3d cdb7 85bd
00000200: 7940 263e 439b 253f 1111 0cbb f3a9 41bf
00000210: 477a 96bd 0d0b 03be d96e ac3f e843 9b3e
00000220: 869e e03f 0b15 3bbe 5ab1 ae3e 387d 573e
00000230: c62c f83b 25af 2e3e c3fb e8be 7417 de3b
00000240: c89e df3e 41f2 b9bd 277a 80bd 7603 293d
00000250: 44de d53e b3a1 b43e 7f46 bdbe 6827 8e3f
00000260: 05dc d63f 08b2 a8be 23b1 f83d 6487 883e
00000270: af5d 08bf 70ee 003e dd1f 8f3d a981 88be
00000280: 5ef9 9f3d 2323 95be 6576 47be b29e 653f
00000290: 5dd6 82bd 4dec 913e 6113 acbd 6271 2a3d
000002a0: e9c6 c33d 7b39 843d 99a6 cabe d388 2dbe
000002b0: 9bea 03bf 928a 27be ba70 17bf 936d 4b3f
000002c0: 2f62 ccbe 6d65 1abe 22f5 7f3f 325c 19bc
000002d0: ec42 863d 672b fabe 8efe 7c3f 9ba4 003d
000002e0: 26a0 ecbe fc1d 163f c917 a5be 7d2d d0be
000002f0: 1e4b f03d 452f 893e 1388 dabc dddb a53f
00000300: de81 01be 2530 023d e8b4 8bbe 233b 26be
00000310: 9241 053d 3f78 33bd ccd6 9fbb 2df1 92be
00000320: 4c7a d4bc 9520 6a3e d082 79be ce5c 29be
00000330: 334d dcba 5d16 debd 2b7d 61bd 2d84 9dbd
00000340: 652c 0cbe fc5b c1bd 02e0 52bd 5c46 17bc
00000350: d644 73be 9d8a 27bc 12f5 b4bd cc21 5dbc
00000360: b041 b2bd a055 b93c 13c9 bcbc 108a 5dbe
00000370: 65aa babd 74d0 12be afe7 a4bd 0e77 ff3d
00000380: 8815 51bd d581 f33e d647 70bd e29c 453e
00000390: 2df7 28bd 2097 c63e 888c 423f e76b ad3d
000003a0: 75fa ac3f b5fe ce3b 548f b13e 4b5f 983e
000003b0: c94a 9b3d c7ba 593e 75fe 9f3d 8c51 22bf
000003c0: 7598 a03e 2248 223e 8706 e0be b31b 19bd
000003d0: 2367 1f3e 90d5 603e 4249 c4be 7624 5c3f
000003e0: b110 a63f ce7b 943d 0d47 b43e abb2 053e
000003f0: db79 84bc c0e1 7a3e 54ec 3d3d 6f0c f63d
0.038283452 -0.24706946 0.057284147 0.8232796 -0.05398653 0.4851187 -0.728164 -0.7269566
-0.3447369 -0.00097050105 -0.77823746 -0.24378087 -0.22345318 0.016334634 0.05763391 0.75399965
-0.6588463 -0.0532827 1.2570705 -0.09912798 -0.626231 -0.00410542 1.6163267 -0.4645842
-0.68783075 0.72958654 0.104969956 -0.4162754 0.3801989 -0.017785462 -0.017077446 1.1166521
0.052426234 -0.07696921 -0.17508127 -0.20615435 -0.02712592 -0.1414088 -0.12560819 -0.044898253
-0.24677038 -0.105662294 -0.16600667 -0.0039370847 -0.0758192 -0.16249801 -0.030128576 -0.17888542
-0.24474213 -0.15006997 0.058874886 -0.3268443 -0.037322484 -0.26599687 -0.15030955 -0.3214419
-0.037067577 -0.07460658 -0.26740628 -0.2209438 0.016210562 -0.049461868 -0.07993296 0.046942905
-0.064456336 0.1599877 0.05044274 -0.05078091 0.16212033 0.12262439 0.26521504 -0.09848405
-0.009745632 0.13204722 -0.25880095 -0.27953506 -0.1205194 0.05906388 -0.08951314 0.017315626
-0.08896775 -0.025618345 -0.10443876 -0.158411 0.073142864 -0.05621025 -0.0800243 0.042781483
0.08555946 0.14766394 -0.028925573 -0.22509485 0.12891209 -0.26563725 0.046098813 -0.0809669
0.051831078 -6.899101e-05 -0.040267017 -0.1867453 0.026600912 -0.04132419 0.012674034 -0.01849428
-0.103096396 0.10272385 -0.20744821 -0.0853165 -0.22437938 -0.108434685 -0.17186911 0.052519433
-0.21859178 -0.19209222 -0.041889064 -0.18100755 -0.109338015 -0.15859489 -0.0785015 0.06266168
0.11534487 -0.10916355 -0.25036016 -0.09198667 -0.04959055 -0.08518864 0.03456745 -0.06529198
0.16235532 0.64690036 -0.0021372477 -0.75649947 -0.07347541 -0.12797184 1.3471328 0.30325246
1.7548378 -0.18269746 0.34119684 0.21043861 0.007573697 0.17059 -0.4550458 0.006777698
0.43675828 -0.090794094 -0.06273299 0.041263066 0.41771138 0.35279617 -0.36967847 1.1105776
1.6785895 -0.32948327 0.12143161 0.26665795 -0.5326795 0.12590957 0.06988499 -0.26661423
0.07811235 -0.2912837 -0.19478758 0.89695275 -0.06388543 0.28500596 -0.08402134 0.041612037
0.095594235 0.06456276 -0.3958023 -0.16946726 -0.51529855 -0.16361454 -0.5915638 0.7946407
-0.39918658 -0.15077753 0.9998342 -0.00936036 0.06555733 -0.48861238 0.9882592 0.03140698
-0.46215934 0.586395 -0.3224471 -0.40659705 0.117330775 0.26793876 -0.026676213 1.2957722
-0.12647197 0.031784195 -0.27286458 -0.16233496 0.032533236 -0.043815847 -0.0048779007 -0.28699628
-0.025937222 0.22863992 -0.24366307 -0.16539308 -0.0016807675 -0.10844109 -0.05505101 -0.07691226
-0.1368881 -0.09441373 -0.05148316 -0.009233084 -0.23756728 -0.010225919 -0.08835806 -0.013496827
-0.08703935 0.022623837 -0.023045098 -0.21634698 -0.091145314 -0.14337331 -0.08052003 0.1247388
-0.051045924 0.4755999 -0.058662258 0.19298127 -0.04125135 0.38787174 0.75995684 0.08467846
1.3513933 0.0063169845 0.34679663 0.29760203 0.075826235 0.21262656 0.07812206 -0.6340568
0.31366315 0.15847829 -0.4375498 -0.03737993 0.15566687 0.21956468 -0.3833714 0.85993135
1.2973844 0.07250176 0.35210457 0.13056438 -0.016171386 0.2450018 0.04636796 0.1201409

net.4.bias f4 [16]
00000000: ae4d 2a3f 76b5 a7be d441 58be 9c70 cebd
00000010: 1f2c 13bf 5010 f0bd 8f92 18be 3c3a c83c
00000020: a74d e33d 2971 a3bc e330 6c3e 8e60 2b3e
00000030: 3a58 103e 3f6e 84be 4ef4 483e 1605 93be
0.6652478 -0.3275563 -0.21118861 -0.10080072 -0.574892 -0.11721861 -0.14899658 0.02444183
0.110987954 -0.01995142 0.23065524 0.16736051 0.14096156 -0.2586536 0.19624445 -0.28714818

net.6.weight f4 [1, 16]
00000000: 146c 8e3f 6ff1 80bd 804d 823c c108 a8bd
00000010: 5107 dbbf 02ee 773f d000 bc3d 5077 16bf
00000020: dd37 1d3f aa4d 4dbe b48b a03e 99a1 f03e
00000030: f32a 9dbe 8771 08be f72a a33f 9439 873f
1.1126733 -0.0629605 0.015906096 -0.08204795 -1.7111608 0.96847546 0.091798425 -0.58775806
0.61413366 -0.20049158 0.31356585 0.4699829 -0.3069683 -0.13324557 1.2747487 1.0564446
