1 DOF Non-linear duffing/linear_model_parameters_m1.pth (torch, 8228 bytes, 8 tensors)

net.0.weight f4 [16, 3]
0	0xbe30b4d2	-0.17256477
1	0x3f7968a7	0.9742531
2	0x3e60da99	0.21958388
3	0xbd325389	-0.043536697
4	0x3fb9f7b2	1.4528716
5	0xbd176648	-0.036962777
6	0xbc8f0ce6	-0.017462205
7	0x3f92a999	1.1458007
8	0xbe111f30	-0.14172053
9	0x3dcfcfa9	0.1014703
10	0xbf2d0262	-0.6758176
11	0xbe09bea2	-0.13451627
12	0xbe8f9e09	-0.2805026
13	0x3f9e5717	1.2370328
14	0xbdc95e2f	-0.09832417
15	0x3ed9ccca	0.42539054
16	0xbf86cba7	-1.05309
17	0x3e327bb9	0.17430009
18	0xbeae4f0a	-0.34044677
19	0xbfd90a16	-1.6956203
20	0x3e62cf6e	0.2214944
21	0x3e7f2f04	0.24920279
22	0x3fb3f8c9	1.4060298
23	0xbe255035	-0.16143878
24	0x3e73969a	0.23787919
25	0x3f9beb68	1.2181215
26	0xbe19cbd1	-0.15019156
27	0xbda1c148	-0.078981936
28	0xbf223124	-0.6335623
29	0xbd0e0885	-0.034676094
30	0x3e1b7a5d	0.15183397
31	0xbee6eda6	-0.45103186
32	0xbdcebee1	-0.10095001
33	0x3d46f926	0.04857745
34	0x3b5f40e7	0.0034065784
35	0x3d8cc6c8	0.06873852
36	0xbe157667	-0.14595948
37	0x3de011cd	0.10940895
38	0xbe4fed29	-0.20305313
39	0x3e91a476	0.28445786
40	0x3f9be4df	1.2179221
41	0x3d4fd671	0.050741617
42	0x3e38dff9	0.18054189
43	0xbf98664e	-1.1906221
44	0x3ba3453d	0.004982619
45	0xbd89b33b	-0.067236386
46	0x3ebce81a	0.3689583
47	0x3e6fd4fd	0.23421092

net.0.bias f4 [16]
0	0xbdc2dbe7	-0.09514599
1	0x3eaa59f7	0.33271763
2	0x3eb4dc8a	0.35324508
3	0x3d126aa1	0.03574622
4	0xbf0b6bdf	-0.54461473
5	0xbee24895	-0.44196
6	0x3eb148ac	0.34625757
7	0xbe5c72d9	-0.21528186
8	0xbe716aca	-0.23575893
9	0x3e1ec29f	0.1550393
10	0x3e4cf3e3	0.2001491
11	0x3e20daad	0.15708418
12	0xbeee4070	-0.46533537
13	0x3e87f3c2	0.2655316
14	0x3e68de83	0.22741131
15	0xbe250087	-0.16113482

net.2.weight f4 [32, 16]
0	0x3d3cef5b	0.046126705
1	0xbdb0d808	-0.08634955
2	0xbd46a267	-0.048494723
3	0x3d67c5a1	0.056584958
4	0x3e256900	0.16153336
5	0xbc8e3b69	-0.017362313
6	0xbd9f0abd	-0.0776572
7	0x3ccb4900	0.024815083
8	0x3b8fdcc8	0.004390333
9	0x3c86f0ab	0.016472181
10	0x3e6eb38d	0.2331068
11	0xbdf58de3	-0.11989953
12	0xbe24fc0a	-0.1611177
13	0xbe100e3c	-0.1406793
14	0x3d6b87d0	0.057502568
15	0x3e633040	0.22186375
16	0xbe51845a	-0.20460644
17	0xbd907fa4	-0.070555955
18	0xbddb6ca4	-0.10714081
19	0x3e1b206c	0.15149087
20	0xbe20a7ce	-0.15689012
21	0x3de09460	0.109658
22	0xbe4949ba	-0.1965703
23	0xbe4acd74	-0.19804937
24	0xbd7a61b8	-0.061128348
25	0x3dcfe2e4	0.10150698
26	0xbe162c24	-0.14665276
27	0xbda68fd4	-0.08132902
28	0xbd8fc600	-0.070201874
29	0xbe15211a	-0.14563408
30	0x3c163620	0.009168178
31	0x3e40ff30	0.18847346
32	0x3daf6474	0.08564082
33	0xbe22aefd	-0.15887065
34	0x3e8eb49c	0.2787217
35	0xbe4c685f	-0.1996169
36	0x3cb608ee	0.022221055
37	0x376ad504	1.3997083e-05
38	0xbe9735b4	-0.2953316
39	0x3e7244f2	0.23659113
40	0xbe2e00d7	-0.16992508
41	0x3e4d2ae6	0.20035896
42	0xbd8d9702	-0.06913568
43	0x3c0611c8	0.00818295
44	0x3ee80a23	0.45320234
45	0x3e0897b2	0.13339117
46	0x3e142f0f	0.14471076
47	0x3e192f4f	0.14959453
48	0xbded2068	-0.115784466
49	0xbdcad0dd	-0.09903119
50	0x3d8828fe	0.06648444
51	0xbe4347fd	-0.1907043
52	0x3d72c361	0.05926836
53	0xbc6c289f	-0.014413982
54	0xbd2b811b	-0.04187117
55	0x3cde3aab	0.027127584
56	0xbd999cba	-0.07500596
57	0xbe079fc4	-0.1324454
58	0xbdee4575	-0.116343416
59	0x3e2222a0	0.15833521
60	0xbd43e4ed	-0.047825743
61	0xbd1ebb1e	-0.038752668
62	0x3e532148	0.20618165
63	0x3d4b0a62	0.04957045
64	0x3d83377a	0.06407066
65	0x3dd51411	0.10404218
66	0x3d99ddd4	0.075130135
67	0xbe1391dc	-0.1441111
68	0x3e76458e	0.2404997
69	0xbe0baa27	-0.13639127
70	0xbd78674a	-0.06064538
71	0x3e63953e	0.222249
72	0xbe616c2c	-0.2201392
73	0xbe7393d2	-0.23786858
74	0x3e6ce577	0.23134409
75	0xbe84f2c8	-0.25966477
76	0x3db41ed9	0.08794946
77	0x3d16a074	0.036774114
78	0xbdf9746b	-0.12180408
79	0x3e02265b	0.12709944
80	0x3cf8cd18	0.030371234
81	0xbdf4d94c	-0.119555086
82	0x3da7525d	0.081700064
83	0x3c2ec225	0.010666405
84	0xbd2b1575	-0.04176851
85	0x3dcddaf5	0.10051528
86	0xbd16bc0c	-0.03680043
87	0xbda353b8	-0.079749525
88	0xbe72ff45	-0.2373019
89	0x3d8f2c96	0.06990926
90	0x3e062e6f	0.1310365
91	0x3d74b69a	0.059744455
92	0x3dbea79d	0.093093134
93	0x3d931a7c	0.07182786
94	0x3e130e0c	0.14360827
95	0x3d4e169d	0.050314534
96	0xbe609a6c	-0.21933907
97	0xbd5a4ac3	-0.053293955
98	0x3dd9df75	0.10638324
99	0x3e803006	0.2503664
100	0x3e0700c4	0.13183886
101	0x3d027bf2	0.031856485
102	0xbe015e49	-0.12633623
103	0x3dc308c8	0.09523159
104	0xbea3866c	-0.31938493
105	0x3e99f919	0.3007286
106	0xbe24227d	-0.16028781
107	0xbd8f4618	-0.06995791
108	0x3d5db22c	0.054124996
109	0xbcb1c3e0	-0.021699846
110	0x3e79d811	0.24398829
111	0x3d43f775	0.047843415
112	0xbe834344	-0.25637257
113	0x3de3fcfe	0.11132239
114	0xbdb53600	-0.0884819
115	0x3e6243f8	0.2209624
116	0x3e0ea22f	0.13929056
117	0x3ca6c5a0	0.020357907
118	0x3de0f275	0.10983745
119	0xbdf7a964	-0.120928556
120	0xbe6c92c8	-0.23102868
121	0xbe437234	-0.19086534
122	0xbda56a50	-0.08076918
123	0xbe33d341	-0.17561056
124	0xbe673e6b	-0.22582404
125	0x3e066a1c	0.13126415
126	0xbd9d5240	-0.076817036
127	0x3dfb9493	0.12284198
128	0xbd829d3f	-0.063776486
129	0xbe9207e4	-0.28521645
130	0xbeb7fe49	-0.35936192
131	0xbe77eeb0	-0.24212146
132	0x3e044cdf	0.12919949
133	0x3db79ca4	0.08965424
134	0xbc99615b	-0.01872318
135	0xbd74ff18	-0.05981359
136	0xbe6226e4	-0.22085148
137	0x3e5fb4e5	0.2184635
138	0x3e7d1d6c	0.24718255
139	0xbe179296	-0.14802012
140	0x3c823329	0.015893536
141	0xbe533f24	-0.20629555
142	0xbe39c932	-0.18143156
143	0x3b8f247a	0.004368362
144	0xbe64b847	-0.22335921
145	0xbebc41d0	-0.3676896
146	0x3d61512f	0.055009063
147	0xbd197c52	-0.037472077
148	0x3c6cf201	0.014461995
149	0xbdf62878	-0.120194376
150	0x3e850cf4	0.25986445
151	0x3d09cdb6	0.033643447
152	0x3e211984	0.1573239
153	0xbe00fae6	-0.1259571
154	0x3e6939b1	0.22775914
155	0x3d87d676	0.06632702
156	0x3d4ca505	0.049962062
157	0xbe04e86a	-0.12979284
158	0x3e404138	0.18774879
159	0xbd36d508	-0.044636756
160	0x3ccd6fbf	0.025077699
161	0xbe5d5215	-0.21613343
162	0xbe94fa0a	-0.29097015
163	0x3d81587a	0.06315704
164	0x3e39c88a	0.18142906
165	0x3d3130c5	0.0432594
166	0xbd3c8e6e	-0.04603427
167	0x3e0ece97	0.13945995
168	0xbbbbcb9b	-0.005731059
169	0x3def1dfc	0.11675641
170	0xbe2247f3	-0.15847759
171	0x3dfe7d37	0.124262266
172	0xbe19e33b	-0.15028088
173	0x3db4dd6b	0.088312946
174	0x3d1a7560	0.037709594
175	0x3e854b18	0.26033854
176	0x3eaf1324	0.3419429
177	0xbe86f4d4	-0.26358664
178	0x3cd19beb	0.025587043
179	0xbe940d58	-0.2891643
180	0xbdd1d27d	-0.102452256
181	0x3d1b06a8	0.037848145
182	0xbf323101	-0.69606024
183	0x3e65469b	0.22390215
184	0x3d902cf5	0.07039825
185	0x3e2c77b2	0.16842535
186	0x3dd5f3ed	0.10446916
187	0xbe4c9c82	-0.19981578
188	0x3cdcadab	0.02693828
189	0x3de1afa2	0.110198274
190	0xbe1d1c74	-0.15342885
191	0xbeab8bd8	-0.3350513
192	0x3e5e9acb	0.21738736
193	0x3e8ff976	0.2812001
194	0xbdb89c40	-0.09014177
195	0xbf27f935	-0.65614635
196	0x3e742c8f	0.23845123
197	0x3d07fbfd	0.0331993
198	0xbe860b04	-0.2618028
199	0xbca8eeb8	-0.020621642
200	0x3e797b88	0.2436353
201	0xbe9a1bad	-0.3009924
202	0xbcf09d2a	-0.029371817
203	0x3dad08ad	0.084489204
204	0xbd0b36c3	-0.03398777
205	0xbe98eb99	-0.29867247
206	0x3ddaabe5	0.106773175
207	0x3d66b4f4	0.056324914
208	0x3de757ce	0.11296044
209	0x3e3639e0	0.17795515
210	0x3dad7fd7	0.08471649
211	0xbd96aeef	-0.07357585
212	0xbe17596e	-0.14780208
213	0x3de24210	0.11047757
214	0x3dc4107f	0.09573459
215	0x3daf43b4	0.08557835
216	0xbd6be331	-0.057589713
217	0xbe37f8d5	-0.17966016
218	0x3d662fe5	0.05619802
219	0xbd997b87	-0.07494264
220	0x3ccf8828	0.025333479
221	0x3d9664d0	0.07343447
222	0xbe12bb3f	-0.14329241
223	0xbe00a73b	-0.12563793
224	0xbe1925bf	-0.14955805
225	0x3d92e6f5	0.07172958
226	0xbe1e746e	-0.15474102
227	0x3e8d65d5	0.27616754
228	0xbe367ffb	-0.17822258
229	0xbd894ec5	-0.06704477
230	0x3d96e385	0.07367615
231	0xbd8a0b3f	-0.06740426
232	0x3d333628	0.04375282
233	0x3e1a90a6	0.15094241
234	0xbe259d2c	-0.16173238
235	0x3d0b65cf	0.03403264
236	0xbc822fab	-0.01589187
237	0xbd9154ef	-0.07096278
238	0x3a7cf482	0.00096494716
239	0xbd02befb	-0.031920414
240	0x3e24ca78	0.1609286
241	0x3d9c890c	0.07643327
242	0x3d52ae60	0.05143583
243	0xbe1abcb6	-0.1511105
244	0x3e3b2472	0.18275622
245	0xbb38275e	-0.0028099637
246	0x3e0f8a7b	0.1401767
247	0xbe014bec	-0.12626618
248	0x3e3e06a0	0.18557215
249	0x3e5a9a2c	0.21347874
250	0x3e13cbe3	0.14433245
251	0x3e2aa665	0.16665037
252	0xbdc48e32	-0.09597434
253	0xbe0ba3c2	-0.13636687
254	0x3d646791	0.05576283
255	0x3dc66bab	0.09688505

net.2.bias f4 [32]
0	0x3e25f44f	0.16206478
1	0xbde951b4	-0.11392537
2	0xbe1b3241	-0.15155889
3	0x3e677985	0.2260495
4	0xbe8947f2	-0.26812702
5	0x3ca68632	0.020327661
6	0xbc19559c	-0.00935879
7	0xbdf976b5	-0.12180845
8	0xbda1d454	-0.079018265
9	0x3e168541	0.1469927
10	0xbd0e0022	-0.034668095
11	0x3dc4e03f	0.09613084
12	0x3d8f8367	0.07007485
13	0x3dcfac1e	0.101402506
14	0x3e28c4a1	0.16481258
15	0xbd1222de	-0.035677783
16	0xbe2f940d	-0.1714632
17	0xbe66dab5	-0.22544368
18	0xbe803266	-0.2503845
19	0xbe056783	-0.13027768
20	0x3d7fe971	0.062478486
21	0xbdc76dc9	-0.09737737
22	0xbe617f2e	-0.22021171
23	0xbd675c1c	-0.056484327
24	0x3e831a27	0.2560589
25	0xbe1da338	-0.15394294
26	0xbe93e11d	-0.28882685
27	0x3e160a32	0.14652327
28	0xbd034713	-0.032050204
29	0xbce82352	-0.028337155
30	0xbe59ab95	-0.2125686
31	0xbe3fbd61	-0.18724586

net.4.weight f4 [16, 32]
0	0x3d0886f7	0.033331838
1	0x3ddefd3a	0.10888143
2	0xbd1ebb0f	-0.03875261
3	0xbd7852a8	-0.060625702
4	0x3db0e038	0.08636516
5	0x3ddcb076	0.10775845
6	0xbdda6e00	-0.10665512
7	0xbe1e76b1	-0.15474965
8	0x3e1d64ac	0.15370435
9	0xbe04a4c2	-0.12953475
10	0xbd511421	-0.051044587
11	0xbe032171	-0.12805726
12	0x3e036bff	0.12834166
13	0x3de919a6	0.11381845
14	0x3e1f386d	0.15548868
15	0x3c0e5850	0.0086880475
16	0xbdf4f1cc	-0.119601816
17	0x3ddac89e	0.10682796
18	0xbc3a5319	-0.011372351
19	0x3d87465b	0.06605216
20	0x3d9dff07	0.07714658
21	0xbe1e0d12	-0.15434673
22	0xbd2205d8	-0.039556354
23	0x3dd45190	0.10367119
24	0x3d4429c5	0.047891397
25	0xbe01235c	-0.12611145
26	0x3daf901d	0.08572409
27	0x3ddb18ce	0.106980905
28	0x3d0a716e	0.03379958
29	0x3dec820b	0.11548241
30	0x3da88fb1	0.08230532
31	0x3da6e98a	0.08150013
32	0xbc28204a	-0.010261605
33	0xbe278ab7	-0.1636151
34	0xbdc480d0	-0.095948815
35	0x3d6b61c9	0.057466302
36	0xbe29837f	-0.16554068
37	0x3a1a9e86	0.00058982556
38	0x3da11d34	0.07866898
39	0xbe07c7d1	-0.13259818
40	0x3ed61007	0.41809103
41	0x3e1eadfe	0.1549606
42	0xbde14fce	-0.1100155
43	0xbe48fcd0	-0.1962769
44	0xbd632be6	-0.055461787
45	0xbe974316	-0.2954337
46	0x3e173d50	0.14769483
47	0xbd8598a6	-0.06523256
48	0x3f031c40	0.5121498
49	0xbe308e67	-0.17241822
50	0x3f01e0d1	0.5073367
51	0xbe78330d	-0.24238224
52	0xbe1a61e3	-0.15076403
53	0x3e646b1d	0.22306485
54	0x3dd2596e	0.102709636
55	0x3d41d3ae	0.047321014
56	0xbe48164d	-0.19539757
57	0x3e1da3e6	0.15394554
58	0xbe2081fa	-0.15674582
59	0xbe9460ea	-0.2898019
60	0x3e7e55a9	0.24837364
61	0x3db04f3a	0.08608861
62	0xbd170a0e	-0.036874823
63	0xbc9e62dc	-0.01933425
64	0x3d61a98e	0.05509334
65	0xbd44f17c	-0.04808186
66	0xbcb7141c	-0.022348456
67	0x3d43cb33	0.047801208
68	0xbe51f6e6	-0.2050434
69	0x3ddf6dc4	0.10909608
70	0x3d74bacd	0.05974846
71	0x3dd88fc3	0.10574295
72	0x3ecfd788	0.40594125
73	0x3e9b7828	0.3036511
74	0xbd439684	-0.047750965
75	0xbe89e8b0	-0.2693534
76	0xbe81bd87	-0.2533991
77	0xbe012735	-0.12612613
78	0x3e228f00	0.15874863
79	0xbe1d11e0	-0.1533885
80	0x3e8faadc	0.28060043
81	0xbdefc87e	-0.11708163
82	0x3e014833	0.12625198
83	0xbdfd81ca	-0.12378271
84	0xbdf04940	-0.11732721
85	0x3e8f6e3d	0.28013793
86	0xbe038f48	-0.12847626
87	0xbe0d5930	-0.13803554
88	0xbe03442b	-0.12818973
89	0x3e722d69	0.23650135
90	0xbd2ea127	-0.042634156
91	0xbdd95e85	-0.10613731
92	0x3e6caa50	0.23111844
93	0x3d8bc037	0.068237714
94	0xbd0c642b	-0.034275215
95	0xbe0f008e	-0.13965055
96	0xbc0c6b92	-0.008570569
97	0xbcab2fb0	-0.020896763
98	0xbe142071	-0.144655
99	0xbcda283a	-0.02663051
100	0x3ca73487	0.02041079
101	0xbf19a845	-0.60022384
102	0x3dbf0d75	0.093287386
103	0xbda51f1c	-0.08062574
104	0xbebd942b	-0.37027106
105	0xbdc57551	-0.09641517
106	0xbe90e26d	-0.2829775
107	0xbe0cd91e	-0.13754699
108	0x3e909120	0.28235722
109	0x3d8e463d	0.06946991
110	0x3c52f803	0.012876513
111	0x3e195e41	0.14977361
112	0xbc8c3cef	-0.0171189
113	0x3e0d9537	0.13826452
114	0x3e23a765	0.15981825
115	0xbde15abb	-0.110036336
116	0xbd2ddc81	-0.042446617
117	0x3dd6b188	0.1048308
118	0x3dd6b462	0.10483624
119	0x3d4baeb4	0.049727157
120	0xbd8e96e9	-0.069623776
121	0x3df631c1	0.120212086
122	0x3e669c80	0.22520638
123	0x3e2330c0	0.15936565
124	0xbde619f3	-0.11235418
125	0xbdb40a1b	-0.0879099
126	0xbd70b96c	-0.058770582
127	0xbe3e77a9	-0.18600334
128	0x3de10dbd	0.109889485
129	0xbe0a3eec	-0.13500565
130	0xbe2b6c7c	-0.16740602
131	0xbe2effad	-0.1708972
132	0x3e0789e6	0.13236198
133	0x3d89da9a	0.06731148
134	0xbc9aa650	-0.018878132
135	0xbd6799fd	-0.05654334
136	0x3db9793e	0.09056328
137	0xbd95a88e	-0.0730754
138	0xbd76186b	-0.06008188
139	0xbd97e807	-0.074173026
140	0x3dd4007f	0.10351657
141	0x3d4e0ec5	0.050307054
142	0x3df1b83c	0.11802718
143	0xbb678333	-0.0035326004
144	0xbc857c7b	-0.016294708
145	0x3d9c3ab2	0.07628383
146	0xbba11823	-0.0049162074
147	0x3c0fa5b4	0.008767534
148	0x3cbabbf9	0.02279471
149	0x3d80f734	0.0629715
150	0xbdc48efa	-0.09597583
151	0x3d1efa77	0.03881308
152	0xbc0a8aa3	-0.008455905
153	0xbdaa3129	-0.08310158
154	0x3c112efe	0.0088613015
155	0x3d1025ff	0.035192486
156	0x3e0758ee	0.13217518
157	0xbdd4e5a4	-0.10395363
158	0xbd031fda	-0.032012798
159	0x3de91946	0.11381774
160	0xbd1c3a82	-0.038141735
161	0x3d5ee900	0.054421425
162	0xbe9cd1ee	-0.30628914
163	0x3d27d934	0.040978625
164	0x3dbf9549	0.09354646
165	0xbe9b3e43	-0.3032094
166	0xbd503d34	-0.050839618
167	0xbd45f9e0	-0.048334002
168	0xbd293940	-0.041314363
169	0xbe552179	-0.2081355
170	0xbe8ba1bd	-0.27271834
171	0xbf47b48b	-0.7800986
172	0x3e5c4040	0.21508884
173	0x3e4af7ee	0.1982114
174	0x3e347b7d	0.17625232
175	0xbd5cd871	-0.053917352
176	0x3d422e9e	0.04740774
177	0x3d1f3d38	0.038876742
178	0x3e542e4f	0.2072079
179	0xbb9427c1	-0.0045213406
180	0xbdc28ce1	-0.09499527
181	0x3d9c287d	0.0762491
182	0x3dd7e13a	0.105410054
183	0x3ee9f8a0	0.45697498
184	0xbe2fc55f	-0.17165135
185	0x3da6c479	0.08142943
186	0x3e661073	0.22467212
187	0x3e2538b8	0.16134918
188	0xbdedf30d	-0.11618624
189	0xbee3eaa1	-0.44514945
190	0xbf41ab87	-0.75652355
191	0x3cb6ff09	0.022338407
192	0xbe0ecda0	-0.13945627
193	0xbd32f6bc	-0.043692335
194	0xbe046a90	-0.12931275
195	0xbe09039f	-0.13380288
196	0x3d5bc794	0.05365713
197	0x3db0c696	0.08631627
198	0x3cc31e68	0.02381821
199	0x3dfb24aa	0.122628525
200	0xbd2d8704	-0.04236509
201	0x3cbb50f8	0.022865757
202	0x3e0580d5	0.13037427
203	0x3e15f1df	0.14643048
204	0x3d4f4bc8	0.05060938
205	0xbe1a8ca5	-0.15092714
206	0x3d2f2280	0.04275751
207	0x3e0271ed	0.12738772
208	0x3d76a778	0.060218304
209	0xbe324b76	-0.17411599
210	0xbd6ca434	-0.057773784
211	0xbdb97c8a	-0.09056957
212	0xbe22ec24	-0.15910393
213	0xbe169b0c	-0.14707583
214	0x3dea03d2	0.1142651
215	0xbde7f0ac	-0.113252014
216	0xbdda38d9	-0.10655374
217	0xbd9d8dc5	-0.07693056
218	0xbc9a0908	-0.018803135
219	0x3dd73a92	0.10509218
220	0xbe325660	-0.17415762
221	0xbda1e540	-0.07905054
222	0xbcec1f10	-0.028823406
223	0x3d48e978	0.04905078
224	0xbdaa67db	-0.0832059
225	0xbd44dc88	-0.048061877
226	0xbdc2abb4	-0.09505406
227	0xbd2287b4	-0.039680198
228	0x3d6a2660	0.057165504
229	0xbde08461	-0.10962749
230	0xbd270bf1	-0.040782873
231	0xbded2780	-0.115798
232	0x3d07ed51	0.033185307
233	0xbe0b50d2	-0.13605049
234	0x3d816077	0.06317227
235	0xbe3437e8	-0.17599452
236	0x3d8d5fce	0.06903039
237	0x3d644ba5	0.055736203
238	0xbe0a1ad7	-0.13486801
239	0xbd42a7f2	-0.047523446
240	0xbe08788b	-0.13327233
241	0xbdace3f8	-0.08441919
242	0x3d9a07d8	0.07521027
243	0xbde2dda8	-0.11077434
244	0x3d975e88	0.07391077
245	0x3d87e641	0.06635714
246	0x3e224d1d	0.15849729
247	0xbd9341db	-0.07190295
248	0xbe385af7	-0.1800345
249	0x3da84357	0.08215969
250	0xbd429661	-0.047506694
251	0xbdd71f29	-0.1050399
252	0xbde01554	-0.10941568
253	0x3e078bb7	0.1323689
254	0xbe0e56d4	-0.1390031
255	0x3c496781	0.012292744

net.4.bias f4 [16]
0	0x3e070a15	0.1318744
1	0xbdc723aa	-0.09723599
2	0xbd59357a	-0.053029515
3	0xbd509976	-0.0509276
4	0x3d2563b8	0.040378302
5	0xbd9d626c	-0.07684788
6	0xbe32b624	-0.17452294
7	0xbda61987	-0.08110338
8	0xbe1d3972	-0.15353945
9	0xbdd6310c	-0.10458574
10	0x3b5c11a4	0.003357985
11	0x3d8d7e20	0.06908822
12	0xbdc7b611	-0.09751523
13	0xbdd8aa2e	-0.10579334
14	0xbc77bc50	-0.015120581
15	0xbd48ce3a	-0.049024798

net.6.weight f4 [2, 16]
0	0x3e2d4f27	0.16924725
1	0x3c0ff820	0.008787185
2	0x3c06f280	0.008236527
3	0xbb875277	-0.0041297036
4	0xbdc9a89f	-0.09846615
5	0xbc1cfd39	-0.009581857
6	0x3dcbef80	0.099577904
7	0x3e54aee3	0.20769839
8	0x3dbb5067	0.09146195
9	0xbd735902	-0.059411056
10	0xbbe4f065	-0.006986665
11	0x3e79dab9	0.24399842
12	0x391b7b47	0.00014827876
13	0x3c32b933	0.010908413
14	0xbbd43f12	-0.006477245
15	0xbd9023d4	-0.07038084
16	0xbe2ed075	-0.17071708
17	0x3f6a441e	0.9151019
18	0x3f4ba3c1	0.79546744
19	0xbe4a0625	-0.19728906
20	0x3e166782	0.14687923
21	0xbf59a8c6	-0.8502315
22	0xbdfaf43c	-0.12253615
23	0x3e7146fb	0.23562233
24	0xbe312359	-0.1729864
25	0x3c431a0a	0.011908064
26	0xbf3971c0	-0.72439194
27	0xbd460bfb	-0.04835127
28	0x3e851352	0.25991303
29	0xbe0355d0	-0.12825704
30	0xbf2eb10c	-0.682389
31	0x3db3b9df	0.087756865

net.6.bias f4 [2]
0	0xbd93bd8e	-0.07213889
1	0x3d0e60a5	0.034760136
