1 DOF Non-linear duffing/linear_model_parameters_m3.pth (torch, 8228 bytes, 8 tensors)

net.0.weight f4 [16, 3]
0	0xbce5a5dc	-0.02803319
1	0xbf0d4d46	-0.55196035
2	0xbca24140	-0.019806504
3	0xba07f364	-0.00051861093
4	0x3fbeee5f	1.4916495
5	0xbc75ea4c	-0.015009474
6	0x3c860012	0.016357455
7	0xbc9153c4	-0.017740138
8	0x3c35d5f5	0.011098375
9	0xbac8ca95	-0.0015319163
10	0xbe8be84b	-0.27325663
11	0x3ba37881	0.0049887304
12	0x3cd78359	0.026307749
13	0x3e08c384	0.13355833
14	0x3d9bf540	0.07615137
15	0x3a935065	0.0011239169
16	0xbe054961	-0.13016273
17	0x3b9084bb	0.004410354
18	0xbb0a4200	-0.0021096468
19	0x3e3dc738	0.18533027
20	0xbc4fd5c0	-0.012685239
21	0xb917d724	-0.00014480628
22	0xbfcaae0c	-1.5834365
23	0x3c8f8cbf	0.017523168
24	0x3a824317	0.0009938207
25	0xbea65e8e	-0.32494015
26	0xbd18d04c	-0.037308022
27	0xb88eeef2	-6.815595e-05
28	0xbd857d66	-0.065180585
29	0xbac0b4e8	-0.0014702352
30	0xbc79db30	-0.015250012
31	0x3e0fafe7	0.14031945
32	0x3cc4cdac	0.024023853
33	0x3a0a35f4	0.0005272322
34	0xbf66bf38	-0.90135527
35	0x3c130e75	0.008975615
36	0x3a80be5e	0.0009822359
37	0x3f0e0c61	0.5548764
38	0xbb8aa804	-0.004231455
39	0x3aa89068	0.0012860419
40	0x3ee94237	0.4555833
41	0x3a8d5ff0	0.0010786038
42	0xbb3e4271	-0.0029031301
43	0x3f0160b0	0.5053816
44	0xbd066303	-0.03280927
45	0xba998933	-0.0011713862
46	0xbc8615e7	-0.016367866
47	0xbb80966c	-0.0039241817

net.0.bias f4 [16]
0	0xbf01e03f	-0.507328
1	0xbd84d2c8	-0.06485516
2	0xbe67b04f	-0.2262585
3	0x3edc5f72	0.4304157
4	0xbf129e61	-0.5727292
5	0x3e15cee4	0.14629704
6	0xbf0505f4	-0.5196221
7	0xbd72abf9	-0.059246037
8	0xbd530a0e	-0.05152326
9	0x3ee2b3b5	0.4427773
10	0xbe661a5f	-0.22470997
11	0x3e80bc37	0.25143597
12	0x3e2fc466	0.17164764
13	0x3ddd0923	0.10792758
14	0xbde4fec0	-0.11181402
15	0xbd0f0c79	-0.034924004

net.2.weight f4 [32, 16]
0	0xbe7231f2	-0.23651865
1	0xbdc742d7	-0.097295456
2	0x3d82ce38	0.06386989
3	0xbe7002ec	-0.23438615
4	0xbdfeb0cb	-0.12436064
5	0x36f6d0a3	7.35566e-06
6	0x3e7a565a	0.24447003
7	0x3b90daeb	0.0044206283
8	0xbec6d0be	-0.38831133
9	0xbdf0dab4	-0.11760464
10	0x3d179187	0.03700402
11	0x3d165948	0.03670624
12	0x3e546dbe	0.20744988
13	0xbde587a9	-0.11207516
14	0xbd4f0809	-0.050544772
15	0xbcb60637	-0.02221976
16	0x3d8636f1	0.06553448
17	0x3cb4a94f	0.022053389
18	0x3d1d206b	0.038360994
19	0xbe1ce293	-0.15320806
20	0xbe4b88df	-0.19876431
21	0x3d91e2b4	0.07123318
22	0xbe35ead8	-0.17765367
23	0x3e5f8bf6	0.21830735
24	0xbe470cc2	-0.1943846
25	0xbd569008	-0.052383453
26	0x3e45efbb	0.19329731
27	0xbcab4243	-0.02090562
28	0xbd539748	-0.051657945
29	0xbba010a8	-0.004884798
30	0xbeaaaa18	-0.33332896
31	0xbd22fe49	-0.039793286
32	0x3d8540ca	0.06506498
33	0x3dac85d1	0.08423961
34	0x3e1edf43	0.15514855
35	0xbe41f33f	-0.18940447
36	0xbccedf67	-0.02525301
37	0xbe359624	-0.17733055
38	0xbc0af6c0	-0.008481681
39	0x3e068231	0.13135602
40	0x3d783e3f	0.060606238
41	0xbe09c1b3	-0.13452797
42	0x3d3252cc	0.043535993
43	0xbe4301e1	-0.19043685
44	0x3e1e1a92	0.15439823
45	0xbe416bbb	-0.18888752
46	0x3e1063c6	0.1410056
47	0xbd8149e8	-0.063129246
48	0xbdde0284	-0.108403236
49	0x3f37a17f	0.717308
50	0x3d02a193	0.03189237
51	0x3d3b544e	0.045734696
52	0xbe55c6eb	-0.20876662
53	0x3d2149d5	0.039377052
54	0xbe309ad2	-0.1724656
55	0x3e1492b1	0.14509083
56	0x3e4b5e46	0.19860181
57	0xbcc5e669	-0.02415772
58	0xbd7c3a6a	-0.061579145
59	0xbd5ffac1	-0.054682497
60	0x3e4a25ea	0.19741026
61	0x3e85334d	0.26015702
62	0xbd19515e	-0.037431113
63	0x3d50e081	0.050995354
64	0x3d5cc388	0.05389741
65	0xbe1fd0e5	-0.1560703
66	0x3da6640a	0.0812455
67	0xbd628303	-0.055300724
68	0xbd47a20d	-0.048738528
69	0x3c961384	0.018319853
70	0x3e3b2ba8	0.18278372
71	0x3f8aa290	1.083086
72	0x3de3f2e3	0.11130311
73	0xbd4a9916	-0.0494624
74	0x3b65eeee	0.003508504
75	0xbdea40e3	-0.114381574
76	0xbea477d4	-0.32122672
77	0xbe26c387	-0.16285525
78	0xbe3c61f2	-0.18396738
79	0x3cd2f480	0.025751352
80	0x3e16af9a	0.14715424
81	0x3f098534	0.53718877
82	0xbdbeb110	-0.09311116
83	0xbe4455a8	-0.191733
84	0x3d275880	0.040855885
85	0x3dd8146e	0.10550772
86	0xbd26c800	-0.04071808
87	0xbe05d492	-0.1306937
88	0xbe44768c	-0.19185847
89	0x3d683e4d	0.05670004
90	0x3dc64490	0.09681046
91	0xbe230698	-0.15920484
92	0x3db70845	0.08937124
93	0x3d757141	0.05992246
94	0x3e8b4bb1	0.27206185
95	0x3c1b646c	0.009484392
96	0xbbefd055	-0.0073185363
97	0x3e88650b	0.2663959
98	0x3e1c23cd	0.15248032
99	0x3e74e337	0.239148
100	0xbe020e90	-0.12700868
101	0x3e096a69	0.13419499
102	0x3e32c23a	0.17456904
103	0xbe2b4306	-0.16724786
104	0x3d4c38ee	0.04985898
105	0xbcf9a77c	-0.03047537
106	0x3cec44a6	0.028841328
107	0xbdbfa56d	-0.09357724
108	0x3d616c40	0.055034876
109	0x3e3d7f4c	0.18505591
110	0xbe2ce2fc	-0.16883463
111	0xbe5f1827	-0.21786557
112	0xbd7fe689	-0.062475715
113	0x3dff3d3d	0.12462852
114	0x3d42ae5a	0.047529556
115	0xbe221442	-0.1582804
116	0xbd6c1854	-0.05764039
117	0xbe139a10	-0.14414239
118	0xbdeda56c	-0.11603817
119	0x3f8d5388	1.1041117
120	0x3dac88d7	0.08424538
121	0xbe0137fe	-0.12619016
122	0xbca2f088	-0.019890085
123	0x3e1acb0e	0.15116522
124	0xbeb615eb	-0.35563597
125	0xbd87e472	-0.06635369
126	0xbdc7a647	-0.09748512
127	0x3e85c2b1	0.261251
128	0x3bf77ca1	0.0075526987
129	0x3c079501	0.008275271
130	0xbe21cbef	-0.1580045
131	0x3d82f816	0.06394975
132	0x3dff78b6	0.12474196
133	0x3e2b1bc6	0.16709813
134	0x3d8b35ec	0.06797394
135	0x3f89aa9a	1.0755188
136	0x3c34a10a	0.011024723
137	0x3d167deb	0.03674118
138	0x3e87d01c	0.26525962
139	0x3e315b4a	0.1731998
140	0x3bd2fdbc	0.006438939
141	0x3e4b3018	0.19842565
142	0x3e15be09	0.14623274
143	0xbd0d972e	-0.034568004
144	0x3e39ff42	0.1816378
145	0x3f1f7681	0.622902
146	0x3ebb746e	0.36612266
147	0x3e26c795	0.16287072
148	0xbe2b2aef	-0.16715597
149	0xbe29d199	-0.16583861
150	0xbe7dac8c	-0.24772853
151	0xbea42d0d	-0.3206562
152	0xbd7eb8dd	-0.062188018
153	0xbe4cafa4	-0.19988877
154	0x3e0c89d2	0.1372445
155	0x3dd904a4	0.10596588
156	0x3c8d8ba1	0.017278494
157	0xbd3a14f5	-0.045430142
158	0x3e56322d	0.20917578
159	0xbd15349a	-0.036427118
160	0xbe8910a4	-0.26770508
161	0x3eaf0a67	0.34187624
162	0x3e27bfd4	0.1638177
163	0x3d1bafa7	0.038009312
164	0x3d1edb38	0.038783282
165	0x3bd97da8	0.006637294
166	0xbdfdde84	-0.12395957
167	0xbdcdef36	-0.100553915
168	0x3e2cb347	0.16865264
169	0xbd357833	-0.044304084
170	0xbe6a32db	-0.22870962
171	0xbdfd0a18	-0.12355441
172	0x3d0f0dfb	0.034925442
173	0x3cf9638c	0.030442975
174	0x3d7837b6	0.060600005
175	0x3da670ce	0.081269845
176	0xbed12eec	-0.4085611
177	0x3d929b81	0.07158566
178	0xbe2af14a	-0.16693607
179	0xbe8c9ffa	-0.27465802
180	0xbc95b0c4	-0.018272765
181	0x3e5c3ecf	0.21508335
182	0xbc9bc510	-0.019014865
183	0x3f12a296	0.57279336
184	0xbe8ef9bd	-0.2792491
185	0xbe5a31a5	-0.21308
186	0x3e5910a9	0.21197762
187	0x3da225c5	0.0791736
188	0xbe63fea6	-0.2226511
189	0xbccdadd5	-0.025107304
190	0xbdcbd597	-0.099528484
191	0xbe99cfdc	-0.30041397
192	0xbd5e0a09	-0.05420879
193	0x3d07bb87	0.033137824
194	0xbdedb163	-0.116060995
195	0x3bf1205e	0.007358595
196	0x3df3d813	0.11906447
197	0xbe09f70b	-0.13473146
198	0x3c444020	0.011978179
199	0xbe44c473	-0.19215564
200	0xbe0e8db2	-0.1392124
201	0x3e60d4b3	0.21956138
202	0xbd32920c	-0.043596312
203	0x3e67b4d7	0.22627579
204	0xbc2d6588	-0.010583289
205	0xbdf81ea9	-0.12115223
206	0xbdead0ab	-0.114655815
207	0x3e4ab95d	0.19797273
208	0xbe48afc6	-0.19598302
209	0xbd2b4f8b	-0.041823905
210	0x3d817b52	0.063223496
211	0x3daa2198	0.08307189
212	0x3cb8c68e	0.022555616
213	0xbd3b100b	-0.045669597
214	0x3e1e674a	0.15469089
215	0xbd1b0f7d	-0.037856568
216	0xbdb4248c	-0.08796033
217	0x3dc700f5	0.097169794
218	0x3e644a03	0.22293858
219	0x3da4fc55	0.08055941
220	0xbe24ea54	-0.16105014
221	0xbe9dcaff	-0.30818936
222	0x3e1babe6	0.15202293
223	0xbdcba100	-0.09942818
224	0xbd958bfe	-0.07302092
225	0x3f2239ea	0.6336962
226	0x3d029719	0.03188238
227	0xbe0c8803	-0.1372376
228	0xbe2eeebd	-0.17083259
229	0x3e26365b	0.16231672
230	0x3e1094ee	0.14119312
231	0xbd1cb324	-0.03825678
232	0xbd9c7469	-0.07639391
233	0xbb1b2952	-0.0023675752
234	0x3dbed396	0.093177006
235	0x3c6cb4ab	0.0144473715
236	0x3deab2a3	0.114598535
237	0xbe740d54	-0.2383321
238	0x3df9be36	0.12194483
239	0xbcf3dae3	-0.02976746
240	0x3dbd0935	0.09230272
241	0x3e83ce8c	0.2574352
242	0x3e301269	0.17194523
243	0x3e6f154a	0.23347965
244	0xbddb8a21	-0.107197054
245	0xbe5a6847	-0.21328841
246	0xbe762534	-0.2403763
247	0xbd426020	-0.047454953
248	0x3d8a3772	0.067488566
249	0xbe04acf3	-0.129566
250	0x3e42f172	0.19037417
251	0x3e88108c	0.26575124
252	0xbe1c3031	-0.15252759
253	0x3e7d59f6	0.24741349
254	0x3c0fb7a8	0.008771814
255	0x3cc934dc	0.024561338

net.2.bias f4 [32]
0	0x3d8e3de1	0.06945396
1	0xbd56c700	-0.052435875
2	0x3e88ba43	0.26704606
3	0xbdff2089	-0.124573775
4	0x3d2a1902	0.041527756
5	0x3df426af	0.11921441
6	0x3e61a3d8	0.22035158
7	0xbe10a67b	-0.14126007
8	0xbe44cbd0	-0.19218373
9	0x3d5c6161	0.053803805
10	0xbe44368f	-0.19161437
11	0x3cb5144b	0.022104403
12	0x3e3c36d1	0.18380286
13	0xbe67e86a	-0.22647253
14	0xbc8d7299	-0.017266558
15	0xbd88bba3	-0.06676414
16	0x3e02ea48	0.12784684
17	0xbd91a7c0	-0.07112074
18	0xbd2c130f	-0.042010363
19	0xbd4c7cf3	-0.04992385
20	0x3e401696	0.18758616
21	0x3e3e9ec6	0.18615255
22	0xbc6d3fd3	-0.014480549
23	0xbeb10d75	-0.3458058
24	0x3e032d9e	0.1281037
25	0xbbb90cef	-0.0056472938
26	0xbd9cd143	-0.07657101
27	0xbe78fde6	-0.24315605
28	0xbd4ba711	-0.049719874
29	0xbe294822	-0.16531423
30	0x3e2a4f94	0.16631919
31	0x3e5b8185	0.21436127

net.4.weight f4 [16, 32]
0	0x3dc9f3e7	0.09860974
1	0x3db38f3c	0.08767554
2	0xbd5090a7	-0.0509192
3	0xbe081c2e	-0.13292
4	0x3c3b4e7e	0.011432288
5	0xbd1914b3	-0.037373256
6	0x3e1fbbdc	0.15599006
7	0x3d9adae3	0.075612806
8	0x3e156a24	0.1459127
9	0x3c8159c3	0.015789872
10	0xbdb443fb	-0.08802029
11	0x3cc8b7fc	0.024501793
12	0x3e0be97d	0.13663287
13	0x3d9ae912	0.07563986
14	0x3d86f007	0.0658875
15	0xbc5f9699	-0.013646745
16	0xbe1c76fa	-0.15279761
17	0xbd332646	-0.043737672
18	0x3e07df04	0.13268667
19	0xbcfe1e9a	-0.031020451
20	0x3dca19c1	0.098681934
21	0x3dad9ad9	0.084768005
22	0xbd0be17f	-0.034150597
23	0x3e3cc4f4	0.18434507
24	0xbce6c5ad	-0.028170431
25	0x3d5966bf	0.053076502
26	0xbd45361d	-0.04814731
27	0x3c35569b	0.011068012
28	0x3d0d8a16	0.034555517
29	0x3d19eb2e	0.0375778
30	0x3c7ed59e	0.01555386
31	0x3e0ab1f2	0.13544443
32	0xbe1221bb	-0.1427068
33	0xbe301050	-0.17193723
34	0xbdcd10cb	-0.10012969
35	0xbd4bdf77	-0.04977366
36	0xbceb7443	-0.028741961
37	0xbd3fc2d2	-0.046816655
38	0x3d8f9e81	0.07012654
39	0xbe25f26b	-0.16205756
40	0x3c392faa	0.011302868
41	0xbbae5e63	-0.0053213104
42	0x3d04c03d	0.032409895
43	0x3e33f29d	0.17573018
44	0x3dca8cd2	0.098901406
45	0xbdc87665	-0.09788207
46	0xbe0ce98a	-0.13760963
47	0xbd3da476	-0.04629942
48	0xbdce829a	-0.10083504
49	0x3d4a9cad	0.049465824
50	0x3ad46700	0.0016205013
51	0x3e0759fd	0.13217922
52	0x3d62ba4c	0.055353448
53	0xbd08ddc0	-0.033414602
54	0x3bc71780	0.0060757995
55	0x3cf55425	0.02994735
56	0xbcb3b290	-0.021935731
57	0x3dfa0fef	0.1221007
58	0xbe0d8a00	-0.13822174
59	0x3d85c3ad	0.06531463
60	0xbe017141	-0.12640859
61	0xbe0e5f47	-0.13903533
62	0xbd43faaf	-0.047846492
63	0x3d9bb179	0.076022096
64	0x3dffcd82	0.124903694
65	0x3d35b3a8	0.044360787
66	0xbc7a5340	-0.015278637
67	0xbc225d80	-0.009909987
68	0xbd92c383	-0.07166197
69	0xbc81f420	-0.015863478
70	0xbc481e10	-0.012214199
71	0x3e1a0a6b	0.15043037
72	0x3dd3e18a	0.103457525
73	0xbe10db23	-0.14146094
74	0x3a3fb300	0.0007312745
75	0xbddeadd8	-0.10873002
76	0xbce5e1a0	-0.028061688
77	0xbe0fde4f	-0.14049648
78	0x3d3c3b60	0.045955062
79	0xbe028771	-0.1274698
80	0x3e32b4c3	0.17451768
81	0x3e08b4cd	0.1335022
82	0xbdf93669	-0.12168581
83	0xbe2a6c55	-0.16642888
84	0x3be203c0	0.0068974197
85	0xbd4a209c	-0.049347505
86	0x3d5490a4	0.051895753
87	0xbdf511af	-0.119662635
88	0x3d943286	0.07236199
89	0xbe1c5af7	-0.15269075
90	0xbdbf12bb	-0.093297444
91	0xbdbe530a	-0.09293182
92	0x3daf2ffa	0.08554073
93	0xbb97a860	-0.004628226
94	0xbe2df6fa	-0.16988745
95	0xbdcec47d	-0.10096071
96	0xbddb3a3a	-0.10704465
97	0xbe36f662	-0.17867425
98	0x3db41b88	0.08794314
99	0x3e0cbd04	0.13743979
100	0xbda8482f	-0.08216893
101	0xbc9d344d	-0.019189978
102	0x3d07e4d4	0.033177212
103	0xbe6fb57c	-0.23409075
104	0xbe29eaf5	-0.16593535
105	0x3c84315e	0.016136821
106	0x3e82ef33	0.2557312
107	0xbda603ff	-0.08106231
108	0x3dd65bbd	0.104667164
109	0xbdd58bf5	-0.10427085
110	0x3dd0932b	0.1018432
111	0xbe4277f1	-0.18991067
112	0x3e1fed8c	0.1561796
113	0x3ed518f5	0.41620603
114	0x3e52986b	0.20565955
115	0x3ea858ff	0.328804
116	0x3e26021a	0.16211739
117	0x3de77b8b	0.11302861
118	0x3de08471	0.10962761
119	0xbeae29c5	-0.34016243
120	0xbe03895a	-0.12845364
121	0xbcf0ea06	-0.029408466
122	0x3d9c72ef	0.07639109
123	0xbe6471e6	-0.22309074
124	0xbdf4abde	-0.119468436
125	0x3cfb44f4	0.030672528
126	0xbd225c5b	-0.03963886
127	0x3d06cde9	0.032911215
128	0x3cd0ec30	0.025503248
129	0xbdd3dd7d	-0.1034498
130	0x3ded0ce6	0.11574726
131	0xbd897235	-0.067112364
132	0xbd4bd8ec	-0.04976742
133	0x3e09ea05	0.13468178
134	0x3e1b6a19	0.15177192
135	0xbca62208	-0.0202799
136	0xbe01f327	-0.12690412
137	0xbdb59fa4	-0.0886834
138	0x3cb86828	0.022510603
139	0x3dd4396e	0.10362516
140	0x3db43d32	0.088007346
141	0xbd9fdeb3	-0.078061484
142	0xbe2b2130	-0.16711879
143	0xbe1e6b24	-0.15470558
144	0xbd665ea6	-0.056242608
145	0x3b1153c0	0.0022175163
146	0xbda29e72	-0.07940377
147	0xbe0f2208	-0.13977826
148	0x3c989e20	0.018630087
149	0xbe0faeb3	-0.14031486
150	0xbe0b0256	-0.1357511
151	0xbe1328b0	-0.1437099
152	0xbd4434ac	-0.047901794
153	0x3e1fe305	0.15613945
154	0x3d8d8726	0.06910543
155	0xbcabb4d0	-0.020960242
156	0x3d1505f4	0.03638263
157	0x3d902ac6	0.070394084
158	0x3a86ff00	0.0010299385
159	0xbe12016c	-0.14258355
160	0x3ce9255f	0.028460203
161	0xba89687e	-0.0010483412
162	0xbb9d1cb3	-0.004794681
163	0xbe0048d2	-0.12527779
164	0x3d48d0bd	0.049027193
165	0xbd2ffcc6	-0.042965673
166	0x3e72ee51	0.23723723
167	0x3e777bc2	0.24168304
168	0x3e703873	0.23459034
169	0x3d98011c	0.074220866
170	0xbdb8ec45	-0.0902944
171	0x3d816c18	0.06319445
172	0xbd575510	-0.052571356
173	0xbc599bec	-0.013281804
174	0xbd81b19a	-0.06332703
175	0x3cfe39e9	0.031033473
176	0xbdd21ac6	-0.10259013
177	0x3de60ed6	0.112332985
178	0x3cb257fa	0.021770466
179	0xbe0f61ba	-0.14002123
180	0x3db476a8	0.088116944
181	0xbb8df819	-0.004332554
182	0xbb0f4710	-0.0021862425
183	0x3dd43c94	0.10363117
184	0x3e071d93	0.13194875
185	0xbb4e1996	-0.0031448356
186	0xbd8baefd	-0.06820486
187	0xbe0384d3	-0.12843637
188	0x3e80ce2b	0.25157294
189	0x3b69ba03	0.003566385
190	0xbd6034ea	-0.054737963
191	0x3d0fd811	0.035118166
192	0xbdb7296f	-0.0894345
193	0xbe0660b2	-0.13122824
194	0xbe94bd4f	-0.2905068
195	0xbc3e4df8	-0.011615269
196	0x3db2fb50	0.0873934
197	0xbe92cfde	-0.28674215
198	0xbd95b710	-0.07310307
199	0x3e9f8868	0.31158757
200	0x3e30d070	0.17267013
201	0x3cd740e5	0.026276061
202	0xbd7f80d4	-0.06237872
203	0xbdc9a982	-0.09846784
204	0xbbb13ba9	-0.0054087234
205	0xbe3fae85	-0.18718918
206	0xbce686fb	-0.028140536
207	0xbcfd3bed	-0.030912364
208	0x3e1fe3a3	0.1561418
209	0xbddd5b9b	-0.10808488
210	0x3d743d29	0.05962864
211	0xbaccacb5	-0.0015615436
212	0xbd4e546e	-0.050373487
213	0x3e003177	0.1251887
214	0x3e2cad03	0.16862874
215	0x3eb2b1c2	0.34901243
216	0xbe1251cb	-0.14289014
217	0x3d8b3686	0.06797509
218	0x3d2cc9f5	0.04218479
219	0x3df15709	0.11784179
220	0xbd8ba4d5	-0.068185486
221	0xbd68eec5	-0.056868333
222	0xbeebd092	-0.46057564
223	0xbd0bccd2	-0.03413088
224	0xbdc21b42	-0.09477855
225	0xbce79031	-0.028266998
226	0xbe23cfde	-0.15997264
227	0xbdde6b0e	-0.10860263
228	0x3b92051e	0.0044561764
229	0x3dd3c9f1	0.10341252
230	0x3e10be10	0.14135003
231	0xbe093712	-0.13399914
232	0x3d68a98b	0.056802314
233	0xbdf11cbb	-0.11773058
234	0xbe0bf4d4	-0.13667613
235	0xbcc17cf8	-0.02361916
236	0xbdf40a97	-0.11916082
237	0xbe1be6f9	-0.15224828
238	0xbe3b2afe	-0.18278119
239	0xbe069c66	-0.13145599
240	0x3e03e09a	0.12878647
241	0x3dc9e972	0.09858979
242	0xbda70f1a	-0.08157177
243	0xbdf5c7ea	-0.12001021
244	0xbe0b3f65	-0.13598402
245	0xbdfa5fe0	-0.12225318
246	0xbdb74b89	-0.08949954
247	0x3d815aa7	0.06316119
248	0x3d6656ed	0.056235243
249	0xbd8b8506	-0.068124816
250	0x3dccb11d	0.09994719
251	0xbe38e1b8	-0.18054855
252	0xbe2459a2	-0.16049817
253	0x3cbe9d96	0.023268502
254	0xbdeb9c39	-0.115044065
255	0x3d075179	0.033036683

net.4.bias f4 [16]
0	0x3d913f02	0.07092096
1	0xbdb421ae	-0.087954864
2	0xbbc098c0	-0.005877584
3	0x3e43eef6	0.19134125
4	0xbe1704a9	-0.14747871
5	0xbdaa6c04	-0.083213836
6	0xbe294fe4	-0.16534382
7	0xbcfde54b	-0.030993124
8	0xbbc75740	-0.006083399
9	0xbe0b7107	-0.13617335
10	0x3d0fdce3	0.035122763
11	0xbd6f6951	-0.058450047
12	0x3d9e88fe	0.07740973
13	0xbdb4271c	-0.08796522
14	0x3d2e865c	0.042608604
15	0x3dbb7742	0.09153606

net.6.weight f4 [2, 16]
0	0xbe0c7cbf	-0.13719462
1	0x3e680101	0.22656633
2	0xbe307ec4	-0.17235857
3	0xbd53d83a	-0.05171988
4	0xbe3bf888	-0.18356526
5	0x3aa0ad59	0.0012258693
6	0x3bfef46c	0.007780602
7	0x3e5d43cb	0.21607892
8	0x3cf32030	0.029678434
9	0xbb8b5805	-0.004252436
10	0x3e30f5b3	0.17281227
11	0x3c389d70	0.011268005
12	0x3c59ac7e	0.013285754
13	0x3b727b7c	0.0036999872
14	0xbe15ac9c	-0.14616627
15	0xbe6de08e	-0.23230192
16	0x3dac2b9a	0.08406754
17	0x3d17f825	0.037101883
18	0xbe37db42	-0.17954734
19	0xbe484d30	-0.19560695
20	0xbddb9974	-0.10722628
21	0x3dc1c7fa	0.094619706
22	0x3f177d80	0.5917587
23	0xbde80543	-0.113291286
24	0x3d32aff8	0.043624848
25	0xbee44900	-0.44586945
26	0x3db9f810	0.09080517
27	0xbef3d2f2	-0.47621876
28	0xbd6b5104	-0.05745031
29	0x3ef97d63	0.48728475
30	0x3ddaf878	0.10691923
31	0xbdbad66f	-0.09122931

net.6.bias f4 [2]
0	0x3df999ef	0.12187564
1	0x3ded0335	0.11572877
