1 DOF Non-linear duffing/nl_1_epsilon.pth (torch, 25794 bytes, 11 tensors)

net.0.weight f4 [16, 3]
-0.006450767 -0.80687445 -0.10327052 -0.0014072752 -0.36143154 0.36329162 0.0007517794 -1.401773
-0.05230631 -0.0028791989 -0.9776097 0.005667404 0.0090418905 0.42188144 0.49972942 -0.0018365885
-0.51036197 0.007403977 -0.0021096468 0.18533027 -0.012685239 0.0056783324 -1.6582246 0.55223256
-0.0032458557 -0.9627214 0.017825477 0.00029374525 0.71233994 -0.008058038 -0.0070071667 -0.93260425
-0.68283033 -0.0010020057 -2.2493374 -0.04028859 -0.00067233056 2.1622157 0.016428167 0.0056870244
-1.2498804 -0.018873252 0.00042752927 0.9064559 0.00075247214 -0.0047324 0.09575344 -0.47181267
00000000: f560 d3bb 538f 4ebf 7f7f d3bd 5274 b8ba
00000010: 8e0d b9be 5c01 ba3e 1013 453a 4c6d b3bf
00000020: 243f 56bd f1b0 3cbb a144 7abf a1b5 b93b
00000030: 7024 143c d800 d83e 89dc ff3e afb9 f0ba
00000040: 15a7 02bf 109d f23b 0042 0abb 38c7 3d3e
00000050: c0d5 4fbc 4e11 ba3b b440 d4bf 1d5f 0d3f
00000060: 6cb8 54bb e974 76bf bc06 923c d201 9a39
00000070: e95b 363f dc05 04bc 609c e5bb 27bf 6ebf
00000080: f8cd 2ebf bb55 83ba 25f5 0fc0 a605 25bd
00000090: 573f 30ba be61 0a40 5d94 863c 385a ba3b
000000a0: 15fc 9fbf 149c 9abc 0226 e039 7e0d 683f
000000b0: 8d41 453a 4012 9bbb 611a c43d 6e91 f1be

net.0.bias f4 [16]
-0.5168626 -0.5976786 -0.47775626 -0.31373543 -0.68613505 -0.17340013 -0.5196221 0.011319629
-0.2931609 -0.20553418 0.0064321235 0.63361907 0.6421556 -0.03461546 -0.2539456 -0.7310934
00000000: 1b51 04bf 7701 19bf 789c f4be eea1 a0be
00000010: 8ca6 2fbf ce8f 31be f405 05bf f775 393c
00000020: 2f19 96be 8d77 52be 90c4 d23b dc34 223f
00000030: 4f64 243f f1c8 0dbd 2805 82be f028 3bbf

net.2.weight f4 [32, 16]
0.030781303 0.10543623 -0.28717592 -0.20380592 -0.11736828 -0.105985396 0.24447003 1.1212164
-0.2582803 -0.10229632 1.0975182 -0.64701223 0.58227146 -0.16838881 -0.057172853 0.13336165
0.026815496 0.16568367 0.15039536 -0.017284282 -0.16006088 0.031939063 -0.17765367 0.039251655
-0.20349951 0.18752146 0.30707732 0.8452412 -0.22606213 0.020170484 0.1790451 0.1501643
-0.21589625 -0.22669972 0.43024972 -0.29955927 -0.037245054 -0.3244785 -0.008481681 -0.07206964
-0.0029330945 -0.34017196 0.25895068 -0.39217356 -0.3859753 -0.3005786 0.1015031 -0.024425924
0.007928146 -0.4506637 0.29109 -0.07872375 -0.8553339 -0.38047487 -0.1724656 -0.7546541
-0.34020704 -0.051805273 -0.6592375 -2.386063 0.39220384 -0.17993264 0.087173864 0.18482041
-0.11258014 -0.38777274 0.2676263 -0.0491624 -0.204284 0.12794437 0.18278372 0.080693856
-0.13058916 0.18121576 -0.23709057 1.0754865 -0.4417995 0.042723186 0.054197326 -0.057953358
0.18404154 0.16711861 0.084884204 -0.019922502 0.18499601 0.20993304 -0.04071808 0.2253183
0.0839768 0.22992788 0.25059012 -0.47809276 0.8593547 0.420367 0.22078131 -0.13554594
-0.1554643 0.12601525 0.19900036 0.20740278 -0.1270714 -0.08842816 0.17456904 0.011526093
-0.1777664 -0.0058844415 0.23013686 0.49982518 -0.2864218 -0.076032884 -0.034211744 -0.2545274
-0.016923357 0.0041880026 0.18158314 -0.26111028 -0.0046142936 -0.43888757 -0.11603817 0.71978253
0.2556764 0.01800275 0.023230975 0.30894822 -0.2562342 -0.051885966 0.015529177 0.45598966
-0.04101848 0.24937536 0.09197391 0.19574377 0.21789342 0.2140157 0.06797394 0.71507055
-0.05480894 0.26004815 0.6925504 0.77256405 -0.23461011 0.27120262 0.25405288 0.15818943
0.20510931 0.089721866 0.25937495 0.26125178 -0.0946568 -0.08183817 -0.24772853 -0.23255341
-0.17403264 0.056708965 -0.12673643 -0.16290273 0.9336894 0.18995419 0.13034827 -0.13072701
0.0029406154 -0.43200397 0.5642867 -0.24327649 -0.072938114 -0.3190234 -0.12395957 -0.15263484
0.21653593 -0.16987969 -0.36123055 -0.0617994 0.00930013 0.076029755 -0.010581421 -0.04900582
-0.16399278 -0.19152293 -0.10853715 -0.1678495 -0.28119162 0.17773001 -0.019014865 -0.10064258
-0.0749287 -0.4090557 0.5563013 -0.37072286 -0.3973499 -0.16343234 -0.12045905 0.41467127
-0.025939506 -0.026690809 -0.35434744 0.063058145 -0.055749897 -0.30925632 0.011978179 0.6754715
0.13739792 -0.2836946 0.5821117 -0.24173702 -0.08039135 -0.04419538 -0.2554218 0.48569015
-0.06828699 0.067855865 0.04180759 -0.0125750555 0.10362055 -0.032271277 0.15469089 -0.17572317
-0.29010782 0.26651755 -0.018448696 -1.8457066 0.6288564 -0.15988481 0.14793797 0.11517841
-0.0037854733 0.053743042 0.11439091 -0.26506874 -0.032982867 -0.19984803 0.14119312 -0.09861
-0.3466313 0.16099893 -0.053495824 -1.3354136 0.7188078 -0.24316333 0.2990981 0.085769236
0.14229298 0.7322792 0.043634914 0.20293146 0.7306077 -0.17794749 -0.2403763 0.38852483
0.04951244 0.1297748 0.26220667 0.6278039 -1.179164 0.27290782 0.31891245 -0.09060239
00000000: 1229 fc3c f3ee d73d b908 93be 80b2 50be
00000010: c85e f0bd df0e d9bd 5a56 7a3e 0584 8f3f
00000020: 513d 84be bc80 d1bd 7a7b 8c3f 98a2 25bf
00000030: be0f 153f 1e6e 2cbe 152e 6abd f58f 083e
00000040: 2cac db3c fba8 293e 3e01 1a3e c497 8dbc
00000050: 00e7 23be 89d2 023d d8ea 35be 58c6 203d
00000060: 2d62 50be a005 403e 3d39 9d3e ba61 583f
00000070: d57c 67be 923c a53c 9957 373e acc4 193e
00000080: e813 5dbe f923 68be b149 dc3e d55f 99be
00000090: 458e 18bd 0c22 a6be c0f6 0abc 3f99 93bd
000000a0: 2939 40bb 052b aebe 2f95 843e f9ca c8be
000000b0: 8e9e c5be 70e5 99be dbe0 cf3d e018 c8bc
000000c0: 0ee5 013c 64bd e6be c009 953e eb39 a1bd
000000d0: 2af7 5abf 9acd c2be d29a 30be 0331 41bf
000000e0: 9e2f aebe c431 54bd cac3 28bf 42b5 18c0
000000f0: f1ce c83e 4340 38be 3688 b23d 9041 3d3e
00000100: 6b90 e6bd 268a c6be 5006 893e 835e 49bd
00000110: d32f 51be d903 033e a82b 3b3e d242 a53d
00000120: 2ab9 05be a090 393e dfc7 72be 8ba9 893f
00000130: 8b33 e2be 82fe 2e3d 04fe 5d3d 8060 6dbd
00000140: 6375 3c3e 2421 2b3e c5d7 ad3d 8434 a3bc
00000150: 986f 3d3e b0f8 563e 00c8 26bd d7b9 663e
00000160: 07fc ab3d 3772 6b3e 594d 803e 93c8 f4be
00000170: abfe 5b3f 583a d73e 7f14 623e 8ecc 0abe
00000180: 0932 1fbe 240a 013e c0c6 4b3e 6561 543e
00000190: 011f 02be d319 b5bd 3ac2 323e f0d7 3c3c
000001a0: 6508 36be 46d2 c0bb ffa8 6b3e 16e9 ff3e
000001b0: e1a5 92be 21b7 9bbd 9d21 0cbd 6a51 82be
000001c0: daa2 8abc 833b 893b eef0 393e 3fb0 85be
000001d0: 8033 97bb dfb5 e0be 6ca5 edbd ab43 383f
000001e0: 04e8 823e 817a 933c e34e be3c 762e 9e3e
000001f0: 2131 83be 6186 54bd 176e 7e3c 7a77 e93e
00000200: fe02 28bd 415c 7f3e d15c bc3d 0e71 483e
00000210: 741f 5f3e ef26 5b3e ec35 8b3d dd0e 373f
00000220: 577f 60bd 0825 853e fc4a 313f c2c6 453f
00000230: a23d 70be 12db 8a3e 3813 823e 69fc 213e
00000240: 2d08 523e 19c0 b73d cbcc 843e cbc2 853e
00000250: 6ddb c1bd c59a a7bd 8cac 7dbe 7b22 6ebe
00000260: 9d35 32be a947 683d 32c7 01be f9cf 26be
00000270: 4506 6f3f 5a83 423e 047a 053e 4ddd 05be
00000280: 57b7 403b a02f ddbe 1875 103f 791d 79be
00000290: 9460 95bd 0957 a3be 84de fdbd 4f4c 1cbe
000002a0: 98bb 5d3e f1f4 2dbe 36f3 b8be 5e21 7dbd
000002b0: 935f 183c 7db5 9b3d b25d 2dbc 54ba 48bd
000002c0: b9ed 27be 961e 44be ba48 debd bde0 2bbe
000002d0: 59f8 8fbe dbfe 353e 10c5 9bbc b21d cebd
000002e0: 3874 99bd c06f d1be c369 0e3f 63cf bdbe
000002f0: 7271 cbbe cf5a 27be 3cb3 f6bd cb4f d43e
00000300: 167f d4bc afa6 dabc 076d b5be a124 813d
00000310: 015a 64bd d856 9ebe 2040 443c b3eb 2c3f
00000320: 0ab2 0c3e 6b40 91be 4605 153f e989 77be
00000330: 38a4 a4bd 3706 35bd a5c6 82be 61ac f83e
00000340: 0dda 8bbd 04f8 8a3d 6f3e 2b3d 9b07 4ebc
00000350: 0337 d43d e32e 04bd 4a67 1e3e c6f0 33be
00000360: 0389 94be fd74 883e b821 97bc 1d40 ecbf
00000370: bcfc 203f d8b8 23be 0d7d 173e a9e2 eb3d
00000380: b415 78bb aa21 5c3d c845 ea3d 17b7 87be
00000390: 0b19 07bd f6a4 4cbe ee94 103e 0af4 c9bd
000003a0: a879 b1be e7dc 243e 701e 5bbd d5ee aabf
000003b0: ca03 383f cfff 78be 6323 993e c8a7 af3d
000003c0: 40b5 113e a676 3b3f 86ba 323d 44cd 4f3e
000003d0: 1b09 3b3f de37 36be 3425 76be baec c63e
000003e0: 8ecd 4a3d afe3 043e f43f 863e c2b7 203f
000003f0: d9ee 96bf 93ba 8b3e 7e48 a33e bf8d b9bd

net.2.bias f4 [32]
-0.06343565 0.2869212 -0.1157229 -0.22321442 0.5417798 0.30712548 0.36484015 -0.111750655
0.134076 0.33158237 -0.100975744 -0.30503464 -0.21501654 -0.20155631 -0.11982419 -0.23088136
-0.056532297 -0.5142058 -0.08017033 0.09667898 0.26327503 0.029978648 -0.18698105 -0.1468589
0.4434275 -0.26778987 -0.29216903 -0.13640478 -0.1732556 -0.17526262 0.21930745 -0.09294747
00000000: 8dea 81bd 56e7 923e 2100 edbd 5292 64be
00000010: 15b2 0a3f 8d3f 9d3e 54cc ba3e 87dd e4bd
00000020: 384b 093e 2ac5 a93e 5fcc cebd 802d 9cbe
00000030: 4c2d 5cbe c764 4ebe 6366 f5bd 2a6c 6cbe
00000040: 698e 67bd fea2 03bf 5830 a4bd a1ff c53d
00000050: fccb 863e c895 f53c f677 3fbe 2e62 16be
00000060: ee08 e33e c11b 89be 2e97 95be b2ad 0bbe
00000070: ea69 31be 0b78 33be 2292 603e 3e5b bebd

net.4.weight f4 [64, 32]
0.22238117 0.002049193 0.1611812 0.17836091 -0.27762294 -0.2561435 0.10274678 0.086770155
0.1310525 -0.6259775 -0.1596914 -0.18050897 -0.074936375 0.29421833 0.045600973 0.14987887
-0.041500323 -0.06447487 -0.002592512 -0.3254499 -0.00734134 -0.27154428 0.028627994 -0.08073201
-0.498955 0.008945918 -0.19648564 -0.6893097 -0.644867 -0.2932891 0.05811615 0.11895376
-0.012090007 -0.2578661 -0.08606803 -0.13834001 -0.086090446 -0.25250673 -0.026241088 -0.30544043
-0.052556437 -0.32486913 -0.14685856 0.09558719 0.013403365 -0.46297327 -0.119825214 0.08751182
-0.03264716 -0.100930564 -0.33713666 -0.08603265 -0.080623895 -0.22795558 0.2377787 -0.15967417
-0.33335555 -0.059449624 0.052242026 0.56137896 0.3211184 -0.11399582 -0.10054034 -0.07536328
0.10673827 0.015965823 -0.055808507 -0.0061529204 -0.11680802 -0.048773903 -0.03373608 0.113719806
0.068606526 -0.168389 0.0054170694 -0.11468721 -0.0387897 -0.1326382 0.04453147 -0.15167174
0.15495211 0.1197758 -0.13692784 -0.1916881 -0.04767315 -0.076060645 0.035745382 -0.12483111
0.042679008 -0.14577487 -0.09913608 -0.12795489 0.054120656 -0.0029172353 -0.20048371 -0.124036305
-0.06063697 -0.24107476 0.072613075 0.14339828 -0.072482996 -0.19758624 -0.0837485 0.0066763344
-0.05774343 -0.06415546 0.18083331 -0.17729582 0.07295975 -0.2101113 0.0073303324 -0.0070236945
0.15978493 0.019233555 -0.1871971 -0.06719051 0.115415014 0.011041021 0.18004432 -0.25704813
-0.26552722 -0.22350696 0.14837883 0.1969412 0.08929236 -0.11752306 -0.086081415 -0.010468359
0.025503248 -0.1034498 0.11574726 -0.067112364 -0.04976742 0.13468178 0.15177192 -0.0202799
-0.12690412 -0.0886834 0.022510603 0.10362516 0.088007346 -0.078061484 -0.16711879 -0.15470558
-0.056242608 0.0022175163 -0.07940377 -0.13977826 0.018630087 -0.14031486 -0.1357511 -0.1437099
-0.047901794 0.15613945 0.06910543 -0.020960242 0.03638263 0.070394084 0.0010299385 -0.14258355
0.03569874 -0.2281435 0.08724973 0.04001402 -0.28532535 -0.22226231 -0.039180513 0.45129046
0.20117861 -0.16710798 0.0776509 0.3683043 -0.10365086 -0.22697876 -0.060175512 0.068175934
0.045154132 0.07121216 0.2564524 -0.5285471 -0.2436819 -0.08504566 -0.1276719 0.034582965
-0.048769742 -0.16213258 -0.19722547 0.31939477 0.09106964 0.07454152 -0.47661856 -0.0017196618
0.19827488 0.02611502 -0.13312913 0.052027892 -0.06167096 0.012489784 -0.093030944 0.111764446
0.24123737 -0.51021624 0.064172395 0.49253008 0.16395642 -0.5496275 -0.015022141 0.20329472
0.19204164 0.70575583 0.45007426 0.22385597 -0.017286649 0.2986546 0.29399768 0.31416702
-0.7033137 0.28996754 0.21377315 0.73682636 0.47201648 0.27458465 -0.11801795 -0.17522448
-0.09130379 -0.037323564 -0.16417696 -0.10046376 0.016285539 0.10977011 0.15422611 -0.1337237
0.06727204 -0.1065582 -0.1390581 -0.0077844113 -0.10823821 -0.15224828 -0.16520426 -0.12550865
0.13791724 0.09858979 -0.0765529 -0.1183203 -0.13598402 -0.11047689 -0.079977535 0.10617019
0.057851315 -0.068124816 0.11512427 -0.11204563 -0.14401785 0.031443678 -0.103969656 0.04303646
00000000: e4b7 633e c14b 063b af0c 253e 3ea4 363e
00000010: 9824 8ebe 3e25 83be e76c d23d 8db4 b13d
00000020: a032 063e 1040 20bf 2486 23be 58d7 38be
00000030: 3e78 99bd c9a3 963e 16c8 3a3d d979 193e
00000040: 3efc 29bd 670b 84bd 22e7 29bb 5fa1 a6be
00000050: a08f f0bb da07 8bbe 4185 ea3c d356 a5bd
00000060: 0877 ffbe e691 123c 8833 49be 9a76 30bf
00000070: 0116 25bf fd29 96be 330b 6e3d 079e f33d
00000080: 2a15 46bc 0707 84be 6f44 b0bd 01a9 0dbe
00000090: 3050 b0bd 9048 81be 8df7 d6bc b062 9cbe
000000a0: 6b45 57bd 3f55 a6be 1762 16be 37c3 c33d
000000b0: ca99 5b3c d50a edbe ec66 f5bd 6639 b33d
000000c0: 07b9 05bd afb4 cebd 2d9d acbe e331 b0bd
000000d0: 241e a5bd 306d 69be 427c 733e a081 23be
000000e0: 94ad aabe 7381 73bd bcfb 553d 88b6 0f3f
000000f0: a269 a43e a476 e9bd 18e8 cdbd 1058 9abd
00000100: 9899 da3d c2ca 823c 7697 64bd 709e c9bb
00000110: 0b39 efbd 25c7 47bd d82e 0abd eee5 e83d
00000120: 9481 8c3d 2b6e 2cbe ac81 b13b 21e1 eabd
00000130: f3e1 1ebd 4fd2 07be a166 363d d64f 1bbe
00000140: c4ab 1e3e 044d f53d d036 0cbe e349 44be
00000150: ec44 43bd afc5 9bbd c069 123d 74a7 ffbd
00000160: 2fd0 2e3d 0246 15be db07 cbbd 9b06 03be
00000170: 9fad 5d3d 162f 3fbb 9a4b 4dbe bf06 febd
00000180: 795e 78bd 4ddc 76be 2ab6 943d 00d7 123e
00000190: f771 94bd 0c54 4abe 5584 abbd 27c5 da3b
000001a0: 6084 6cbd f063 83bd 5e2c 393e 098d 35be
000001b0: ec6b 953d 6b27 57be 4933 f03b 0527 e6bb
000001c0: a99e 233e b08f 9d3c 99b0 3fbe 2e9b 89bd
000001d0: b55e ec3d 66e5 343c 8a5d 383e d09b 83be
000001e0: 2ff3 87be 02df 64be 9ff0 173e f4aa 493e
000001f0: eade b63d eeaf f0bd 744b b0bd 7b83 2bbc
00000200: 30ec d03c 7ddd d3bd e60c ed3d 3572 89bd
00000210: ecd8 4bbd 05ea 093e 196a 1b3e 0822 a6bc
00000220: 27f3 01be a49f b5bd 2868 b83c 6e39 d43d
00000230: 323d b43d b3de 9fbd 3021 2bbe 246b 1ebe
00000240: a65e 66bd c053 113b 729e a2bd 0822 0fbe
00000250: 209e 983c b3ae 0fbe 5602 0bbe b028 13be
00000260: ac34 44bd 05e3 1f3e 2687 8d3d d0b4 abbc
00000270: f405 153d c62a 903d 00ff 863a 6c01 12be
00000280: d838 123d 739e 69be fdaf b23d bee5 233d
00000290: 2a16 92be bb98 63be bf7b 20bd 8b0f e73e
000002a0: c401 4e3e 5b1e 2bbe 6f07 9f3d 6292 bc3e
000002b0: e746 d4bd 1f6d 68be 997a 76bd d39f 8b3d
000002c0: 8af3 383d aed7 913d bb4d 833e dd4e 07bf
000002d0: bf87 79be 6b2c aebd 6cbc 02be dea6 0d3d
000002e0: c8c2 47bd 1506 26be 79f5 49be b687 a33e
000002f0: b882 ba3d 39a9 983d 5907 f4be 4666 e1ba
00000300: 9208 4b3e 2bef d53c 0153 08be 331b 553d
00000310: b09a 7cbd f3a1 4c3c 0287 bebd c2e4 e43d
00000320: ee06 773e 889d 02bf d16c 833d e72c fc3e
00000330: 31e4 273e 63b4 0cbf 6d1f 76bc 7e2c 503e
00000340: 90a6 443e 6aac 343f 2270 e63e 803a 653e
00000350: bb9c 8dbc 41e9 983e dd86 963e 80da a03e
00000360: 5e0c 34bf a076 943e 59e7 5a3e a7a0 3c3f
00000370: 25ac f13e 5c96 8c3e 65b3 f1bd 0c6e 33be
00000380: 7bfd babd 98e0 18bd 011e 28be f2bf cdbd
00000390: 4069 853c 27cf e03d 73ed 1d3e deee 08be
000003a0: ecc5 893d 303b dabd 3f65 0ebe 6014 ffbb
000003b0: ffab ddbd f9e6 1bbe 4e2b 29be 5785 00be
000003c0: 2d3a 0d3e 72e9 c93d c4c7 9cbd ea51 f2bd
000003d0: 653f 0bbe b541 e2bd 43cb a3bd c26f d93d
000003e0: 80f5 6c3d 0685 8bbd 46c6 eb3d 2e78 e5bd
000003f0: 6a79 13be 16cb 003d 0bee d4bd 0047 303d

net.4.bias f4 [64]
-0.2942863 -0.039572757 -0.16889821 0.080462866 -0.15029341 -0.17722641 -0.64810884 -0.16624862
-0.21639644 -0.09410405 -0.16139619 -0.1394754 -0.0795148 -0.09207582 -0.035990953 -0.07752682
-0.16894548 -0.330043 -0.19778584 0.016335234 -0.19746019 -0.19423486 0.027385682 0.011704877
-0.23589142 -0.17089267 0.09084495 -0.45166603 0.027911011 -0.05709498 -0.09515258 -0.08121447
-0.39463395 -0.09276719 -0.19040827 -0.14548868 -0.10146431 -0.51286423 -0.09464496 -0.32943395
0.009493515 -0.5475427 0.0075377813 -0.52457494 0.0975584 -0.1797786 0.38755763 0.031918857
-0.3574211 -0.10160204 -0.24040978 -0.3342553 -0.11878026 -0.2855095 -0.052478313 -0.0053643794
-0.1846436 -0.35929024 -0.1343154 -0.15331328 -0.09809319 -0.101654604 -0.6304208 -0.24444747
00000000: b2ac 96be 0b17 22bd a7f3 2cbe b7c9 a43d
00000010: 84e6 19be d77a 35be 76ea 25bf 143d 2abe
00000020: 0797 5dbe a0b9 c0bd 0b45 25be a4d2 0ebe
00000030: a8d8 a2bd 3f92 bcbd 406b 13bd 62c6 9ebd
00000040: 0b00 2dbe 65fb a8be 5f88 4abe 78d1 853c
00000050: 0133 4abe 81e5 46be f057 e03c d0c5 3f3c
00000060: 858d 71be 7dfe 2ebe eb0c ba3d c540 e7be
00000070: a2a5 e43c 6ddc 69bd 5bdf c2bd c653 a6bd
00000080: 760d cabe b9fc bdbd 63fa 42be fcfa 14be
00000090: 85cc cfbd 124b 03bf 37d5 c1bd 91ab a8be
000000a0: b08a 1b3c c22b 0cbf 7eff f63b 8b4a 06bf
000000b0: b3cc c73d e217 38be f46d c63e 59bd 023d
000000c0: e6ff b6be bb14 d0bd fb2d 76be 8323 abbe
000000d0: 1143 f3bd 4d2e 92be 80f3 56bd adc7 afbb
000000e0: 3613 3dbe e4f4 b7be fa89 09be 28fe 1cbe
000000f0: 15e5 c8bd 4a30 d0bd 4263 21bf 7050 7abe

net.6.weight f4 [32, 64]
-0.4752633 0.2879072 0.080692 0.08317597 -0.04297833 -0.14090177 0.26227725 -0.0737271
0.07386272 -0.17828137 -0.007278166 0.1123735 -0.4008676 -0.06640363 -0.46131483 0.008188865
0.08053902 -0.0078074327 -0.0034018934 0.1111964 -0.27182743 0.03484716 -0.8429977 0.1468766
-0.75670797 -0.025109172 -0.48382148 0.4559184 0.0032616851 0.085779764 -0.14116628 -0.58642185
0.43078622 -0.6335129 -0.6674284 -0.10449114 -0.10485206 0.7896998 0.023878086 0.17573644
0.065798715 -0.19326656 -0.6463946 0.12901603 -0.3529224 0.26572058 -0.22824273 -0.08855606
0.5013083 -0.53140813 0.114386216 0.07452974 -0.6942971 -0.27469197 0.10308678 -0.011256307
0.3460959 0.21077502 0.005030931 -0.12456004 0.034763638 -0.48655987 0.80648714 -0.5248353
-0.059435274 0.116398335 -0.04405661 -0.07547035 -0.099635854 -0.10816304 -0.08960802 0.029853374
0.044513907 0.081223994 0.044017754 -0.0138189 0.035264794 0.05611537 -0.12261213 0.04113562
-0.08550842 0.056757934 -0.07307483 0.025935978 -0.041482635 0.016747156 0.004391548 -0.1058883
0.023033813 0.07373704 -0.07991183 -0.081088334 -0.08511679 -0.060819417 -0.055166695 -0.005759027
-0.015558047 -0.068108305 0.06144851 -0.015076044 -0.097919226 -0.04758597 -0.07349186 -0.059245694
-0.11791308 0.0051636267 -0.11186145 0.029435836 0.07004742 -0.10056843 -0.104900345 -0.10638392
0.018980835 0.008957669 -0.09211557 0.043007743 0.033220455 -0.13128266 -0.00679937 -0.080645785
-0.021673769 0.05425651 -0.013445035 -0.108292714 0.08792932 -0.13332677 -0.05315763 0.04816419
0.13736281 0.33906174 -0.032267585 0.12952666 -0.109778926 0.02005544 0.26550585 0.040432014
-0.0026721882 0.13563178 0.09916793 0.20044534 -0.072259784 0.13583325 -0.24846719 -0.041115705
0.04738936 0.109113164 0.02090242 -0.0829469 0.28984636 0.3968254 -0.08372763 0.06986175
-0.14498734 -0.11881611 0.009974217 0.70999366 0.03322645 -0.018634802 0.0777494 -0.0750641
0.3549928 -0.19556737 -0.14484757 0.2772088 -0.07645032 0.5374649 -0.05811297 0.3473803
-0.019420333 -0.19580354 0.09505729 0.22911553 0.03379977 0.70448554 -0.0062778075 -0.21512523
0.7146248 0.104461536 0.14727932 0.28666684 0.059752163 -0.029335344 -0.12955028 0.06865792
0.578489 0.0013758878 -0.06545852 -0.1229402 -0.09111674 0.117184535 0.8597063 0.15960759
-0.07518836 -0.04765688 -0.034673624 0.10099864 -0.08972068 0.23513743 -0.38869554 0.019752517
0.56381184 0.35613412 0.373428 -0.030466953 -0.039922062 0.052901678 0.20951748 0.18275426
-0.070973545 0.19999671 0.11832297 0.0167398 -0.13527828 -0.38566387 0.111707956 0.2544738
-0.09875588 0.012706906 0.05338069 -0.17466617 -0.116836675 0.08675663 0.31126332 0.041062947
0.00978473 0.34978363 0.20428385 0.08748746 0.18103251 -0.597397 -0.039675277 0.09859815
-0.13574983 -0.14945215 0.13194482 0.17086698 -0.006452468 -0.2448125 0.06509829 0.5388834
-0.23118578 0.111560255 0.069141954 0.21224281 -0.044205856 -0.28460363 -0.072557375 0.12824537
-0.2963133 0.17949024 -0.08030591 0.42786157 -0.093335755 -0.041023955 -0.38794634 -0.029252047
00000000: b655 f3be 9368 933e d941 a53d 2a58 aa3d
00000010: 0c0a 30bd 8e48 10be 3449 863e 3cfe 96bd
00000020: 5645 973d 648f 36be ae7d eebb 1424 e63d
00000030: 853e cdbe a0fe 87bd 7531 ecbe 972a 063c
00000040: a4f1 a43d 7ed5 ffbb 4df2 5ebb f0ba e33d
00000050: f72c 8bbe e5bb 0e3d b3ce 57bf d266 163e
00000060: 9db7 41bf c0b1 cdbc 73b7 f7be 236e e93e
00000070: ffc1 553b 4dad af3d e58d 10be be1f 16bf
00000080: 0390 dc3e e72d 22bf 96dc 2abf 73ff d5bd
00000090: adbc d6bd c429 4a3f fa9b c33c 41f4 333e
000000a0: 7ac1 863d abe7 45be 1e7a 25bf c71c 043e
000000b0: 3fb2 b4be 870c 883e 76b8 69be e15c b5bd
000000c0: be55 003f 5d0a 08bf 5243 ea3d 0ca3 983d
000000d0: 74bd 31bf 6da4 8cbe 291f d33d 606c 38bc
000000e0: 7b33 b13e 68d5 573e 82da a43b 5619 ffbd
000000f0: 5164 0e3d 601e f9be f175 4e3f 9b5b 06bf
00000100: 6772 73bd 4062 ee3d b474 34bd 3390 9abd
00000110: e20d ccbd 9584 ddbd 6984 b7bd 108f f43c
00000120: 3754 363d c458 a63d f64b 343d ab68 62bc
00000130: d171 103d 3bd9 653d 121c fbbd d37d 283d
00000140: 0a1f afbd 027b 683d 42a8 95bd b077 d43c
00000150: b2e9 29bd 5531 893c fae6 8f3b f7db d8bd
00000160: 68b1 bc3c 7203 973d d0a8 a3bd a411 a6bd
00000170: b651 aebd c81d 79bd 79f6 61bd 38b6 bcbb
00000180: 2ee7 7ebc 5e7c 8bbd 6fb1 7b3d 8301 77bc
00000190: e089 c8bd 82e9 42bd e682 96bd 9dab 72bd
000001a0: 6a7c f1bd a433 a93b 9e17 e5bd 6c23 f13c
000001b0: 0675 8f3d d2f6 cdbd fed5 d6bd d0df d9bd
000001c0: b27d 9b3c 30c3 123c 17a7 bcbd e328 303d
000001d0: 2c12 083d f66e 06be 40cd debb 9e29 a5bd
000001e0: 308d b1bc 133c 5e3d 9048 5cbc 92c8 ddbd
000001f0: 4a14 b43d d086 08be d1bb 59bd d047 453d
00000200: d6a8 0c3e 8099 ad3e 042b 04bd a3a2 043e
00000210: c6d3 e0bd 4e4b a43c 62f0 873e 0a9c 253d
00000220: e11f 2fbb 0fe3 0a3e 8e18 cb3d 8b41 4d3e
00000230: f0fc 93bd df17 0b3e 2f6e 7ebe f168 28bd
00000240: 581b 423d b976 df3d 8d3b ab3c 10e0 a9bd
00000250: be66 943e b32c cb3e 6479 abbd ad13 8f3d
00000260: 9077 14be dc55 f3bd e66a 233c 25c2 353f
00000270: 7518 083d 03a8 98bc 143b 9f3d 35bb 99bd
00000280: 9ec1 b53e d042 48be ec52 14be 50ee 8d3e
00000290: fc91 9cbd 4d97 093f de07 6ebd d5db b13e
000002a0: 6417 9fbc b980 48be 65ad c23d 439d 6a3e
000002b0: a171 0a3d 2a59 343f 11b6 cdbb ca49 5cbe
000002c0: a7f1 363f eeef d53d 64d0 163e ffc5 923e
000002d0: afbe 743d ad50 f0bc d4a8 04be 869c 8c3d
000002e0: db17 143f 2257 b43a 1e0f 86bd 12c8 fbbd
000002f0: 6a9b babd 72fe ef3d b615 5c3f 2c70 233e
00000300: 5bfc 99bd dc33 43bd ee05 0ebd 60d8 ce3d
00000310: 7abf b7bd dec7 703e 1a03 c7be 08d0 a13c
00000320: f955 103f 3657 b63e f431 bf3e d595 f9bc
00000330: 5185 23bd 6eaf 583d c08b 563e ef23 3b3e
00000340: 945a 91bd f0cb 4c3e 5053 f23d e821 893c
00000350: 6486 0abe bc75 c5be 24c7 e43d 644a 823e
00000360: 8640 cabd a030 503c b6a5 5a3d b0db 32be
00000370: 1148 efbd 76ad b13d e85d 9f3e 9f31 283d
00000380: 2250 203c d716 b33e c92f 513e a02c b33d
00000390: 9660 393e 03ef 18bf 8b82 22bd d4ed c93d
000003a0: 0102 0bbe fc09 19be 8b1c 073e c1f7 2e3e
000003b0: 3a6f d3bb 21b0 7abe 4152 853d 43f4 093f
000003c0: f7bb 6cbe b479 e43d 4c9a 8d3d 2e56 593e
000003d0: 3311 35bd 91b7 91be f698 94bd c152 033e
000003e0: 60b6 97be 4acc 373e 6d77 a4bd ac10 db3e
000003f0: d126 bfbd bc08 28bd e7a0 c6be fda1 efbc

net.6.bias f4 [32]
-1.0110127 -0.1606643 -0.25528318 0.124610364 -0.3353793 -0.62352246 -0.10492368 0.098810844
-0.1182771 -0.20519799 -0.1398362 -0.10600975 -0.45131975 -0.017079752 -0.060531702 -0.38455462
-0.5010505 -0.28724894 -0.04492691 -0.35248727 0.05819469 0.067804866 -0.069633335 0.23524168
0.2656264 -0.82948726 -0.080883 -0.041592 -0.17155348 -0.07422898 -0.1143268 -0.37171212
00000000: dd68 81bf 2f85 24be 7ab4 82be b833 ff3d
00000010: d6b6 abbe 2b9f 1fbf 3ae2 d6bd 575d ca3d
00000020: 443b f2bd 6c1f 52be 3931 0fbe a41b d9bd
00000030: 6213 e7be d6ea 8bbc 17f0 77bd 58e4 c4be
00000040: d844 00bf 4b12 93be 4805 38bd 3679 b4be
00000050: 8e5d 6e3d 47dd 8a3d ec9b 8ebd 32e3 703e
00000060: 2f00 883e 4759 54bf fca5 a5bd 5f5c 2abd
00000070: b7ab 2fbe 5d05 98bd 2b24 eabd 0d51 bebe

net.8.weight f4 [16, 32]
0.34480298 -0.053128295 0.07702974 -0.5989797 -0.6614075 -0.11593493 -0.29066446 0.32201684
-0.02157592 0.05862202 -0.45721892 -0.09351603 -0.06145393 0.012486605 -0.49300274 -0.6098014
-0.38157406 -0.120814495 -0.11532908 -0.020924596 -0.35624307 0.13933946 -0.5812327 -0.03758993
0.015553462 -0.24105775 0.015262099 0.041257933 -0.54054785 -0.036439545 -0.15353487 0.223134
-0.066256754 -0.07748311 0.13078864 -0.183795 0.033044398 0.54809874 -0.04877006 0.052308306
0.074089214 -0.028524226 -0.07762193 -0.0062460382 0.102561094 -0.18205892 -0.07399874 -0.014197548
-0.23947378 -0.032476403 -0.066091634 0.20371337 0.00038505695 -0.1989406 0.050309002 -0.16388308
-0.059645705 -0.082228236 0.11467832 -0.03438522 -0.18153428 -0.046966787 0.0016066432 -0.106976755
0.55132824 -0.07346291 0.24930847 -0.16784973 0.13480279 -0.34954154 0.06183839 0.23854032
-0.15303592 0.33897698 0.030503327 -0.08164079 0.4072719 0.24104095 0.0036220883 0.054165628
0.23709372 0.06598974 -0.189098 0.29749423 -0.12661788 0.23313385 0.0359142 0.3167759
0.3507465 0.24246772 -0.056792114 -0.14286797 0.13261698 0.15646248 -0.063974425 0.18744183
-0.060372613 -0.042938247 0.0063328044 -0.021097377 0.033110738 0.5364876 0.058312442 0.36442703
0.11148551 0.015708085 0.25188768 -0.015490862 0.28646913 -0.21696378 0.35958058 0.08013625
0.32601044 -0.025724426 0.2724033 -0.017762724 0.26854977 -0.05069036 0.26448196 -0.23330863
-0.35628927 -0.042887244 0.11902082 0.15291257 -0.034533974 0.093832925 0.07950638 -0.07473241
0.42721123 0.0054299603 -0.07410023 -0.20054404 -0.09613864 0.18058608 0.07596662 0.2552635
-0.0039568325 0.08257135 -0.31336746 -0.015336476 0.03618698 0.041337237 0.07718026 -0.1216482
-0.2469167 0.23766187 -0.086825185 -0.038274318 -0.007603943 -0.15991504 -0.07415145 -0.067047596
-0.18715352 0.17719333 -0.03387991 -0.060494058 -0.15827347 0.14964683 -0.17410268 -0.010288038
-0.21682705 -0.03881676 0.011265833 0.06581647 -0.23416409 0.4794595 -0.0234101 -0.19110943
-0.07309815 0.0752151 -0.18662244 0.09780941 -0.06075672 0.02806614 0.09372954 -0.03870351
-0.1820265 0.12351665 -0.088479705 0.07566274 0.04013969 -0.085314445 -0.053402092 -0.12247124
-0.10444106 -0.04916351 0.033465832 0.08187697 0.013508785 0.097489126 -0.07435313 0.12884876
0.11940561 0.06372635 0.019292295 -0.10004538 -0.10550816 0.00088626146 -0.13149026 0.06201434
-0.16046688 -0.15763402 -0.079400785 0.10171528 0.13841595 -0.14858533 -0.111640215 0.039217025
-0.032219365 -0.1448694 0.049108326 -0.1471443 0.01106365 0.07206158 0.16305946 -0.1508678
0.13199855 0.02459842 0.15391178 0.17400946 -0.04408893 -0.02753213 -0.04273379 0.13903295
-0.19759797 0.10460738 0.10723773 0.101014994 0.042790987 0.76801574 -0.27116448 -0.19158116
-0.12542433 0.07234174 -0.07166536 0.06454791 0.07929203 -0.003028126 0.04355985 -0.13068788
-0.0069384794 -0.1239769 -0.2739125 0.13106725 0.085076064 -0.06412565 0.0741092 -0.074701786
-0.15319912 -0.095852554 0.11364906 -0.09119177 0.083491676 -0.089454666 -0.078247495 -0.048073743
00000000: 048a b03e 0e9d 59bd c5c1 9d3d bc56 19bf
00000010: 0052 29bf 4b6f edbd f9d1 94be 64df a43e
00000020: fcbf b0bc a51d 703d 9918 eabe 5585 bfbd
00000030: 1eb7 7bbd 9e94 4c3c db6a fcbe f21b 1cbf
00000040: ad5d c3be 976d f7bd a731 ecbd 0f6a abbc
00000050: 7e65 b6be 01af 0e3e abcb 14bf e6f7 19bd
00000060: f3d3 7e3c d8d7 76be e20d 7a3c 14fe 283d
00000070: 5861 0abf a241 15bd 3f38 1dbe 3d7d 643e
00000080: 9fb1 87bd 77af 9ebd 75ed 053e c234 3cbe
00000090: 9059 073d 3350 0c3f 1dc3 47bd 3c41 563d
000000a0: 16bc 973d a3ab e9bc 3ff8 9ebd 91ab ccbb
000000b0: 8d0b d23d a76d 3abe a78c 97bd d59c 68bc
000000c0: 9d38 75be fa05 05bd 0d5b 87bd 3d9a 503e
000000d0: 78e1 c939 16b7 4bbe d010 4e3d f7d0 27be
000000e0: 0e4f 74bd 4767 a8bd 78dc ea3d 84d7 0cbd
000000f0: 1fe4 39be 3f60 40bd 0096 d23a a116 dbbd
00000100: d923 0d3f b973 96bd b84a 7f3e cde0 2bbe
00000110: be09 0a3e 1cf7 b2be 404a 7d3d ea43 743e
00000120: 73b5 1cbe 648e ad3e 1de2 f93c 4933 a7bd
00000130: f185 d03e 70d3 763e 8f60 6d3b c7dc 5d3d
00000140: b2c8 723e a125 873d e8a2 41be 2a51 983e
00000150: 1ea8 01be a4ba 6e3e c51a 133d 7330 a23e
00000160: 0c95 b33e 7549 783e d99e 68bd fb4b 12be
00000170: bfcc 073e b337 203e 0605 83bd c0f0 3f3e
00000180: 4649 77bd 04e0 2fbd 6a83 cf3b 68d4 acbc
00000190: 209f 073d 4057 093f 07d9 6e3d 2e96 ba3e
000001a0: 8452 e43d 3eae 803c 6cf7 803e 62cd 7dbc
000001b0: 15ac 923e c12b 5ebe f21a b83e 791e a43d
000001c0: d7ea a63e 08bc d2bc 7278 8b3e 2283 91bc
000001d0: 5b7f 893e b2a0 4fbd 2e6a 873e 75e8 6ebe
000001e0: 8c6b b6be 89aa 2fbd 30c1 f33d 1d95 1c3e
000001f0: 7f73 0dbd 7a2b c03d 3ed4 a23d 4e0d 99bd
00000200: 6ebb da3e cfed b13b ddc1 97bd 6b5b 4dbe
00000210: 56e4 c4bd 8feb 383e 6394 9b3d e6b1 823e
00000220: 51a8 81bb 2b1b a93d b371 a0be d845 7bbc
00000230: cc38 143d 3c51 293d af10 9e3d b122 f9bd
00000240: bbd7 7cbe a25d 733e 67d1 b1bd 88c5 1cbd
00000250: 7f2a f9bb c5c0 23be b7dc 97bd 4050 89bd
00000260: 2ca5 3fbe 2b72 353e a9c5 0abd 9ec8 77bd
00000270: 7112 22be 053d 193e f947 32be 298f 28bc
00000280: e907 5ebe 53fe 1ebd 5494 383c c9ca 863d
00000290: b6c8 6fbe b77b f53e 8ac6 bfbc 31b2 43be
000002a0: 7cb4 95bd 600a 9a3d f419 3fbe 4d50 c83d
000002b0: 0adc 78bd f6ea e53c 46f5 bf3d 9287 1ebd
000002c0: 2865 3abe 4cf6 fc3d d934 b5bd 11f5 9a3d
000002d0: 8469 243d 57b9 aebd 27bc 5abd 34d2 fabd
000002e0: 32e5 d5bd ad5f 49bd 7813 093d 1daf a73d
000002f0: f353 5d3c 61a8 c73d 7446 98bd eef0 033e
00000300: ee8a f43d f682 823d e00a 9e3c 98e4 ccbd
00000310: aa14 d8bd 0054 683a 62a5 06be c002 7e3d
00000320: 6e51 24be d06a 21be e19c a2bd 1a50 d03d
00000330: e9bc 0d3e c126 18be a0a3 e4bd 08a2 203d
00000340: 74f8 03bd a558 14be d025 493d ffac 16be
00000350: 5044 353c 0695 933d 0ff9 263e 177d 1abe
00000360: a12a 073e a082 c93c 0d9b 1d3e 892f 323e
00000370: 9896 34bd 108b e1bc a009 2fbd a75e 0e3e
00000380: 1f57 4abe 653c d63d 749f db3d f3e0 ce3d
00000390: 9a45 2f3d ae9c 443f 12d6 8abe da2d 44be
000003a0: 3c6f 00be e827 943d 4ac5 92bd b231 843d
000003b0: dc63 a23d 8673 46bb d06b 323d 0bd3 05be
000003c0: 2f5c e3bb 9ae7 fdbd 423e 8cbe 7e36 063e
000003d0: 5c3c ae3d 4f54 83bd 90c6 973d 40fd 98bd
000003e0: 3be0 1cbe 584e c4bd d7c0 e83d c0c2 babd
000003f0: affd aa3d 0234 b7bd 3940 a0bd f9e8 44bd

net.8.bias f4 [16]
-0.41825968 0.110160194 -0.2005493 -0.47089288 -0.4772397 -0.010041451 -0.09644459 -0.034620848
-0.6692471 -0.46325424 -0.42400655 0.00439497 0.00398422 0.04602808 0.077319354 -0.6367297
00000000: 2226 d6be ab9b e13d cc5c 4dbe df18 f1be
00000010: c358 f4be e684 24bc be84 c5bd 97ce 0dbd
00000020: c753 2bbf a92f edbe 6317 d9be ae03 903b
00000030: 0f8e 823b f187 3c3d 9c59 9e3d b800 23bf

net.10.weight f4 [1, 16]
0.20617142 -0.021588 0.28057942 -0.43344238 -0.010540256 -0.0036386217 -0.20728481 -0.0045508603
-0.29810065 -0.3143474 0.3105432 -0.55566555 -0.15219808 -0.0035227963 -0.16086553 0.32089216
00000000: 9a1e 533e 51d9 b0bc 1ba8 8f3e 29ec ddbe
00000010: 0ab1 2cbc f175 6ebb 7842 54be 621f 95bb
00000020: a6a0 98be 24f2 a0be 85ff 9e3e 1940 0ebf
00000030: d0d9 1bbe b7de 66bb efb9 24be fa4b a43e
