1 DOF Non-linear duffing/nl_1.pth (torch, 25026 bytes, 12 tensors)

net.0.weight f4 [16, 3]
0.11325297 1.6689029 -0.34057808 0.05299164 -0.3382381 0.38555238 -0.012730077 -2.209478
-0.52132213 0.07253789 -1.3153898 -0.32057008 0.17668764 -1.9813032 0.1417704 -0.015039602
-1.6252186 0.64087117 0.0012034392 1.2403691 -0.014148266 0.08620362 2.1493437 0.013373044
0.21444412 2.7469945 -0.10793847 0.0288661 -2.6447875 0.084109716 0.12368696 -2.0592484
-0.06544327 -0.08385786 -2.4830217 0.19216762 -0.10251921 -1.4861059 0.034500245 -0.060010567
2.669098 0.05058407 0.09007773 -1.8333132 -0.081595235 0.06877378 -3.1234534 -0.05930982
00000000: 2cf1 e73d 9c9e d53f 4060 aebe c30d 593d
00000010: 8b2d adbe 1f67 c53e d091 50bc 1668 0dc0
00000020: 5e75 05bf bf8e 943d b15e a8bf c321 a4be
00000030: 9bed 343e 589b fdbf 422c 113e aa68 76bc
00000040: 2a07 d0bf 2210 243f b8bc 9d3a 6ac4 9e3f
00000050: 21ce 67bc 868b b03d d98e 0940 9d1a 5b3c
00000060: 3d97 5b3e c2ce 2f40 d80e ddbd 9978 ec3c
00000070: 3344 29c0 b741 ac3d 974f fd3d baca 03c0
00000080: 1f07 86bd abbd abbd d4e9 1ec0 97c7 443e
00000090: 97f5 d1bd b838 bebf 2150 0d3d a4cd 75bd
000000a0: 80d2 2a40 3e31 4f3d ac7a b83d 02aa eabf
000000b0: 671b a7bd 44d9 8c3d a9e6 47c0 dbee 72bd

net.0.bias f4 [16]
-0.046527926 -0.4026283 0.0011517324 -0.3206884 -0.16320275 0.025177877 -0.36354348 -0.51225007
0.016736414 -0.419471 -0.5977472 0.286378 -0.0086231455 0.22085173 0.4548015 -0.25555232
00000000: 1194 3ebd 4c25 cebe baf5 963a 4531 a4be
00000010: 9f1e 27be d641 ce3c 5f22 babe d222 03bf
00000020: ce1a 893c e7c4 d6be f605 19bf 23a0 923e
00000030: 1848 0dbc f526 623e bedb e83e c1d7 82be

net.2.weight f4 [32, 16]
-0.24329369 0.1800655 0.30260164 -0.26015922 -0.08905863 -0.08383435 0.026944116 -0.07905419
-0.18297642 0.16054039 0.04314907 -0.1975734 -0.24664776 0.07417786 0.04093302 0.22232425
-0.24577956 -0.17298123 0.87062305 0.48793605 0.1402282 0.47076538 -0.0077834427 -0.14944246
0.0106338505 0.2319156 0.03725445 0.14155921 0.54088175 -0.33434525 0.037181575 0.42781854
0.16882114 -0.66921306 0.27722082 0.20567502 -0.22164795 -0.06562894 -0.18727426 -0.2932421
-0.3738219 0.37861896 0.23788385 -0.17106386 -0.35226238 -0.48907474 0.16112159 0.1496921
-0.18481174 0.1458047 0.090119995 -0.34781688 -0.7334479 -0.09869973 -1.5973667 -0.08768341
-1.2529347 -0.15049654 0.029052543 0.19877924 0.30962154 -0.10233605 -0.29697362 0.52445924
0.5237198 -0.5332247 0.31461492 0.13803284 -0.13785595 -0.40066466 -0.0012595286 -0.06466451
0.45449722 0.08716455 0.3561738 -0.19347484 0.19184086 0.47460434 -0.2300456 -0.36586064
-0.34198937 -0.092941344 0.09267305 -0.5833325 0.05355763 0.024762018 -0.6482241 0.06180118
-0.3519197 -0.30718234 0.025421306 0.105741754 0.016264692 -0.4920579 0.116557196 -0.2501521
0.012841843 0.03926034 -0.12519719 0.03713527 0.15780407 0.15199769 0.18558775 0.016267197
-0.13244417 0.2965452 0.44599387 -0.032707177 -0.31088102 -0.57298005 0.16744144 0.68430436
0.01854393 -0.04742528 0.4257537 0.0022340496 0.10620989 0.3435721 0.027906353 -0.1963702
-0.2246746 0.11156939 0.2724098 0.60475975 0.093197405 -0.5060746 0.3462107 0.7922205
0.04148175 0.10533096 -0.059748102 0.14227556 -0.1622441 -0.09205932 0.021419168 -0.7782763
-0.10656726 0.22118466 -0.2872101 0.06277785 0.24301434 -0.30096626 -0.5266026 -0.23836109
0.16164097 0.39128628 -0.108475335 -0.3063851 0.25466582 -0.07006855 0.21830714 0.12373362
0.068391316 0.43069884 0.093211256 0.012164777 -0.18898511 0.71814984 -0.22779197 -1.0925751
0.2260057 0.1951386 0.6013199 0.029281722 -0.08614298 0.14852093 -0.024459345 0.1403993
0.16611722 -0.34501794 -0.6616594 -0.27004144 0.08587013 0.75866884 -0.17300412 -0.23682989
-0.2504503 -0.23322976 0.20832597 0.03793304 -0.27000934 0.15035039 -0.108483024 -0.12167864
-0.50896925 -0.22979218 -0.020597965 0.60444546 0.10750018 -1.0505627 0.087865606 0.5266068
0.17253911 0.2695179 -0.85005176 0.32618904 -0.17646225 0.802578 0.09219448 0.37052158
0.025394497 -0.41371807 -0.070731364 -0.31939173 -0.06367827 0.66588265 -0.13442412 0.093210414
0.27147937 0.07990228 0.6207814 -0.14591226 -0.05715978 0.36790422 -0.19089952 -0.0017990397
-0.30488348 0.22790505 0.4997961 -0.63597196 0.3364963 0.36000937 -0.09943631 0.554803
-1.0080377 -0.5050261 -0.39660552 -0.20635669 -0.55821544 0.05190084 -1.6324708 -0.019678753
-3.7578802 0.23742354 -0.12549734 0.42874354 0.062118325 -0.15679967 -0.20182252 0.6716155
-0.26467702 0.39262807 0.043062534 -1.1854293 0.16920196 -0.86802936 -0.33693543 -0.09272737
0.21780802 -0.6675577 0.059462104 0.34463945 -0.29097217 -0.14015992 -0.29946914 0.38341242
00000000: fb21 79be 1763 383e 9aee 9a3e 9733 85be
00000010: 5f64 b6bd 58b1 abbd e8b9 dc3c 2ae7 a1bd
00000020: 2c5e 3bbe b364 243e 14bd 303d ae50 4abe
00000030: 3b91 7cbe 90ea 973d 62a9 273d f8a8 633e
00000040: a3ad 7bbe fe21 31be 27e1 5e3f c1d2 f93e
00000050: fb97 0f3e 2908 f13e 400c ffbb 7207 19be
00000060: 9a39 2e3c 487b 6d3e 1f98 183d e6f4 103e
00000070: 3a77 0a3f 4d2f abbe b54b 183d 080b db3e
00000080: 73df 2c3e 8c51 2bbf e3ef 8d3e 799c 523e
00000090: aef7 62be 7768 86bd d3c4 3fbe d423 96be
000000a0: 9665 bfbe 58da c13e d397 733e 5d2b 2fbe
000000b0: bc5b b4be 0168 fabe 0ffd 243e e348 193e
000000c0: 4a3f 3dbe d44d 153e d590 b83d 0e15 b2be
000000d0: 3ec3 3bbf 1623 cabd 8376 ccbf 5c93 b3bd
000000e0: 2a60 a0bf c41b 1abe 99ff ed3c c98c 4b3e
000000f0: b786 9e3e 9095 d1bd ed0c 98be f642 063f
00000100: 8012 063f 6a81 08bf 3515 a13e 7b58 0d3e
00000110: 1c2a 0dbe eb23 cdbe c416 a5ba d46e 84bd
00000120: dcb3 e83e 5483 b23d 6a5c b63e 451e 46be
00000130: ee71 443e 57ff f23e 1391 6bbe 1652 bbbe
00000140: 3b19 afbe 0858 bebd 5ecb bd3d 4755 15bf
00000150: 3f5f 5b3d b7d9 ca3c 04f2 25bf 3c23 7d3d
00000160: d22e b4be 0147 9dbe 5840 d03c 228f d83d
00000170: 883d 853c 03ef fbbe 8ab5 ee3d f013 80be
00000180: 9866 523c 73cf 203d b133 00be 271b 183d
00000190: 6497 213e 48a5 1b3e b70a 3e3e c942 853c
000001a0: 729f 07be c6d4 973e 4f59 e43e f6f7 05bd
000001b0: cc2b 9fbe d2ae 12bf c575 2b3e 922e 2f3f
000001c0: 71e9 973c 0341 42bd 64fc d93e 2269 123b
000001d0: 9284 d93d afe8 af3e dd9b e43c 4515 49be
000001e0: 1911 66be 7e7e e43d 4c79 8b3e 89d1 1a3f
000001f0: 48de be3d 1b8e 01bf 8742 b13e f6ce 4a3f
00000200: c4e8 293d c2b7 d73d 6dba 74bd afb0 113e
00000210: 5123 26be 9989 bcbd 4077 af3c 1e3d 47bf
00000220: f03f dabd 3b7e 623e 340d 93be ac91 803d
00000230: c0d8 783e 4018 9abe 6ecf 06bf ee14 74be
00000240: 3685 253e ad56 c83e 5128 debd 82de 9cbe
00000250: 8f63 823e 1a80 8fbd e88b 5f3e 0d68 fd3d
00000260: bf10 8c3d 8f84 dc3e 8be5 be3d c64e 473c
00000270: 5085 41be abd8 373f 4c42 69be 80d9 8bbf
00000280: 0a6e 673e 6ad2 473e 1af0 193f 39e0 ef3c
00000290: bb6b b0bd df15 183e f75e c8bc d6c4 0f3e
000002a0: a21a 2a3e 31a6 b0be 8362 29bf df42 8abe
000002b0: aedc af3d 1f38 423f fe27 31be 8983 72be
000002c0: 063b 80be c8d3 6ebe 6753 553e ad5f 1b3d
000002d0: aa3e 8abe 74f5 193e 592c debd a732 f9bd
000002e0: cf4b 02bf a44e 6bbe 10bd a8bc f0bc 1a3f
000002f0: 0e29 dc3d d778 86bf e2f2 b33d b4cf 063f
00000300: 18ae 303e 40fe 893e fe9c 59bf 4002 a73e
00000310: 85b2 34be c075 4d3f 76d0 bc3d 01b5 bd3e
00000320: 1f08 d03c dbd2 d3be 9bdb 90bd 5087 a3be
00000330: c169 82bd 4977 2a3f 7aa6 09be 1ae5 be3d
00000340: 58ff 8a3e cea3 a33d 88eb 1e3f 066a 15be
00000350: 6020 6abd f15d bc3e 2a7b 43be c1cd ebba
00000360: b019 9cbe f15f 693e 46e5 ff3e 0fcf 22bf
00000370: 3e49 ac3e 2653 b83e 44a5 cbbd 9207 0e3f
00000380: 6107 81bf 6449 01bf e10f cbbe 2b4f 53be
00000390: 35e7 0ebf fa95 543d cef4 d0bf 5635 a1bc
000003a0: 1c81 70c0 281f 733e 6082 00be 4684 db3e
000003b0: c96f 7e3d 1890 20be 90aa 4ebe feee 2b3f
000003c0: bf83 87be 8c06 c93e 5762 303d 26bc 97bf
000003d0: 4743 2d3e 2c37 5ebf cd82 acbe d9e7 bdbd
000003e0: 1109 5f3e 10e5 2abf 898e 733d 9574 b03e
000003f0: 4efa 94be 1586 0fbe 0554 99be a24e c43e

net.2.bias f4 [32]
-0.3741937 0.31565273 -0.009516526 0.104367375 -0.51024777 -0.35668987 0.26671895 0.61618096
0.25851545 -0.011032536 -0.7107213 -0.6328838 -0.48890153 -0.33791402 0.039045926 0.16204996
-0.0036220276 -0.244622 -0.31894046 -0.05624921 -0.17033614 -0.1290975 0.23795962 -0.4095632
0.29445538 -0.1832222 -0.56654936 -0.46961436 -0.12330816 0.041739043 -0.69015884 0.6675508
00000000: 5196 bfbe 3c9d a13e 34eb 1bbc 90be d53d
00000010: 999f 02bf 0ea0 b6be 638f 883e 09be 1d3f
00000020: 235c 843e cfc1 34bc d5f1 35bf ac04 22bf
00000030: 4d51 fabe 1103 adbe 9fee 1f3d 6df0 253e
00000040: 8a5f 6dbb 317e 7abe 2a4c a3be 9265 66bd
00000050: 996c 2ebe 2332 04be b0ab 733e 45b2 d1be
00000060: dbc2 963e 9a9e 3bbe 6109 11bf 4b71 f0be
00000070: fd88 fcbd 8ff6 2a3d 40ae 30bf 9ce4 2a3f

net.4.weight f4 [64, 32]
0.07307609 -0.1576645 -0.016223792 -0.25542712 0.0658422 0.30427453 -0.27293134 0.009448341
-0.1490885 -0.20854396 0.0048951698 0.34115523 -0.0820899 0.08059608 0.01987916 -0.020618327
-0.27476162 0.1263225 -0.39484912 -0.2034105 0.06710938 0.112921216 -0.10220956 0.23695135
-0.21237692 0.1275094 -0.0718894 0.2157581 0.1689252 -0.10010326 0.10440088 -0.03083772
0.097679205 0.06886751 -0.28406164 -0.17831661 0.5665213 -0.089347586 0.1052202 -0.09643384
-0.12631391 0.19325778 -0.5730479 -0.52561903 0.8159706 -0.45780897 0.12181099 -0.1311848
-0.044309463 -0.13081422 -0.0016413234 -0.025414689 0.41558805 -0.07306714 -0.5996901 -0.022403859
-0.16773207 0.02302861 0.07723408 0.08603085 -1.3929402 0.6413543 0.051235836 -0.15399963
-0.10184145 -0.13947935 -0.14032511 0.01380146 -0.16615634 -0.13538192 -0.1311444 0.082249336
0.04200255 -0.24360684 -0.11824422 -0.14004666 -0.05531172 0.0056086928 -0.12068144 -0.19331285
-0.08685029 -0.023763381 0.115639344 -0.007562047 -0.14631729 -0.17083928 -0.030097771 -0.065625206
0.039610744 -0.16331838 -0.026155012 -0.16397 -0.09023654 -0.16354148 -0.036815017 -0.07473798
0.21666099 0.18829334 -0.026089339 -0.10890253 -0.08751687 -0.09191005 -0.039483845 -0.0052194553
-0.113744795 0.077774286 -1.114856 0.5345931 0.7332281 -0.59291 -0.14264573 -0.84587663
0.0029018994 -0.41443548 0.15457125 -0.9165611 0.137969 -0.21926917 -0.30051267 -0.2086659
-0.12875342 -0.034496255 0.23021118 -1.3228943 -1.3102784 -0.7205438 -0.5456829 -0.27079937
-0.12536784 0.14894316 -0.22182189 0.014401331 -0.026189812 0.14856282 -1.5163534 -0.031138906
-0.12150572 -0.0537618 -0.8732038 -0.7930896 0.65956306 -0.2493118 0.20899813 -0.55397856
-0.04104947 -0.05542011 0.33759415 -0.18501975 0.12876964 -0.12881945 -0.68976486 -0.066495694
-0.010337194 -1.0848347 0.3047856 -0.45098293 -1.0393398 0.1375957 -0.19233973 -0.23106673
-0.14713009 -0.24542199 -0.25940245 -0.5060998 0.026099239 0.13790905 -0.0019719827 -0.17361209
-0.20530437 0.11969319 -0.12273179 -0.20479256 0.038599446 0.007988222 -0.058217384 -0.2025957
0.03381152 -0.008957165 0.19457363 -0.3517699 -0.08385187 -0.10461472 0.11821382 -0.03977171
0.021897972 -0.46182576 0.066492826 -0.21882418 0.012961638 -0.13840549 -0.05429037 -0.08942773
0.04683194 0.26621592 0.29006302 -0.10885958 -0.056837793 -0.012977834 -0.041951012 0.14014459
-0.048924632 0.16920546 -0.12934244 0.41736415 0.066742025 0.18157682 -0.03417553 -0.018435296
0.07572989 0.01618488 -0.17282027 -0.28522334 0.5339229 -0.1386835 -0.057373837 -1.478189
-0.14301829 0.18866599 0.2262579 0.6388664 0.50795084 -0.23273693 0.30748886 0.104126304
-0.0032633967 -0.0599439 -0.14168544 -0.028654566 0.07063656 -0.1021791 0.049838193 -0.18958378
-0.082712606 -0.07138966 -0.16782367 0.04735409 -0.13840392 0.08647744 0.020427959 -0.013461375
-0.09424193 -0.075992 0.04291609 0.13826197 -0.100506775 -0.12027906 -0.09423837 -0.12698327
-0.0548359 -0.1574799 0.1124858 0.09389205 -0.1124817 0.12423729 0.036649257 -0.12702164
00000000: eba8 953d cd72 21be c2e7 84bc 58c7 82be
00000010: 46d8 863d dfc9 9b3e a8bd 8bbe 37cd 1a3c
00000020: a8aa 18be 8c8c 55be a967 a03b e6ab ae3e
00000030: c01e a8bd 8f0f a53d 9fd9 a23c c4e7 a8bc
00000040: 8ead 8cbe af5a 013e aa29 cabe d84a 50be
00000050: a570 893d 3d43 e73d 3f53 d1bd 60a3 723e
00000060: 5679 59be d391 023e c03a 93bd b1ef 5c3e
00000070: bafa 2c3e f002 cdbd 21d0 d53d 639f fcbc
00000080: 090c c83d 690a 8d3d 8770 91be a198 36be
00000090: 8a07 113f defb b6bd b07d d73d 1b7f c5bd
000000a0: 6f58 01be 5ee5 453e 44b3 12bf f88e 06bf
000000b0: 73e3 503f f065 eabe 0a78 f93d 4f55 06be
000000c0: d77d 35bd 2af4 05be ad21 d7ba 7732 d0bc
000000d0: f5c7 d43e 3aa4 95bd 4a85 19bf 4c88 b7bc
000000e0: f5c1 2bbe 7fa6 bc3c e72c 9e3d f130 b03d
000000f0: dd4b b2bf cc2f 243f abdc 513d 14b2 1dbe
00000100: 4092 d0bd add3 0ebe 63b1 0fbe 851f 623c
00000110: e324 2abe 8fa1 0abe b84a 06be 5772 a83d
00000120: de0a 2c3d 1274 79be 072a f2bd 6468 0fbe
00000130: 8b8e 62bd 20c9 b73b d527 f7bd cef3 45be
00000140: 91de b1bd 6cab c2bc 52d4 ec3d 0ccb f7bb
00000150: 33d4 15be 7ef0 2ebe 9a8f f6bc 8266 86bd
00000160: e03e 223d ef3c 27be 0943 d6bc c0e7 27be
00000170: efcd b8bd 6b77 27be 58cb 16bd 3a10 99bd
00000180: 61dc 5d3e f8cf 403e 4fb9 d5bc 4a08 dfbd
00000190: 0b3c b3bd 563b bcbd d0b9 21bd f707 abbb
000001a0: 08f3 e8bd 2048 9f3d 9ab3 8ebf 18db 083f
000001b0: d6b4 3b3f f3c8 17bf b911 12be 5f8b 58bf
000001c0: cb2d 3e3b e330 d4be ed47 1e3e c0a3 6abf
000001d0: bf47 0d3e 1988 60be ccdc 99be 84ac 55be
000001e0: f0d7 03be f24b 0dbd 7bbc 6b3e 9a54 a9bf
000001f0: 34b7 a7bf 8f75 38bf e0b1 0bbf 37a6 8abe
00000200: 6d60 00be 8e84 183e 4725 63be 8ff3 6b3c
00000210: 048c d6bc da20 183e de17 c2bf 0517 ffbc
00000220: fed7 f8bd 5535 5cbd 498a 5fbf ec07 4bbf
00000230: 20d9 283f 984b 7fbe 9b03 563e 8ad1 0dbf
00000240: 7d23 28bd 3200 63bd 24d9 ac3e d175 3dbe
00000250: 30dc 033e 3fe9 03be 6e94 30bf e52e 88bd
00000260: 565d 29bc dddb 8abf dc0c 9c3e 3ce7 e6be
00000270: 1609 85bf e3e5 0c3e b5f4 44be c29c 6cbe
00000280: 45a9 16be e74f 7bbe 66d0 84be c28f 01bf
00000290: 12ce d53c 0838 0d3e 613c 01bb 5ec7 31be
000002a0: 4f3b 52be b421 f53d ce5a fbbd 24b5 51be
000002b0: 741a 1e3d 08e1 023c 5a75 6ebd 3f75 4fbe
000002c0: f37d 0a3d 13c1 12bc 4f3e 473e 2f1b b4be
000002d0: 87ba abbd 3e40 d6bd 161a f23d a9e7 22bd
000002e0: 6063 b33c 6d74 ecbe 642d 883d 7213 60be
000002f0: 0d5d 543c 2bba 0dbe 945f 5ebd e325 b7bd
00000300: d9d2 3f3d 744d 883e 2483 943e c5f1 debd
00000310: bfce 68bd fba0 54bc d3d4 2bbd 1082 0f3e
00000320: 3265 48bd 3244 2d3e 5872 04be c1b0 d53e
00000330: 0bb0 883d 46ef 393e a4fb 0bbd 9e05 97bc
00000340: 4618 9b3d 2796 843c ccf7 30be cb08 92be
00000350: 2caf 083f 0c03 0ebe d400 6bbd 4c35 bdbf
00000360: 6373 12be a831 413e 27b0 673e c08c 233f
00000370: 1109 023f 9752 6ebe 2e6f 9d3e 2c40 d53d
00000380: b6de 55bb bc87 75bd fd15 11be fbbc eabc
00000390: e7a9 903d 4743 d1bd 2223 4c3d 4022 42be
000003a0: 3a65 a9bd be34 92bd f8d9 2bbe 5df6 413d
000003b0: c2b9 0dbe 161b b13d 8958 a73c 198d 5cbc
000003c0: ea01 c1bd b2a1 9bbd c8c8 2f3d 8c94 0d3e
000003d0: 7fd6 cdbd de54 f6bd 0c00 c1bd e707 02be
000003e0: 9c9b 60bd 6942 21be f55e e63d 7a4a c03d
000003f0: ce5c e6bd 1f70 fe3d 881d 163d f611 02be

net.4.bias f4 [64]
-0.1904755 -0.46226552 0.06031689 -0.021712799 -0.375904 -0.26282692 -0.1431399 -0.12395126
-0.49885365 -0.62457407 -0.14220373 0.032719534 -0.059570853 -0.6099589 -0.093181625 -0.16544488
-0.37142932 0.0646116 -0.14033887 -0.3141139 -0.1514095 -0.34575236 -0.13289887 -0.06642079
-0.2554939 -0.16822681 -0.21699406 -0.18262406 -0.074817486 -0.09612257 -0.21507993 -0.011900162
-0.12487571 -0.2084877 0.0152255455 -0.25593993 -0.1867057 -0.074169934 0.045509994 -0.33876163
-0.26987574 0.07478524 -0.20715772 -0.34207836 -0.11278758 -0.15221682 0.11968071 -0.30542755
0.016264306 0.062405013 -0.12818412 0.0046869796 -0.26506007 -0.05800171 -0.34191078 0.029248396
-0.09174751 -0.2729131 -0.07843136 -0.5698721 -0.17119141 -0.108828485 0.055772647 -0.2138298
00000000: 020c 43be 11ae ecbe d80e 773d 0adf b1bc
00000010: 7d76 c0be 4091 86be 4493 12be 28da fdbd
00000020: bf69 ffbe 16e4 1fbf db9d 11be eb04 063d
00000030: 9100 74bd 4426 1cbf 02d6 bebd 626a 29be
00000040: fc2b bebe 1653 843d feb4 0fbe 89d3 a0be
00000050: 180b 1bbe 7406 b1be a416 08be a007 88bd
00000060: 19d0 82be a643 2cbe b133 5ebe cd01 3bbe
00000070: e939 99bd e9db c4bd ea3d 5cbe e6f8 42bc
00000080: d6be ffbd cd7d 55be 9174 793c 8f0a 83be
00000090: c72f 3fbe 68e6 97bd b068 3a3d 2a72 adbe
000000a0: 272d 8abe 0129 993d 2721 54be e524 afbe
000000b0: 2dfd e6bd bade 1bbe 291b f53d 0061 9cbe
000000c0: b93c 853c 669c 7f3d b342 03be 3c95 993b
000000d0: f4b5 87be 3393 6dbd ee0e afbe 559a ef3c
000000e0: 1ee6 bbbd 44bb 8bbe 9fa0 a0bd 23e3 11bf
000000f0: cd4c 2fbe 78e1 debd dc71 643d 33f6 5abe

net.6.weight f4 [32, 64]
-0.06734123 0.030128112 0.061263375 0.026008623 0.06159531 0.013222544 -0.072026834 -0.10419646
-0.12494023 -0.09572333 0.062794775 0.09378757 0.118985385 0.074016474 0.0064513236 0.08607453
0.04494188 -0.103909634 -0.04323414 -0.13444936 0.10730466 0.004648961 0.09634168 -0.03446397
0.09667794 0.038750198 -0.018185716 -0.0067146095 0.08908802 -0.04196872 0.08140776 0.008874655
-0.06862989 -0.05879591 -0.060801223 0.052593067 0.09448893 -0.05876568 -0.13384458 0.036095805
-0.044297952 -0.13422084 0.007797461 -0.012437746 0.07119211 -0.004712778 -0.0965625 -0.026463432
-0.1055846 0.03893589 0.03656587 0.054624744 -0.11227366 -0.06957969 -0.090836644 -0.123295784
-0.11659315 -0.12023544 0.08707589 -0.040292006 -0.023060814 0.03384088 0.013217486 0.036434565
-0.09211876 0.096852854 -0.009986073 -0.07802599 0.07761456 -0.12235272 -0.1297737 0.070446566
0.048456043 -0.049504057 -0.009989545 -0.035967227 0.045224123 0.021664083 0.039772235 0.10324958
-0.08877969 -0.1003551 -0.034303617 -0.06457945 -0.0888952 0.06550103 0.09901483 0.09734037
-0.09000262 -0.018087672 -0.09983975 -0.050111867 0.10416533 -0.031939857 0.024487061 -0.13816278
0.047834158 0.033625048 -0.048000142 0.04738984 0.056300625 -0.09127037 -0.09678534 -0.0009788774
-0.12056628 -0.09102567 0.04558027 -0.041127726 -0.009132812 -0.051072776 0.07736372 0.09943706
0.07913548 -0.1144848 -0.0369557 0.055939656 0.070252486 -0.028015405 0.04119455 -0.023442753
0.004822618 0.08164319 0.08551107 -0.09131837 -0.07588899 0.041026104 0.07167097 -0.03282421
-0.034872506 -0.3932528 -0.02105363 -0.27014196 -0.17131715 0.15038356 -0.3312833 0.1156453
0.01235847 0.15656163 -0.08892019 -0.022153288 -0.08807555 0.036304664 0.04959113 -0.112444885
-0.111742966 -0.025609694 -0.03827962 -0.15825084 0.012052161 0.0021156534 0.13093038 0.01118829
-0.057549465 0.057175767 -0.11798676 -0.036839414 0.011753493 0.026812945 0.01001697 0.10587817
0.10786638 -0.07814497 0.05611047 0.032113235 -0.08327556 -0.068963446 0.10516875 -0.22084881
-0.003444804 -0.08259496 -0.036542032 -0.086836055 0.07932092 0.121599235 -0.055927277 0.13871361
0.04617444 0.111659706 -0.12221243 0.014626743 -0.026992707 -0.10982919 -0.12323281 0.0014093267
0.14740908 0.11911255 0.0994066 -0.015516959 0.11234504 0.025914604 -0.009359711 -0.06482902
0.14013265 0.07299745 0.13876186 -0.08521767 0.01943301 0.18691579 -0.17440481 -0.081121236
-0.29366538 -0.39096352 0.095804974 0.0562527 -0.08938841 -0.052677557 -0.007045466 -0.00901789
0.07498503 0.12844768 0.059712943 0.015471777 0.06447423 0.013384717 0.14052685 -0.065353684
0.04445038 0.098674834 0.06926601 -0.06755943 0.030249532 0.03896501 -0.020071028 0.06607208
-0.04554766 -0.08503107 -0.049801487 -0.061480768 -0.040633313 0.059224043 0.0064384006 -0.10388423
-0.037577447 -0.124677375 0.03688567 -0.11865507 0.034102675 -0.1427558 -0.008393811 0.15399075
-0.07817407 0.10657858 0.072309844 0.07213984 0.10169804 0.014578339 -0.09151901 -0.08989534
0.11896679 0.29048464 0.0069161924 -0.009838924 -0.118563026 0.042038616 -0.055049308 0.07121372
00000000: 33ea 89bd 3bcf f63c 4eef 7a3d 0910 d53c
00000010: 5d4b 7c3d 5fa3 583c ce82 93bd f464 d5bd
00000020: aae0 ffbd 980a c4bd 8c9a 803d b313 c03d
00000030: 9cae f33d f395 973d a065 d33b d847 b03d
00000040: fa14 383d 93ce d4bd 4816 31bd 18ad 09be
00000050: 8cc2 db3d 5056 983b c94e c53d 182a 0dbd
00000060: 15ff c53d 87b8 1e3d 36fa 94bc 3a06 dcbb
00000070: c873 b63d 64e7 2bbd 1db9 a63d 0067 113c
00000080: d48d 8cbd fbd3 70bd b40a 79bd d46b 573d
00000090: 6a83 c13d 48b4 70bd 8e0e 09be 32d9 133d
000000a0: c571 35bd 3071 09be d881 ff3b b0c7 4bbc
000000b0: 2bcd 913d a66d 9abb 8fc2 c5bd d7c9 d8bc
000000c0: bd3c d8bd 3d7b 1f3d 18c6 153d 32be 5f3d
000000d0: bcef e5bd cc7f 8ebd 9008 babd 8082 fcbd
000000e0: 64c8 eebd 003e f6bd d854 b23d 3b09 25bd
000000f0: 08ea bcbc bc9c 0a3d 288e 583c 693c 153d
00000100: c3a8 bcbd ca5a c63d a09c 23bc 17cc 9fbd
00000110: 62f4 9e3d 1094 fabd 66e3 04be 4a46 903d
00000120: d879 463d c4c4 4abd 30ab 23bc 5f52 13bd
00000130: ee3c 393d e078 b13c 36e8 223d 8474 d33d
00000140: 20d2 b5bd fa86 cdbd f381 0cbd 3b42 84bd
00000150: b00e b6bd 6725 863d 4ac8 ca3d 635a c73d
00000160: 4b53 b8bd 992c 94bc c878 ccbd 1a42 4dbd
00000170: a254 d53d 5ed3 02bd 1799 c83c 8b7a 0dbe
00000180: c0ed 433d 6bba 093d cc9b 44bd d91b 423d
00000190: 7c9b 663d f6eb babd 6437 c6bd ad4d 80ba
000001a0: 74eb f6bd ab6b babd 61b2 3a3d 8c75 28bd
000001b0: caa1 15bc b031 51bd df70 9e3d a8a5 cb3d
000001c0: c811 a23d 0277 eabd dc5e 17bd fb20 653d
000001d0: 89e0 8f3d 9080 e5bc 9ebb 283d 040b c0bc
000001e0: 0d07 9e3b 8b34 a73d 6e20 af3d 2005 bbbd
000001f0: b06b 9bbd fd0a 283d 3bc8 923d ae72 06bd
00000200: 79d6 0ebd 6e58 c9be aa78 acbc 0c50 8abe
00000210: c36d 2fbe 26fe 193e f79d a9be 71d7 ec3d
00000220: 2e7b 4a3c b151 203e ca1b b6bd d07a b5bc
00000230: f460 b4bd 33b4 143d 1220 4b3d 8149 e6bd
00000240: 7fd9 e4bd 6ccb d1bc 17cb 1cbd 820c 22be
00000250: 6d76 453c c6a6 0a3b 9d12 063e 174f 373c
00000260: fdb8 6bbd 2331 6a3d 0ba3 f1bd ede4 16bd
00000270: b991 403c d2a6 db3c 381e 243c a7d6 d83d
00000280: 0ce9 dc3d 780a a0bd 18d4 653d 2b89 033d
00000290: 608c aabd b53c 8dbd b762 d73d 3126 62be
000002a0: 39c2 61bb 8c27 a9bd 19ad 15bd 1ad7 b1bd
000002b0: 0273 a23d 0509 f93d 0014 65bd f10a 0e3e
000002c0: 6921 3d3d d8ad e43d 834a fabd 02a5 6f3c
000002d0: cf1f ddbc 20ee e0bd 7c61 fcbd 28b9 b83a
000002e0: 68f2 163e 48f1 f33d b095 cb3d d83a 7ebc
000002f0: 2815 e63d dd4a d43c 7959 19bc 14c5 84bd
00000300: ef7e 0f3e b07f 953d 9717 0e3e 9a86 aebd
00000310: fa31 9f3c da66 3f3e 2d97 32be e422 a6bd
00000320: 4f5b 96be 5f2c c8be 6635 c43d 3b69 663d
00000330: 4511 b7bd 6cc4 57bd a7dd e6bb c6bf 13bc
00000340: c091 993d ca87 033e 8f95 743d 567d 7d3c
00000350: 110b 843d 924b 5b3c 45e6 0f3e 27d8 85bd
00000360: 9a11 363d 0816 ca3d 56db 8d3d 995c 8abd
00000370: decd f73c c699 1f3d ff6b a4bc cc50 873d
00000380: 2f90 3abd c524 aebd a5fc 4bbd 42d3 7bbd
00000390: 1e6f 26bd e994 723d 38f9 d23b 41c1 d4bd
000003a0: cfea 19bd da56 ffbd 6e15 173d 6e01 f3bd
000003b0: 3faf 0b3d 942e 12be 3286 09bc c0af 1d3e
000003c0: ba19 a0bd df45 da3d 2f17 943d 0dbe 933d
000003d0: 1047 d03d fcd9 6e3c 526e bbbd 0c1b b8bd
000003e0: dca4 f33d 67ba 943e 3aa1 e23b 7033 21bc
000003f0: 2cd1 f2bd af30 2c3d 627b 61bd 80d8 913d

net.6.bias f4 [32]
-0.097632416 -0.17183153 -0.10615036 -0.036010407 -0.050829854 -0.25696352 0.10610291 -0.08592144
-0.16510938 -0.057557043 -0.061767697 -0.04865648 -0.058356933 -0.6208322 -0.11348694 -0.10780085
-0.05367763 -0.13326466 -0.080088675 -0.12702219 -0.03786299 -0.034021646 -0.3033421 -0.09706954
-0.36554813 -0.14131135 -0.1584479 -0.04661414 -0.118141994 -0.13960312 -0.18401435 -0.032682
00000000: 81f3 c7bd 9bf4 2fbe 5c65 d9bd a67f 13bd
00000010: f732 50bd b990 83be 7c4c d93d 94f7 afbd
00000020: 6f12 29be efc0 6bbd 2000 7dbd 044c 47bd
00000030: ae07 6fbd dcee 1ebf d76b e8bd b1c6 dcbd
00000040: 13dd 5bbd 8876 08be 8805 a4bd 1b12 02be
00000050: 3916 1bbd 485a 0bbd a84f 9bbe 65cc c6bd
00000060: 2029 bbbe ecb3 10be 2b40 22be 78ee 3ebd
00000070: 6ef4 f1bd 1ff4 0ebe 426e 3cbe 90dd 05bd

net.8.weight f4 [16, 32]
-0.121207945 0.13509187 0.07559046 -0.007868785 -0.1441512 -0.2042281 -0.14335531 0.058749013
-0.11665656 -0.023002863 0.028671935 -0.02142641 0.036992785 -0.14650178 0.1116563 -0.12752432
-0.14400524 -0.14726321 0.070489466 -0.0875299 -0.05411543 0.0927953 -0.044982042 0.10236407
0.01571451 -0.017588697 -0.11866888 -0.16858457 0.04893133 0.0058674105 0.124613725 -0.20460527
-0.0073628123 0.022839496 0.12310158 0.06734653 0.0690347 -0.024437124 0.0040941965 0.33063808
-0.13587053 -0.021552702 0.078053415 -0.060770344 -0.11477262 -0.3607053 0.022260565 -0.05829863
0.20147255 0.010690729 0.13653111 -0.05616559 0.080297805 0.039877336 0.24591202 0.10889966
0.06661619 0.031208748 0.1374491 -0.03529709 0.006995943 0.011721137 -0.0022442746 0.08263109
0.06701113 -0.016429752 -0.25984466 -0.046685487 -0.092947036 -0.19845779 0.042825785 -0.2114091
-0.14980486 -0.12694141 -0.16052607 -0.03562802 -0.1188287 0.035214882 0.011502793 0.083995566
0.06540546 -0.1459793 -0.20730922 0.14902477 0.02944137 0.027950212 0.098848954 -0.04792464
-0.013380989 -0.09470871 0.061999068 -0.14354718 0.17421462 -0.17104822 -0.19657777 0.021057265
-0.04561293 -0.094280966 -0.019213976 -0.19019897 -0.010299462 -0.03469624 0.07345445 -0.088228986
-0.112948164 -0.041309893 0.030354595 -0.09444861 -0.09564044 0.086022064 -0.07659536 0.044415407
-0.10200106 0.16353683 0.013615451 -0.005908968 -0.10280675 -0.10657794 -0.01796982 -0.010696193
0.067230485 0.04380211 -0.13742794 0.07439691 -9.085599e-05 0.08638281 -0.034018394 -0.02218127
0.16509123 -0.17182659 -0.19878685 -0.19410302 -0.11857214 -0.033798132 0.007198717 -0.07592796
0.13992222 0.14459811 0.11891501 -0.142938 0.06919561 0.021038149 0.12949543 -0.1597696
-0.052834924 -0.08969197 -0.13002637 0.051488534 -0.041625578 0.076768175 -0.13136709 -0.10262561
0.07572408 -0.065227725 0.021777019 -0.11808774 0.15258472 -0.00036635995 0.050099723 -0.03777391
0.017270833 0.16771634 -0.1481972 0.063946314 -0.17601869 -0.012930253 -0.10389589 -0.04300485
-0.17364794 0.049257487 -0.08888882 0.13666028 0.17225672 0.111909166 -0.21468922 0.079534456
-0.1785108 0.010960534 -0.21379358 0.11164327 -0.06704493 0.03871355 -0.014859878 0.02718034
0.06511213 -0.0062835664 -0.12580317 0.06490004 -0.06625109 -0.02401276 -0.053551774 0.08028109
0.13243555 -0.025107533 -0.08438918 0.16183849 0.09561248 -0.15296847 -0.005549893 -0.13048016
-0.04524477 -0.15210113 -0.1474541 -0.12369423 -0.037604257 0.06307134 -0.15865916 -0.06704341
0.035146937 0.047578067 -0.0030773133 -0.137324 -0.010199353 0.05706334 -0.1575239 -0.113355674
0.031829283 0.00035695732 0.13172685 0.05354932 0.09484954 -0.13394167 -0.03999436 -0.02459231
-0.04288511 -0.025517173 0.09087486 -0.097834125 -0.0497216 -0.03266038 -0.08414867 0.021289844
-0.02358085 0.09154524 -0.13770309 0.12779646 0.044631477 0.116960794 -0.17585486 0.12880792
0.10290831 0.12244396 0.09958538 -0.08292152 -0.06211298 0.004940301 0.04269895 -0.15494013
-0.034339905 -0.21085387 -0.120765954 -0.06630919 -0.055120572 0.056125004 0.11679355 -0.05117558
00000000: df3b f8bd 8655 0a3e 2ccf 9a3d 14ec 00bc
00000010: 5f9c 13be 2c21 51be bccb 12be cea2 703d
00000020: a2e9 eebd 8070 bcbc 68e1 ea3c 7086 afbc
00000030: bf85 173d 9004 16be 0fac e43d bc95 02be
00000040: 1c76 13be 2bcc 16be c85c 903d e042 b3bd
00000050: 24a8 5dbd 760b be3d 173f 38bd 41a4 d13d
00000060: b7bb 803c 2c16 90bc ab08 f3bd 6fa1 2cbe
00000070: 386c 483d 6843 c03b 7b35 ff3d 0b84 51be
00000080: bf43 f1bb e519 bb3c ae1c fc3d faec 893d
00000090: 1162 8d3d 5d30 c8bc 9c28 863b 6549 a93e
000000a0: a521 0bbe 4b8f b0bc 78da 9f3d 53ea 78bd
000000b0: e80d ebbd 5dae b8be ca5b b63c 8bca 6ebd
000000c0: d24e 4e3e 2b28 2f3c d0ce 0b3e e40d 66bd
000000d0: 2d73 a43d 6b56 233d 5cd0 7b3e c906 df3d
000000e0: 126e 883d 7da9 ff3c 75bf 0c3e ae93 10bd
000000f0: 393e e53b 030a 403c ae14 13bb 7d3a a93d
00000100: 223d 893d b097 86bc 5c0a 85be 4839 3fbd
00000110: 045b bebd 8538 4bbe 176a 2f3d a17b 58be
00000120: 7266 19be eefc 01be f260 24be b0ee 11bd
00000130: 765c f3bd 7b3d 103d 3676 3c3c de05 ac3d
00000140: 4cf3 853d 997b 15be de48 54be f399 183e
00000150: 072f f13c d8f7 e43c 5271 ca3d a14c 44bd
00000160: f03b 5bbc a4f6 c1bd bcf2 7d3d 08fe 12be
00000170: 5165 323e 4427 2fbe af4b 49be 4980 ac3c
00000180: a0d4 3abd 6116 c1bd a166 9dbc 85c3 42be
00000190: 13bf 28bc a51d 0ebd 496f 963d 66b1 b4bd
000001a0: 5e51 e7bd 9034 29bd 33aa f83c 466e c1bd
000001b0: 23df c3bd 562c b03d 07de 9cbd eeec 353d
000001c0: efe5 d0bd 3376 273e 5713 5f3c 04a0 c1bb
000001d0: 588c d2bd 8945 dabd 7235 93bc 163f 2fbc
000001e0: 23b0 893d d769 333d e9b9 0cbe 685d 983d
000001f0: f089 beb8 78e9 b03d df56 0bbd 7fb5 b5bc
00000200: ad0d 293e 4ff3 2fbe c88e 4bbe f1c2 46be
00000210: f3d5 f2bd e96f 0abd 37e3 eb3b 1e80 9bbd
00000220: c547 0f3e 8711 143e b689 f33d 575e 12be
00000230: 6eb6 8d3d 3258 ac3c 739a 043e a49a 23be
00000240: 6f69 58bd 6cb0 b7bd a225 05be a4e5 523d
00000250: 957f 2abd a238 9d3d 1885 06be 602d d2bd
00000260: 3a15 9b3d 1d96 85bd b865 b23c fcd7 f1bd
00000270: 2b3f 1c3e 0014 c0b9 5e35 4d3d d1b8 1abd
00000280: 907b 8d3c d5bd 2b3e 02c1 17be 49f6 823d
00000290: 3e3e 34be 69d9 53bc 5ec7 d4bd db25 30bd
000002a0: c4d0 31be 38c2 493d 570b b6bd acf0 0b3e
000002b0: 1164 303e a230 e53d 7ed7 5bbe f6e2 a23d
000002c0: 89cb 36be d093 333c b4ec 5abe 3aa5 e43d
000002d0: da4e 89bd 1992 1e3d d976 73bc 4ea9 de3c
000002e0: 8259 853d 60e6 cdbb 8cd2 00be 50ea 843d
000002f0: a7ae 87bd 68b6 c4bc 1b59 5bbd 6a6a a43d
00000300: 2f9d 073e 50ae cdbc 3cd4 acbd fdb8 253e
00000310: 7ad0 c33d c4a3 1cbe e0db b5bb 979c 05be
00000320: 9452 39bd 66c0 1bbe 35fe 16be 6753 fdbd
00000330: ec06 1abd 8c2b 813d 8c77 22be 0e4e 89bd
00000340: 3cf6 0f3d 38e1 423d c0ac 49bb aa9e 0cbe
00000350: 301b 27bc 40bb 693d f24d 21be 0527 e8bd
00000360: 6c5f 023d 0026 bb39 67e3 063e 8856 5b3d
00000370: 7a40 c23d 0128 09be 20d1 23bd d075 c9bc
00000380: 4ca8 2fbd 6409 d1bc 991c ba3d 425d c8bd
00000390: e0a8 4bbd e4c6 05bd 2356 acbd 0a68 ae3c
000003a0: a02c c1bc 127c bb3d 0a02 0dbe 13dd 023e
000003b0: 7fcf 363d 2489 ef3d 4c13 34be 39e6 033e
000003c0: 98c1 d23d e6c3 fa3d 6bf3 cb3d c2d2 a9bd
000003d0: 2e6a 7ebd 40e2 a13b 18e5 2e3d a0a8 1ebe
000003e0: 00a8 0cbd 14ea 57be 2454 f7bd 1dcd 87bd
000003f0: 1cc6 61bd 55e3 653d 7531 ef3d 7c9d 51bd

net.8.bias f4 [16]
-0.12063718 0.0062554437 -0.17012942 0.17903021 -0.08819606 -0.04372134 -0.15765987 -0.10506287
0.17442273 -0.07784089 -0.05561595 0.0091928765 -0.1468175 -0.0024187139 -0.049988817 -0.110338785
00000000: a010 f7bd 77fa cc3b 6836 2ebe b253 373e
00000010: 23a0 b4bd 2615 33bd 9771 21be 342b d7bd
00000020: df9b 323e 0b6b 9fbd 8dcd 63bd b89d 163c
00000030: 5457 16be 4983 1ebb 13c1 4cbd 4df9 e1bd

net.10.weight f4 [2, 16]
-0.15480667 -2.756973e-05 -0.07092424 0.111942194 -0.16245827 -0.09956188 -0.24844831 -0.12568808
0.16389355 -0.06707021 -0.0070523326 2.474606e-06 -0.050561506 -0.0018506825 0.013589138 -0.025551114
0.19858834 -0.51152426 0.057785854 0.11032914 0.16656317 0.053037576 -0.12568367 -0.11331729
-0.051347494 -0.05551425 -0.63355833 0.40835857 0.13131315 -0.055832166 0.035649706 0.026855428
00000000: a485 1ebe 8b45 e7b7 ba40 91bd f341 e53d
00000010: 765b 26be 19e7 cbbd 3c69 7ebe 60b4 00be
00000020: b6d3 273e 1b5c 89bd 4117 e7bb 6811 2636
00000030: 9519 4fbd 9a92 f2ba faa4 5e3c 9250 d1bc
00000040: be5a 4b3e 41f3 02bf dcb0 6c3d 3ff4 e13d
00000050: 898f 2a3e ee3d 593d 38b3 00be e512 e8bd
00000060: c051 52bd e962 63bd e130 22bf 6014 d13e
00000070: f476 063e 45b0 64bd 6d05 123d eaff db3c

net.10.bias f4 [2]
-0.04872653 -0.03025859
00000000: 7895 47bd dde0 f7bc
