1 DOF Non-linear duffing/non_linear_model_parameters_m1.pth (torch, 26210 bytes, 12 tensors)

net.0.weight f4 [16, 3]
-0.16448195 -0.60093945 -0.14704987 0.053594492 -0.08627955 0.22550437 0.25236735 0.08322008
-0.13702291 -0.28190494 0.43220073 -0.20281331 0.13252293 0.27496415 0.38348216 -0.12507065
0.51504856 -0.09105996 -0.0021096468 0.18533027 -0.012685239 -0.014231958 -1.0325199 0.20654619
-0.1132618 -0.43368655 0.037267298 -0.035162266 -0.9014886 0.12054275 -0.015612793 -1.1221493
-0.27830154 0.003825814 -1.018859 0.06677841 -0.00058179605 0.8870342 -0.00986731 0.026006106
1.2049968 0.37729415 -0.12539612 0.18200071 0.08747043 -0.25535548 -0.5580896 -0.22343682
00000000: f56d 28be 2bd7 19bf 3e94 16be e685 5b3d
00000010: 55b3 b0bd 9eea 663e 4b36 813e 4a6f aa3d
00000020: bc4f 0cbe d855 90be 6a49 dd3e 4bae 4fbe
00000030: 17b4 073e 1ac8 8c3e c657 c43e 8512 00be
00000040: 39da 033f a57d babd 0042 0abb 38c7 3d3e
00000050: c0d5 4fbc 292d 69bc 9d29 84bf d880 533e
00000060: cdf5 e7bd 2a0c debe 98a5 183d 4f06 10bd
00000070: f5c7 66bf 1edf f63d cdcc 7fbc 97a2 8fbf
00000080: 8a7d 8ebe 82ba 7a3b f969 82bf 1ec3 883d
00000090: ac83 18ba ac14 633f 7faa 21bc c20a d53c
000000a0: 563d 9a3f b32c c13e d767 00be 655e 3a3e
000000b0: b223 b33d f4bd 82be f6de 0ebf 9fcc 64be

net.0.bias f4 [16]
-0.36865744 -0.17963874 -0.24965326 0.38808483 -0.41649154 0.2816728 -0.5196221 -0.07716569
0.08580354 0.38427973 -0.115723036 0.3397474 0.2612775 0.2507877 0.051713925 0.18153854
00000000: abc0 bcbe 38f3 37be 1ba5 7fbe 0eb3 c63e
00000010: 613e d5be 6b37 903e f405 05bf 0c09 9ebd
00000020: c4b9 af3d 50c0 c43e 3300 edbd 5ff3 ad3e
00000030: 2ac6 853e 3f67 803e fbd1 533d 3de5 393e

net.2.weight f4 [32, 16]
-0.18885908 -0.03161216 0.10863774 -0.18143395 0.034574956 0.018873971 0.24447003 0.07015154
0.075622246 -0.08963905 0.048232235 0.07563002 0.15303737 -0.12790345 0.29660773 -0.0720408
-0.060864095 0.11862881 0.11123031 -0.04492934 -0.09730987 0.0711296 -0.17765367 -0.120647855
0.0022972154 0.017055554 0.12327144 0.021608973 0.04184253 0.120977364 -0.18028712 0.028288923
-0.14502491 -0.09477844 0.061109234 -0.12223044 0.11497384 -0.08286704 -0.008481681 -0.42280304
-0.0029229762 -0.17639385 0.3051419 -0.2604265 0.16399862 -0.2808728 0.1496019 0.09467578
-0.028832292 0.0768136 0.15854022 0.03824352 -0.17238349 -0.015496755 -0.1724656 0.48855433
-0.0062861335 -0.14053062 -0.19043374 -0.24694687 0.03580647 0.24757303 0.15266481 0.09846212
0.017892001 -0.16820256 0.17921984 -0.016683074 -0.028735064 -0.022112265 0.18278372 0.14079352
0.076121055 0.10444085 -0.34014714 -0.020212894 -0.21053807 0.061557703 -0.21409135 -0.029027669
0.1267971 0.16669206 -0.13838492 -0.16791059 -0.11418497 0.07248344 -0.04071808 0.08089186
-0.045329 0.09540357 0.5976366 -0.08310911 -0.039387103 0.04751781 0.21513462 -0.022470633
-0.036889303 0.19316705 0.16794252 0.21595441 -0.1029363 0.109764196 0.17456904 -0.113447174
0.083574206 -0.070388824 0.100419015 -0.1524572 0.07267851 0.14369509 -0.1979517 -0.21888766
-0.07134714 0.18343152 0.16453055 -0.12897652 0.060576253 -0.080039285 -0.11603817 0.37609696
0.24726607 -0.013223919 0.124092706 0.19122049 -0.12461653 -0.07941351 -0.014798104 0.19400893
-0.013897241 0.14623028 -0.13277607 0.06758177 0.1939005 0.1237534 0.06797394 0.30521387
-0.06412559 0.014232991 0.3793346 0.17700946 -0.020529179 0.37045586 0.08320702 -0.08282262
0.18906337 -0.07213062 0.13464105 0.21202359 -0.19831373 -0.13311619 -0.24772853 -0.11432545
-0.21531913 -0.1099366 -0.08977045 0.088523075 0.27092716 0.16763897 0.16095708 -0.15699369
-0.30184966 0.043839518 0.26691052 0.0365338 -0.024002735 -0.1251102 -0.12395957 -0.4057128
0.058192 -0.13721226 -0.25109577 -0.45411396 0.27382448 0.018497089 0.043302838 0.12018581
-0.6627849 -0.23080015 0.017983714 -0.12331809 -0.048880067 0.2663879 -0.019014865 0.22156854
-0.4024862 -0.25670618 0.33816117 0.0031992234 -0.27829853 -0.4148738 0.25370237 0.03290536
-0.060461883 -0.047786243 -0.09297411 0.011911264 0.19669631 -0.1347241 0.011978179 0.04514623
-0.081382155 0.23963556 -0.036410306 0.2750652 -0.078316115 -0.16426186 -0.12585837 0.19093691
-0.16134545 0.17612292 0.06646999 0.043412484 0.16095507 -0.03254898 0.15469089 -0.30813503
-0.092704855 0.32322335 0.30255213 0.104111545 -0.30041096 -0.053424444 0.15744986 -0.030023217
0.12409226 -0.15769872 0.17857581 -0.06636724 -0.23186918 0.19589245 0.14119312 -0.1844797
-0.29231468 -0.10644095 0.43758345 -0.15219334 0.19834922 -0.30848104 0.013980709 -0.024656266
0.09854344 0.13546252 0.13063332 0.18201052 -0.16688596 -0.22817674 -0.2403763 0.33648634
0.06032134 -0.14345066 0.31024906 0.34083304 -0.32901725 0.2578645 -0.012927477 -0.013338024
00000000: 4664 41be c17b 01bd 777d de3d d2c9 39be
00000010: 789e 0d3d 969d 9a3c 5a56 7a3e 9cab 8f3d
00000020: d6df 9a3d ae94 b7bd 2a8f 453d e9e3 9a3d
00000030: d4b5 1c3e 1ff9 02be f8dc 973e 208a 93bd
00000040: a14c 79bd a9f3 f23d b7cc e33d d407 38bd
00000050: 664a c7bd 65ac 913d d8ea 35be 3916 f7bd
00000060: e18c 163b 17b8 8b3c bd75 fc3d 4d05 b13c
00000070: 1363 2b3d fbc2 f73d 309d 38be 2cbe e73c
00000080: 6981 14be 331b c2bd ad4d 7a3d f453 fabd
00000090: 6877 eb3d 32b6 a9bd c0f6 0abc a479 d8be
000000a0: 678f 3fbb 97a0 34be 8f3b 9c3e 9f56 85be
000000b0: 41ef 273e 8fce 8fbe 3e31 193e 60e5 c13d
000000c0: b331 ecbc 7350 9d3d 5e58 223e 3da5 1c3d
000000d0: 4c85 30be 1ae6 7dbc d29a 30be cb23 fa3e
000000e0: e9fb cdbb 42e7 0fbe 1001 43be a4df 7cbe
000000f0: cea9 123d c983 7d3e 2a54 1c3e 82a6 c93d
00000100: 3f92 923c 4b3d 2cbe 6885 373e f1aa 88bc
00000110: cc65 ebbc c824 b5bc a82b 3b3e 2d2c 103e
00000120: 5be5 9b3d 16e5 d53d c427 aebe 8395 a5bc
00000130: 4b97 57be ee23 7c3d c33a 5bbe 6fcb edbc
00000140: 19d7 013e 53b1 2a3e c7b4 0dbe c1f0 2bbe
00000150: cfd9 e9bd 3372 943d 00c8 26bd a2aa a53d
00000160: e7aa 39bd f262 c33d b6fe 183f 1c35 aabd
00000170: 5f54 21bd 09a2 423d 404c 5c3e 5514 b8bc
00000180: 3d19 17bd 95cd 453e 20f9 2b3e 2723 5d3e
00000190: 44d0 d2bd 0dcc e03d 3ac2 323e fe56 e8bd
000001a0: f428 ab3d 0428 90bd 7ca8 cd3d be1d 1cbe
000001b0: 78d8 943d ce24 133e dab3 4abe 1624 60be
000001c0: 731e 92bd 79d5 3b3e b27a 283e 6c12 04be
000001d0: ce1e 783d a3eb a3bd 6ca5 edbd c88f c03e
000001e0: 5133 7d3e 23a9 58bc 5124 fe3d 4ecf 433e
000001f0: f436 ffbd 8da3 a2bd bf73 72bc 47aa 463e
00000200: 41b1 63bc 64bd 153e 73f6 07be 5068 8a3d
00000210: da8d 463e 6c72 fd3d ec35 8b3d fe44 9c3e
00000220: 4754 83bd 7e31 693c 2538 c23e f841 353e
00000230: cf2c a8bc 64ac bd3e 7168 aa3d e89e a9bd
00000240: d499 413e 38b9 93bd 58df 093e b61c 593e
00000250: c112 4bbe 9c4f 08be 8cac 7dbe 7623 eabd
00000260: 9e7c 5cbe 7126 e1bd 92d9 b7bd 964b b53d
00000270: f7b6 8a3e 8da9 2b3e efd1 243e f4c2 20be
00000280: 0a8c 9abe 1191 333d 7fa8 883e 77a4 153d
00000290: 62a1 c4bc e31c 00be 84de fdbd 97b9 cfbe
000002a0: bc5a 6e3d 5f81 0cbe a08f 80be a081 e8be
000002b0: b932 8c3e 3587 973c 515e 313d fa23 f63d
000002c0: 45ac 29bf e056 6cbe 9552 933c 328e fcbd
000002d0: 7736 48bd ff63 883e 10c5 9bbc dde2 623e
000002e0: ac12 cebe fe6e 83be 7623 ad3e 10aa 513b
000002f0: 257d 8ebe 576a d4be 47e5 813e c5c7 063d
00000300: e1a6 77bd 82bb 43bd 3669 bebd 7627 433c
00000310: c26a 493e 1df5 09be 2040 443c 41eb 383d
00000320: b0ab a6bd 0663 753e f922 15bd 59d5 8c3e
00000330: 3364 a0bd 4334 28be 04e1 00be f784 433e
00000340: be37 25be 9159 343e 6b21 883d 4ad1 313d
00000350: 68d1 243e 1452 05bd 4a67 1e3e e0c3 9dbe
00000360: 0bdc bdbd 887d a53e 1de8 9a3e 6f38 d53d
00000370: 77cf 99be 97d3 5abd 893a 213e 40f3 f5bc
00000380: 1524 fe3d c67b 21be 94dc 363e 8ceb 87bd
00000390: 1d6f 6dbe 0898 483e ee94 103e 3fe8 3cbe
000003a0: 45aa 95be b6fd d9bd f00a e03e 92d8 1bbe
000003b0: 0f1c 4b3e 3af1 9dbe 580f 653c f0fb c9bc
000003c0: 25d1 c93d b0b6 0a3e bec4 053e f760 3a3e
000003d0: 27e4 2abe 2aa7 69be 3425 76be f047 ac3e
000003e0: 8213 773d bbe4 12be f7d8 9e3e ab81 ae3e
000003f0: f374 a8be d106 843e c5cd 53bc ba87 5abc

net.2.bias f4 [32]
0.06552512 -0.033305705 0.22641936 -0.2970921 0.17048748 0.08118989 0.17391811 -0.013222853
-0.1950797 0.18968353 -0.12561086 0.040440496 0.15968394 -0.1975623 -0.022030227 -0.033924825
0.18239155 -0.17621927 0.15139653 0.10903686 0.13647382 0.22975072 0.06048387 -0.2735713
0.16509555 0.067620605 0.024793135 -0.120487936 -0.06315581 -0.11156018 0.16680634 0.15339015
00000000: 0932 863d 906b 08bd 7ada 673e 751c 98be
00000010: 4594 2e3e e346 a63d 9717 323e aaa4 58bc
00000020: f9c2 47be 663c 423e 22a0 00be efa4 253d
00000030: 3084 233e c64d 4abe bc78 b4bc c2f4 0abd
00000040: dac4 3a3e d372 34be b107 1b3e b84e df3d
00000050: cbbf 0b3e c643 6b3e efbd 773d 8a11 8cbe
00000060: cf0e 293e ac7c 8a3d f91a cb3c 61c2 f6bd
00000070: d557 81bd aa79 e4bd 48cf 2a3e 4f12 1d3e

net.4.weight f4 [64, 32]
0.118197344 0.14055946 -0.08227459 -0.117235325 -0.07303442 -0.05418305 0.12448642 0.034096457
0.09811948 -0.018362278 -0.120512046 0.0301472 0.10225004 0.008455644 0.114907056 -0.04940053
-0.1653614 -0.10015892 0.089510016 -0.062223323 0.07254786 0.043982927 -0.08183485 0.16862781
-0.08334136 0.011412807 -0.055592757 0.23484674 0.008130955 0.08312498 -0.06335524 0.11859126
-0.16792558 -0.15516311 -0.17379397 -0.010544625 -0.006222505 -0.0068321894 0.08551583 -0.08658143
0.024917997 0.01032767 0.08559243 0.353272 0.117700085 -0.011552237 -0.1407392 0.023313964
-0.052249297 0.06268985 0.018583355 0.1533745 0.060374044 -0.022099402 0.014192178 0.17129898
-0.032392155 0.1206837 -0.095115244 0.2605146 -0.095684506 -0.09177978 0.0013975997 0.12622565
0.124903694 0.044360787 -0.015278637 -0.009909987 -0.07166197 -0.015863478 -0.012214199 0.15043037
0.103457525 -0.14146094 0.0007312745 -0.10873002 -0.028061688 -0.14049648 0.045955062 -0.1274698
0.17451768 0.1335022 -0.12168581 -0.16642888 0.0068974197 -0.049347505 0.051895753 -0.119662635
0.07236199 -0.15269075 -0.093297444 -0.09293182 0.08554073 -0.004628226 -0.16988745 -0.10096071
-0.06942574 -0.12183983 0.047453195 0.02230287 0.0044632256 -0.05071827 0.0067551173 -0.08934618
-0.09001421 0.0019980883 0.1523052 -0.14359261 0.086394615 0.03257743 -0.02246773 -0.11951858
0.15938346 0.17360553 -0.0062636337 0.13962944 0.14653817 0.104553156 0.07063742 -0.17140435
-0.18681028 -0.15211771 0.20014448 -0.2803476 -0.059655543 -0.09798551 -0.12101867 0.023561785
0.025503248 -0.1034498 0.11574726 -0.067112364 -0.04976742 0.13468178 0.15177192 -0.0202799
-0.12690412 -0.0886834 0.022510603 0.10362516 0.088007346 -0.078061484 -0.16711879 -0.15470558
-0.056242608 0.0022175163 -0.07940377 -0.13977826 0.018630087 -0.14031486 -0.1357511 -0.1437099
-0.047901794 0.15613945 0.06910543 -0.020960242 0.03638263 0.070394084 0.0010299385 -0.14258355
-0.034940448 -0.033603184 0.040877666 -0.0966457 0.015845668 -0.020415323 0.18554139 0.17724721
0.055243213 0.027962893 0.025678832 0.20934679 -0.12425442 -0.12013003 -0.0018994734 -0.005575566
-0.15189043 0.068371624 0.14160386 -0.024942124 0.0826066 0.00017447998 -0.06311354 0.18655354
0.2131758 0.09546884 -0.09903882 0.076590285 0.08654924 0.06259524 0.069341496 0.010044091
0.017807854 -0.032328397 -0.12855195 0.03462536 0.088370614 0.1414045 -0.011474908 -0.0602972
0.06923313 0.10915968 0.021749152 -0.12961799 0.057216767 -0.09184769 -0.04521736 -0.03782189
0.17844594 0.13855669 0.058028728 0.18794231 -0.010715479 0.18752119 0.16807328 0.023136025
-0.1397005 0.03609598 0.0005654886 0.24436498 -0.15254271 0.047329526 -0.07288469 -0.030493686
-0.09130379 -0.037323564 -0.16417696 -0.09689391 0.016285539 0.11266446 0.15747255 -0.13688213
0.07105806 -0.102822654 -0.13667613 -0.0077844113 -0.10458112 -0.15224828 -0.16520426 -0.121500134
0.14208815 0.09858979 -0.07314778 -0.1183203 -0.13598402 -0.107563525 -0.07591833 0.10617019
0.057851315 -0.068124816 0.118525416 -0.112985425 -0.14401785 0.035407346 -0.10064663 0.04711391
00000000: 7311 f23d d2ee 0f3e 957f a8bd 1319 f0bd
00000010: 1293 95bd 0cef 5dbd bcf2 fe3d baa8 0b3d
00000020: def2 c83d 7d6c 96bc 05cf f6bd 43f7 f63c
00000030: 7868 d13d 8b89 0a3c 6454 eb3d 3658 4abd
00000040: 8054 29be 1f20 cdbd 0751 b73d e2dd 7ebd
00000050: f993 943d 7127 343d 0899 a7bd c5ac 2c3e
00000060: e0ae aabd c8fc 3a3c 3bb5 63bd aa7b 703e
00000070: b237 053c 6e3d aa3d 64c0 81bd f9df f23d
00000080: aff4 2bbe 14e3 1ebe 0cf7 31be 5dc3 2cbc
00000090: 28e6 cbbb 8fe0 dfbb ec22 af3d 9b51 b1bd
000000a0: d420 cc3c 6335 293c 154b af3d 11e0 b43e
000000b0: be0c f13d 9845 3dbc f01d 10be edfc be3c
000000c0: 5c03 56bd 8963 803d 1f3c 983c 340e 1d3e
000000d0: c64a 773d ce09 b5bc 4f86 683c 0069 2f3e
000000e0: a3ad 04bd 0429 f73d c8cb c2bd 2b62 853e
000000f0: 3df6 c3bd 0af7 bbbd aa2f b73a 4c41 013e
00000100: 82cd ff3d a8b3 353d 4053 7abc 805d 22bc
00000110: 83c3 92bd 20f4 81bc 101e 48bc 6b0a 1a3e
00000120: 8ae1 d33d 23db 10be 00b3 3f3a d8ad debd
00000130: a0e1 e5bc 4fde 0fbe 603b 3c3d 7187 02be
00000140: c3b4 323e cdb4 083e 6936 f9bd 556c 2abe
00000150: c003 e23b 9c20 4abd a490 543d af11 f5bd
00000160: 8632 943d f75a 1cbe bb12 bfbd 0a53 bebd
00000170: fa2f af3d 60a8 97bb faf6 2dbe 7dc4 cebd
00000180: 152f 8ebd 2987 f9bd 485e 423d 82b4 b63c
00000190: 4040 923b f6bd 4fbd 085a dd3b 21fb b6bd
000001a0: 5f59 b8bd 5cf2 023b e5f5 1b3e f109 13be
000001b0: a9ef b03d e96f 053d 3f0e b8bc 28c6 f4bd
000001c0: 6b35 233e a6c5 313e 2b3f cdbb 05fb 0e3e
000001d0: 1a0e 163e f71f d63d 5aaa 903d 9f84 2fbe
000001e0: 324b 3fbe bfc4 1bbe adf2 4c3e b889 8fbe
000001f0: 5f59 74bd a1ac c8bd a3d8 f7bd a504 c13c
00000200: 30ec d03c 7ddd d3bd e60c ed3d 3572 89bd
00000210: ecd8 4bbd 05ea 093e 196a 1b3e 0822 a6bc
00000220: 27f3 01be a49f b5bd 2868 b83c 6e39 d43d
00000230: 323d b43d b3de 9fbd 3021 2bbe 246b 1ebe
00000240: a65e 66bd c053 113b 729e a2bd 0822 0fbe
00000250: 209e 983c b3ae 0fbe 5602 0bbe b028 13be
00000260: ac34 44bd 05e3 1f3e 2687 8d3d d0b4 abbc
00000270: f405 153d c62a 903d 00ff 863a 6c01 12be
00000280: b71d 0fbd 7ea3 09bd 576f 273d 2eee c5bd
00000290: c6ce 813c 093e a7bc 90fe 3d3e 4b80 353e
000002a0: b546 623d 7012 e53c 6a5c d23c 015f 563e
000002b0: 1a79 febd bc06 f6bd c0f7 f8ba 3db3 b6bb
000002c0: 2a89 1bbe 6c06 8c3d 9a00 113e 6d53 ccbc
000002d0: a62d a93d 9df4 3639 ac41 81bd e407 3f3e
000002e0: c24a 5a3e 2b85 c33d ddd4 cabd 5edb 9c3d
000002f0: ba40 b13d ef31 803d ea02 8e3d f98f 243c
00000300: c7e1 913c c86a 04bd 1fa3 03be 52d3 0d3d
00000310: a7fb b43d 57cc 103e 4101 3cbc 32fa 76bd
00000320: 19ca 8d3d 1c8f df3d 472b b23c 94ba 04be
00000330: 215c 6a3d a41a bcbd d735 39bd 20eb 1abd
00000340: 88ba 363e cee1 0d3e 88af 6d3d f373 403e
00000350: fa8f 2fbc 8e05 403e 671b 2c3e c387 bd3c
00000360: a60d 0fbe 61d9 133d 4c3d 143a d03a 7a3e
00000370: 2834 1cbe 9bdc 413d 9144 95bd e5cd f9bc
00000380: 7bfd babd 98e0 18bd 011e 28be 5070 c6bd
00000390: 4069 853c a0bc e63d 7c40 213e d42a 0cbe
000003a0: e386 913d af94 d2bd d4f4 0bbe 6014 ffbb
000003b0: a02e d6bd f9e6 1bbe 4e2b 29be 10d5 f8bd
000003c0: 8e7f 113e 72e9 c93d 81ce 95bd ea51 f2bd
000003d0: 653f 0bbe 444a dcbd 127b 9bbd c26f d93d
000003e0: 80f5 6c3d 0685 8bbd 74bd f23d e764 e7bd
000003f0: 6a79 13be 4b07 113d d21f cebd 84fa 403d

net.4.bias f4 [64]
-0.008439932 0.06423963 -0.12368205 0.141153 -0.15029341 0.04835627 -0.13127936 -0.16258258
-0.049289394 0.20516503 0.20400429 0.08128337 0.17731571 -0.046511978 0.045654804 0.13880812
-0.16894548 -0.10053159 0.105847836 0.016335234 -0.13404603 -0.12965603 0.13709143 -0.023909774
-0.03125198 -0.17089267 0.09996163 -0.09615681 0.11942899 -0.021331768 0.029766668 0.03812699
-0.047036577 -0.052467927 0.17089084 -0.12709929 0.11350861 -0.028203152 -0.059066676 0.108636804
0.021433424 -0.18030702 0.18115921 -0.083388604 0.11607963 -0.03994301 0.19481908 -0.009628922
0.005629324 0.09557485 -0.025186013 -0.08397092 0.019462863 0.15242267 -0.02214636 0.13747375
0.041626554 -0.05435904 -0.073956095 0.053920027 -0.07474856 0.13877705 -0.19926715 0.050743204
00000000: a447 0abc 1190 833d 044d fdbd 698a 103e
00000010: 84e6 19be 3911 463d 196e 06be 0c7c 26be
00000020: ade3 49bd c816 523e 80e6 503e e577 a63d
00000030: 4092 353e 5883 3ebd 8800 3b3d b723 0e3e
00000040: 0b00 2dbe 82e3 cdbd c0c6 d83d 78d1 853c
00000050: 5d43 09be 8dc4 04be b261 0c3e 6ede c3bc
00000060: 1402 00bd 7dfe 2ebe afb8 cc3d dded c4bd
00000070: 3097 f43d f6bf aebc 3ad9 f33c 0c2b 1c3d
00000080: 6da9 40bd 9ce8 56bd 02fe 2e3e 5126 02be
00000090: 3477 e83d 4c0a e7bc e6ef 71bd f97c de3d
000000a0: 2695 af3c 67a2 38be cd81 393e a5c7 aabd
000000b0: 28bb ed3d 489b 23bd a77e 473e a0c2 1dbc
000000c0: 3176 b83b bfbc c33d e652 cebc f2f8 abbd
000000d0: 9570 9f3c b014 1c3e 486c b5bc ebc5 0c3e
000000e0: 9b80 2a3d 96a7 5ebd 4b76 97bd 3fdb 5c3d
000000f0: c615 99bd 921b 0e3e b00c 4cbe 1bd8 4f3d

net.6.weight f4 [32, 64]
-0.12057935 -0.2036753 0.10151531 0.053932417 -0.04297833 -0.49430758 -0.10206525 -0.075543076
0.27106068 -0.07335014 0.062949516 0.099218145 0.011697125 -0.041989673 -0.083635814 -0.022358296
0.08053902 0.028405542 0.0018737103 0.1111964 0.019339634 0.17764667 -0.0024903193 0.056162283
0.33277717 -0.025109172 -0.053816684 -0.055713758 -0.01310953 -0.15841818 -0.10639297 0.21395737
0.11546447 -0.36482602 -0.1591578 0.051351238 0.008310123 0.09618659 -0.0123940855 -0.19604684
-0.07368679 -0.10030403 -0.104864575 -0.28104278 0.093727365 0.05599728 -0.17391992 -0.034259085
-0.2785967 0.14011805 0.10646904 -0.07631754 0.09407711 0.0676816 0.11442827 0.07682076
-0.22059163 0.1810785 -0.13746344 -0.03208847 0.03737846 0.18155535 0.06301434 -0.36778525
-0.043045815 0.116398335 -0.04405661 -0.06330633 -0.099635854 -0.06900166 -0.07151604 0.029853374
0.04994069 0.11612321 0.07886365 -0.0013249267 0.06424013 0.068279676 -0.11097308 0.059911106
-0.08550842 0.093354896 -0.05754172 0.025935978 -0.0013300478 0.05481963 0.016281176 -0.09383825
0.050636336 0.07373704 -0.06824098 -0.081088334 -0.08827908 -0.063981734 -0.018928738 0.009346306
-0.0040522916 -0.033061147 0.074408345 0.0034344636 -0.075739756 -0.036247205 -0.07349186 -0.044098333
-0.11791308 0.01867042 -0.09996059 0.045199856 0.08246495 -0.09299095 -0.06913315 -0.09876707
0.030201877 0.021019451 -0.06768811 0.07234253 0.048697278 -0.11595253 -0.00679937 -0.056981742
-0.024842767 0.066467084 -0.013445035 -0.08998214 0.08792932 -0.11742117 -0.042929128 0.0449972
0.10690842 0.13999313 -0.029365033 0.06882393 -0.109778926 -0.029593224 -0.04025396 0.03377502
-0.055063628 0.05182056 0.09718891 0.11306399 0.009577618 0.075949945 -0.0791134 -0.008923124
0.04738936 0.018523803 0.088754594 -0.0829469 0.06542267 -0.0013326247 -0.043261323 0.022792459
-0.054937065 -0.11881611 -0.058285408 0.23033541 0.05659933 -0.045976654 -0.0016393872 0.012819848
-0.08255203 -0.08561751 -0.09289405 0.018661626 -0.017156856 -0.03142395 -0.1076432 0.067172386
-0.111378685 0.031976394 0.10769641 0.12693569 -0.030548751 0.0691235 0.012325314 0.02426385
0.056330945 0.012541602 0.120963044 0.0028838427 -0.025522782 -0.034761637 -0.12385 0.07654649
-0.07232667 -0.092631236 -0.18590668 -0.09892992 -0.10041686 0.13660449 -0.06935423 0.12659957
-0.08081066 -0.07558726 -0.043858483 -0.021454208 -0.08972068 0.0081036985 -0.091026045 0.019752517
0.11449969 -0.002387823 0.066920884 -0.1112493 -0.041349307 -0.08170604 -0.031059733 -0.073289424
-0.070973545 -0.1279338 -0.07012782 0.0167398 -0.024209017 -0.11595961 0.07418604 0.07536463
-0.08848576 0.012706906 0.060116563 -0.11969106 -0.13352352 0.06121258 -0.021887418 0.03328782
-0.06684385 0.012798543 0.058564857 -0.037311234 -0.06462628 -0.119023636 -0.01928854 0.0664497
-0.12149132 -0.011970836 0.06940276 -0.04061722 -0.06013705 -0.041325174 -0.074349 0.0037140604
-0.14197224 0.023627475 -0.045484286 -0.015914813 -0.02163266 0.045427024 -0.07764557 -0.13604534
-0.1138902 -0.10114271 -0.06549784 0.08762081 -0.09670189 -0.09541151 -0.10507557 -0.086826555
00000000: 4ef2 f6bd 4290 50be 42e7 cf3d 3de8 5c3d
00000010: 0c0a 30bd e215 fdbe 9607 d1bd 54b6 9abd
00000020: 77c8 8a3e 9938 96bd adeb 803d e232 cb3d
00000030: 4ca5 3f3c 5dfd 2bbd 4149 abbd bf28 b7bc
00000040: a4f1 a43d bdb2 e83c 4997 f53a f0ba e33d
00000050: 276e 9e3c 02e9 353e a034 23bb 6c0a 663d
00000060: c561 aa3e c0b1 cdbc e26e 5cbd 1c34 64bd
00000070: 5bc9 56bc 6038 22be 8fe4 d9bd a417 5b3e
00000080: a378 ec3d 7aca babe 43fa 22be ad55 523d
00000090: 2f27 083c 7afd c43d 9010 4bbc 81c0 48be
000000a0: 1ae9 96bd 336c cdbd 3dc3 d6bd d7e4 8fbe
000000b0: 22f4 bf3d 675d 653d 1018 32be 4153 0cbd
000000c0: 3aa4 8ebe 1b7b 0f3e 710c da3d 5f4c 9cbd
000000d0: 80ab c03d a79c 8a3d 5e59 ea3d 3454 9d3d
000000e0: c6e2 61be a46c 393e 37c3 0cbe 336f 03bd
000000f0: 281a 193d a5e9 393e aa0d 813d 594e bcbe
00000100: cf50 30bd 4062 ee3d b474 34bd c0a6 81bd
00000110: e20d ccbd be50 8dbd 0077 92bd 108f f43c
00000120: 9c8e 4c3d 01d2 ed3d 4483 a13d 2aa9 adba
00000130: 5490 833d 37d6 8b3d db45 e3bd 5965 753d
00000140: 0a1f afbd da30 bf3d deb0 6bbd b077 d43c
00000150: 0055 aeba 8c8a 603d 1a60 853c 452e c0bd
00000160: 0c68 4f3d 7203 973d edc1 8bbd a411 a6bd
00000170: aacb b4bd db08 83bd 7110 9bbc 4021 193c
00000180: 16c9 84bb 206b 07bd 6763 983d bd14 613b
00000190: 721d 9bbd f377 14bd e682 96bd 74a0 34bd
000001a0: 6a7c f1bd b5f2 983c 23b8 ccbd 7c23 393d
000001b0: 62e3 a83d 0a72 bebd ae95 8dbd 6446 cabd
000001c0: ed69 f73c fc30 ac3c 10a0 8abd 5228 943d
000001d0: cc76 473d 8578 edbd 40cd debb b065 69bd
000001e0: 0f83 cbbc e51f 883d 9048 5cbc 8e48 b8bd
000001f0: 4a14 b43d 837a f0bd 74d6 2fbd fc4e 383d
00000200: cdf2 da3d 5c5a 0f3e f08e f0bc 90f3 8c3d
00000210: c6d3 e0bd 7d6d f2bc 56e1 24bd ad57 0a3d
00000220: 668a 61bd cc41 543d fb0a c73d 188e e73d
00000230: 71eb 1c3c a58b 9b3d 3506 a2bd 4b32 12bc
00000240: 581b 423d 3bbf 973c f8c4 b53d 10e0 a9bd
00000250: 52fc 853d 77ab aeba c932 31bd 40b7 ba3c
00000260: b005 61bd dc55 f3bd aebc 6ebd 0cdd 6b3e
00000270: b3d4 673d 0452 3cbd b5e0 d6ba 570a 523c
00000280: 0a11 a9bd 3c58 afbd 3c3f bebd 44e0 983c
00000290: 898c 8cbc 66b6 00bd 0a74 dcbd ad91 893d
000002a0: 821a e4bd aef9 023d ef8f dc3d 6efb 013e
000002b0: 6041 fabc 9f90 8d3d 1df0 493c fbc4 c63c
000002c0: 47bb 663d 4b7b 4d3c 79bb f73d dafe 3c3b
000002d0: 2715 d1bc 3862 0ebd 12a5 fdbd 68c4 9c3d
000002e0: 0120 94bd 72b5 bdbd 525e 3ebe c59b cabd
000002f0: 5ba7 cdbd 0ce2 0b3e 9709 8ebd 51a3 013e
00000300: 0f80 a5bd 7ecd 9abd f4a4 33bd bcc0 afbc
00000310: 7abf b7bd 60c5 043c dd6b babd 08d0 a13c
00000320: d07e ea3d 067d 1cbb d10d 893d acd6 e3bd
00000330: e45d 29bd 7f55 a7bd fb70 febc c418 96bd
00000340: 945a 91bd 1401 03be 2d9f 8fbd e821 893c
00000350: fd51 c6bc 3b7c edbd daee 973d c558 9a3d
00000360: 0638 b5bd a030 503c c93c 763d 9620 f5bd
00000370: 64ba 08be 0bba 7a3d 3e4d b3bc cf58 083d
00000380: 6ee5 88bd fbb0 513c b4e1 6f3d aad3 18bd
00000390: c85a 84bd aac2 f3bd 0003 9ebc c816 883d
000003a0: 71d0 f8bd 5321 44bc 0923 8e3d 3e5e 26bd
000003b0: 4452 76bd 9644 29bd 4a44 98bd 9867 733b
000003c0: 2c61 11be 688e c13c bb4d 3abd c85f 82bc
000003d0: fa36 b1bc b011 3a3d a404 9fbd 784f 0bbe
000003e0: 443f e9bd e923 cfbd bb23 86bd 8a72 b33d
000003f0: a40b c6bd 1c67 c3bd dc31 d7bd 1fd2 b1bd

net.6.bias f4 [32]
-0.10332587 -0.123045504 0.13727082 0.097047344 -0.037794027 -0.07199663 0.0037563655 -0.019330068
-0.108051255 -0.05051667 0.054841798 -0.0752893 0.025693215 -0.050449736 0.034751117 -0.014807229
0.0016107793 0.040114522 0.06602826 0.15758322 0.002068317 0.0104638105 0.089558154 0.14589761
0.10115746 0.07796052 0.013698676 -0.022440331 0.1275373 0.04443308 -0.10726169 -0.064766854
00000000: 849c d3bd 48ff fbbd b990 0c3e c2c0 c63d
00000010: e9cd 1abd f872 93bd 5b2d 763b 175a 9ebc
00000020: fa49 ddbd 91ea 4ebd cba1 603d 4731 9abd
00000030: 947a d23c 62a4 4ebd 3057 0e3d 059a 72bc
00000040: c920 d33a 204f 243d d339 873d 7f5d 213e
00000050: 9a8c 073b 6770 2b3c 446a b73d 2f66 153e
00000060: a42b cf3d c4a9 9f3d 6970 603c c9d4 b7bc
00000070: 2399 023e 76ff 353d 04ac dbbd 7ca4 84bd

net.8.weight f4 [16, 32]
-0.16053557 -0.053128295 0.009035125 -0.07494799 -0.16257717 -0.11496882 0.07523461 -0.012452498
-0.02963674 0.028620362 -0.03734103 -0.09633855 -0.08112084 -0.072054185 -0.16546777 -0.16302805
-0.06697769 0.06633735 0.17288019 -0.0047846437 0.12072052 0.05845213 -0.14079294 -0.08843909
-0.04850419 -0.1457014 0.024758026 0.04199025 -0.13780361 -0.037206084 -0.155928 0.17603718
0.084040485 -0.066684134 0.093550995 -0.11976629 0.13849024 -0.10681932 0.04249317 0.12284182
0.082302526 -0.015816286 -0.065907106 -0.06833655 0.093659095 -0.09848058 -0.076780185 -0.028214196
-0.14664103 -0.07840928 0.007315515 0.08662538 0.04809026 -0.15949228 0.07751085 -0.108093955
0.0049236096 -0.034646183 0.1220849 -0.08530346 -0.10828594 -0.040907647 0.0016066432 -0.14107113
-0.32405588 -0.091915 0.05683601 -0.122332685 0.09622299 0.023543756 -0.047891546 0.08099375
-0.15784577 0.031273495 0.019971374 -0.08640391 0.16410322 0.14258668 0.11204605 0.03207977
0.12103268 -0.060201153 0.047664247 0.19528939 0.0670458 0.08191377 -0.023925524 0.1757828
0.20421115 -0.09413032 -0.08419061 -0.11457561 0.15339586 0.050885506 -0.07775663 0.054466616
-0.0061960756 -0.042825982 0.12112867 -0.16424733 0.088586114 0.04411871 -0.15591145 0.07268919
0.11788602 -0.30935526 0.08486094 0.043801785 0.17103377 -0.14809617 0.12210386 -0.054471232
0.19883788 -0.10284334 0.108146705 0.062024817 0.119124584 0.09931822 0.03051112 -0.058387287
-0.11328097 -0.025198486 -0.13937627 0.33601293 -0.09960854 0.124713175 0.08693617 -0.08200136
0.60055333 -0.007330639 0.0577104 -0.10249671 -0.30716255 0.32586873 0.13344018 -0.14708358
-0.010012358 0.14665398 -0.057422675 0.37104622 0.07430222 0.15457717 0.15761223 -0.1245659
-0.14989577 0.1408251 -0.26781747 0.18748288 -0.10174113 -0.036015723 0.15847145 0.07866958
-0.05080267 0.19504033 0.1810058 0.037628405 -0.14783543 0.3136836 -0.18063354 0.1581161
-0.24360386 -0.030099876 -0.030005176 0.16484985 0.21515796 -0.2130057 0.08791773 -0.085857935
-0.06505442 0.071514025 -0.10873848 -0.1389774 -0.060239736 0.09249603 0.18948375 -0.0028207856
-0.102620654 0.08636313 0.22414277 -0.019603562 0.47536874 -0.048828382 0.076376565 -0.07510778
-0.0555615 -0.017624196 -0.22075588 -0.061479907 0.10640993 -0.047899626 -0.07181445 0.17815961
0.11054153 0.06372635 0.010557658 -0.10004538 -0.10550816 -0.0078124297 -0.13149026 0.06201434
-0.16046688 -0.16638778 -0.08639206 0.09253369 0.12997855 -0.15685105 -0.11309873 0.030982662
-0.045057558 -0.1448694 0.04277594 -0.15599719 0.01106365 0.06363671 0.1535431 -0.15961245
0.1237675 0.015881445 0.15391178 0.16567609 -0.04792137 -0.02753213 -0.04273379 0.13041325
-0.07972588 0.11674456 0.0631791 0.16621675 0.12521158 0.13395585 -0.14530246 -0.09304538
-0.12542433 0.078249805 0.02644384 0.057862516 0.056827206 -0.0020439602 0.05793459 -0.10538105
0.10536355 -0.15219095 -0.16830076 0.05050939 0.16282216 -0.07419742 0.15699495 -0.072263554
-0.14383994 -0.0370131 0.09776543 -0.101482764 0.15625396 -0.079054944 -0.078247495 -0.08315126
00000000: 7063 24be 0e9d 59bd 1008 143c 557e 99bd
00000010: a17a 26be c674 ebbd 9a14 9a3d 9005 4cbc
00000020: c0c8 f2bc 4075 ea3c e8f2 18bd 254d c5bd
00000030: af22 a6bd 2591 93bd 6270 29be d3f0 26be
00000040: 992b 89bd e0db 873d 8107 313e 80c8 9cbb
00000050: 523c f73d 806b 6f3d 062c 10be 8e1f b5bd
00000060: 54ac 46bd bf32 15be 58d1 ca3c f8fd 2b3d
00000070: 641c 0dbe 6865 18bd 97ab 1fbe 1743 343e
00000080: 6b1d ac3d b191 88bd aa97 bf3d 0748 f5bd
00000090: 63d0 0d3e 16c4 dabd 510d 2e3d 7e94 fb3d
000000a0: 3a8e a83d 2891 81bc 4efa 86bd 08f4 8bbd
000000b0: 57d0 bf3d 30b0 c9bd ee3e 9dbd 7521 e7bc
000000c0: 1129 16be 0b95 a0bd fdb6 ef3b a668 b13d
000000d0: 4bfa 443d f251 23be 02be 9e3d 5d60 ddbd
000000e0: 3b56 a13b 28e9 0dbd a607 fa3d 95b3 aebd
000000f0: 05c5 ddbd c78e 27bd 0096 d23a f374 10be
00000100: a7ea a5be ee3d bcbd e0cc 683d 8f89 fabd
00000110: 8f10 c53d d6de c03c ed29 44bd 0de0 a53d
00000120: 52a2 21be a318 003d 029b a33c 88f4 b0bd
00000130: ad0a 283e 3e02 123e 6678 e53d 1466 033d
00000140: fbdf f73d 7c95 76bd 963b 433d f1f9 473e
00000150: 4f4f 893d 68c2 a73d 76ff c3bc 6800 343e
00000160: ba1c 513e 66c7 c0bd 206c acbd 9ea6 eabd
00000170: ce13 1d3e 526d 503d de3e 9fbd 6318 5f3d
00000180: 7308 cbbb 4c6a 2fbd 4f12 f83d 7430 28be
00000190: a36c b53d d2b5 343d 40a7 1fbe 12de 943d
000001a0: 3a6e f13d d063 9ebe 93cb ad3d 8069 333d
000001b0: 7a23 2f3e 86a6 17be 9711 fa3d 3a1d 5fbd
000001c0: 289c 4b3e 879f d2bd 057c dd3d bc0d 7e3d
000001d0: 97f7 f33d 5a67 cb3d 75f2 f93c 8227 6fbd
000001e0: daff e7bd 0e6d cebc a7b8 0ebe e309 ac3e
000001f0: 90ff cbbd 9f69 ff3d 970b b23d 54f0 a7bd
00000200: ddbd 193f db35 f0bb be61 6c3d cce9 d1bd
00000210: 6944 9dbe 44d8 a63e 8ba4 083e 149d 16be
00000220: e00a 24bc 762c 163e 0a34 6bbd c5f9 bd3e
00000230: c32b 983d 7a49 1e3e 1a65 213e 681c ffbd
00000240: 477e 19be 7434 103e 5f1f 89be 83fb 3f3e
00000250: a75d d0bd 3985 13bd 5746 223e 841d a13d
00000260: 7616 50bd a7b8 473e 9659 393e 3e20 1a3d
00000270: 2c62 17be 239b a03e 00f8 38be 30e9 213e
00000280: 4a73 79be 0494 f6bc 6acd f5bc 66ce 283e
00000290: 5e52 5c3e 2b1e 5abe 360e b43d 49d6 afbd
000002a0: 403b 85bd f275 923d 48b2 debd 1750 0ebe
000002b0: f1bd 76bd 8f6e bd3d 0708 423e eedc 38bb
000002c0: c72a d2bd 27df b03d af85 653e a697 a0bc
000002d0: 8863 f33e 4500 48bd 516b 9c3d 1cd2 99bd
000002e0: 7594 63bd 9e60 90bc d40d 62be 5bd2 7bbd
000002f0: 73ed d93d 6632 44bd 7413 93bd 796f 363e
00000300: 9963 e23d f682 823d 07fa 2c3c 98e4 ccbd
00000310: aa14 d8bd 69ff ffbb 62a5 06be c002 7e3d
00000320: 6e51 24be 8f61 2abe 52ee b0bd 4e82 bd3d
00000330: 1919 053e 909d 20be 4fa0 e7bd 5acf fd3c
00000340: 468e 38bd a558 14be d335 2f3d babd 1fbe
00000350: 5044 353c f753 823d 673a 1d3e 7271 23be
00000360: d179 fd3d ce19 823c 0d9b 1d3e fea6 293e
00000370: 3349 44bd 108b e1bc a009 2fbd 0d8b 053e
00000380: 5247 a3bd c617 ef3d 0b64 813d b934 2a3e
00000390: 7737 003e b92b 093e 2bca 14be 948e bebd
000003a0: 3c6f 00be 6f41 a03d c0a0 d83c 3f01 6d3d
000003b0: a5c3 683d f6f3 05bb d24c 6d3d 05d2 d7bd
000003c0: d8c8 d73d f2d7 1bbe 0957 2cbe efe2 4e3d
000003d0: daba 263e d1f4 97bd 49c3 203e eafe 93bd
000003e0: c74a 13be 0c9b 17bd 3e39 c83d 32d6 cfbd
000003f0: 0a01 203e 8fe7 a1bd 3940 a0bd 354b aabd

net.8.bias f4 [16]
0.07894795 0.0516728 0.084315784 -0.06427246 0.11973553 0.03295472 -0.10549891 -0.15515573
-0.15860343 -0.04546824 0.09539591 -0.14424625 0.02143808 0.14723021 0.08110028 -0.08390373
00000000: 76af a13d dca6 533d c1ad ac3d 48a1 83bd
00000010: e737 f53d 87fb 063d d00f d8bd 25e1 1ebe
00000020: f068 22be e83c 3abd ee5e c33d 4ab5 13be
00000030: ea9e af3c 84c3 163e e717 a63d b8d5 abbd

net.10.weight f4 [2, 16]
0.057308882 -0.19810532 0.20942132 -0.007864613 0.042222552 0.00054453424 -0.1984019 -0.21139136
-0.18582074 0.0024659422 0.22001226 0.0021242206 -0.14994408 0.031504825 -0.09406017 -0.020057077
0.21499968 -0.21713075 -0.28232238 -0.23174353 0.19871916 -0.16805908 0.084980585 0.24994332
0.10453966 0.27490398 0.12981959 0.5904078 0.10304209 -0.27530292 -0.00032217277 -0.07250967
00000000: b8bc 6a3d 1fdc 4abe 8b72 563e 94da 00bc
00000010: 8ef1 2c3d 13bf 0e3a de29 4bbe fa76 58be
00000020: cb47 3ebe a59b 213b e54a 613e 8236 0b3b
00000030: f18a 19be 340b 013d 9ea2 c0bd bd4e a4bc
00000040: e028 5c3e 8657 5ebe 8f8c 90be 2d4e 6dbe
00000050: 097d 4b3e ae17 2cbe 4d0a ae3d 24f1 7f3e
00000060: e418 d63d 37c0 8c3e 6def 043e f724 173f
00000070: bb07 d33d 81f4 8cbe 4ce9 a8b9 f37f 94bd

net.10.bias f4 [2]
-0.16744083 0.1289014
00000000: 9c75 2bbe bbfe 033e
