1 DOF Non-linear duffing/non_linear_model_parameters_m3.pth (torch, 26210 bytes, 12 tensors)

net.0.weight f4 [16, 3]
0	0x3d3954c7	0.045246866
1	0x3f6797fc	0.90466285
2	0xbe757547	-0.23970519
3	0x3e9ee589	0.31034496
4	0x3f83c66c	1.0294929
5	0x3ee81878	0.45331168
6	0x3d2b702e	0.04185503
7	0xbf8e266a	-1.1105473
8	0xbe400224	-0.18750817
9	0x3e4550d3	0.19269113
10	0xbf044c04	-0.5167849
11	0x3edc254f	0.42997214
12	0x3ea1f08b	0.31628832
13	0x3ef842be	0.4848842
14	0xbecbc116	-0.3979575
15	0x3e8ade24	0.27122605
16	0xbe0df230	-0.13861918
17	0xbddaece1	-0.10689712
18	0xbe8c6145	-0.2741796
19	0xbf397697	-0.7244658
20	0x3d502631	0.050817672
21	0xbec02191	-0.3752561
22	0x3fa1e606	1.2648323
23	0x3e5c79a7	0.21530782
24	0xbe1c0161	-0.15234901
25	0xbf6e731a	-0.9314438
26	0xbe4c30c8	-0.19940484
27	0x3ea8dfdf	0.329833
28	0x3f9a0ef1	1.203581
29	0x3e4c83f9	0.19972219
30	0xbcc1e6ee	-0.023669686
31	0xbf37350b	-0.7156531
32	0x3ea3ca7a	0.31990415
33	0x3dfae1ba	0.12250085
34	0xbf9c665e	-1.221874
35	0x3b761564	0.003754937
36	0xbe080eb2	-0.13286856
37	0x3d8982ca	0.06714399
38	0xbe5b97f1	-0.2144468
39	0xb9b3c1b3	-0.00034285858
40	0xbf2472a5	-0.64237434
41	0xbeb0f794	-0.34563887
42	0x3e9e3398	0.30898738
43	0xbe9185a8	-0.28422284
44	0xbeb936e8	-0.36174703
45	0x3d7e6815	0.06211098
46	0xbf4fcefe	-0.8117522
47	0xbb6bc17d	-0.0035973482

net.0.bias f4 [16]
0	0x3eb2fe43	0.3495961
1	0xbd2adcd4	-0.041714504
2	0x3e808432	0.25100857
3	0xbdc96107	-0.098329596
4	0x3f13cc3f	0.5773353
5	0xbe76ed34	-0.24113923
6	0x3e00e9df	0.12589215
7	0x3d1335ac	0.035939857
8	0x3eb76e6f	0.35826442
9	0x3d2036da	0.03911481
10	0x3ed38d8f	0.41318938
11	0x3e186672	0.1488283
12	0x3ea22fc6	0.31677073
13	0x3ac1a25e	0.0014773121
14	0x3e77a35d	0.24183412
15	0x3f0e44b6	0.55573595

net.2.weight f4 [32, 16]
0	0xbdd2c73b	-0.102919064
1	0x3b6a9345	0.0035793346
2	0x3e1c419d	0.15259404
3	0x3d951eab	0.0728124
4	0xbe56dab7	-0.2098187
5	0x3d1c11d9	0.03810296
6	0xbe4a7fb7	-0.19775282
7	0xbd9fea3c	-0.078083485
8	0x3df56d44	0.119837314
9	0x3defa79e	0.11701892
10	0x3cdb0c68	0.026739314
11	0x3ddff359	0.10935087
12	0x3e8acf25	0.27111164
13	0x3e92fba2	0.28707606
14	0xbe273d2c	-0.16331929
15	0xbdec2114	-0.11529747
16	0x3dde199d	0.10844729
17	0x3e21205b	0.15734999
18	0xbe9929b8	-0.2991464
19	0xbc0ca142	-0.008583369
20	0x3e1d23a2	0.15345624
21	0xbe3d9619	-0.18514289
22	0xbe44d8b1	-0.19223286
23	0x3e8be614	0.27323973
24	0xbd8dc657	-0.06922596
25	0x3e2d6f3a	0.16936961
26	0xbe4aa253	-0.19788484
27	0xbe556ac2	-0.20841506
28	0x3e0e31df	0.13886212
29	0xbe01444d	-0.12623711
30	0x3d4e88ba	0.05042336
31	0xbe8d9d8b	-0.27659258
32	0x3e8bdcd6	0.27316922
33	0xbdd2cdeb	-0.10293182
34	0xbdcff46a	-0.1015404
35	0xbe13e6a3	-0.1444345
36	0xbde42ec8	-0.11141735
37	0xbe4bd164	-0.19904095
38	0xbe4386b2	-0.19094351
39	0x3cb52efd	0.022117132
40	0xbdd45c4d	-0.103691675
41	0x3e4530da	0.19256917
42	0x3cac0a1e	0.021000918
43	0x3e1a9dc1	0.15099241
44	0xbc80a994	-0.015705861
45	0x3d026ffe	0.031845085
46	0x3e6d8bb1	0.2319782
47	0xbe6a0707	-0.22854243
48	0xbe1f73da	-0.15571538
49	0x3dba362c	0.09092364
50	0x3d870d89	0.065943785
51	0xbe5306c9	-0.20608057
52	0x3ce9698c	0.028492711
53	0xbe56c0f6	-0.20972046
54	0x3d4f1e41	0.05056596
55	0xbe0238d3	-0.12716989
56	0x3dca0017	0.098632984
57	0xbe365fc1	-0.17809965
58	0x3e393025	0.18084772
59	0xbe38ca50	-0.18045926
60	0x3d2d7d72	0.042355962
61	0x3de42adf	0.111409895
62	0xbedd0214	-0.43165648
63	0x3da9573f	0.08268594
64	0xbe505d0f	-0.20347999
65	0x3dc4a69d	0.096020915
66	0x3def5665	0.116864
67	0xbeb0c1ba	-0.34522802
68	0x3d90ea80	0.07075977
69	0x3d62c821	0.05536664
70	0xbe164f9c	-0.14678806
71	0x3ce29df3	0.027663207
72	0x3e602016	0.2188724
73	0x3e7041a0	0.23462534
74	0x3e5f2684	0.21792036
75	0xbe19c8aa	-0.15017954
76	0x3cf8db2f	0.030377952
77	0x3dffec23	0.124962114
78	0x3c86b694	0.016444482
79	0xbd8ad900	-0.06779671
80	0x3e2c8cf4	0.16850644
81	0xbe761d91	-0.24034716
82	0xbcd36629	-0.02580555
83	0x3b55d5e4	0.003262871
84	0x3ca2bb9d	0.019864852
85	0x3e872185	0.2639276
86	0xbd9d0114	-0.07666221
87	0x3d419c96	0.047268473
88	0xbe15bd79	-0.1462306
89	0xbea209d1	-0.31648114
90	0xbe2619b2	-0.1622074
91	0x3dd628f0	0.10457027
92	0xbe436d39	-0.19084634
93	0x3e3c0a57	0.1836332
94	0xbd97776c	-0.07395825
95	0x3d90d530	0.07071912
96	0x3e485958	0.19565332
97	0x3cde2bb5	0.02712045
98	0x3d72f012	0.05931098
99	0x3e380c01	0.17973329
100	0xbda4383d	-0.08018539
101	0x3e34a643	0.17641549
102	0xbe68e51c	-0.22743648
103	0x3e83f2b9	0.2577112
104	0xbdd1f917	-0.10252588
105	0xbcef8c71	-0.029241772
106	0x3e05e2ed	0.13074847
107	0xbbf976b3	-0.007613027
108	0x3e585ace	0.21128389
109	0xbdb86af1	-0.090047725
110	0xbe00263a	-0.12514582
111	0x3e50f2be	0.20405099
112	0xbe6c0a51	-0.2305081
113	0x3e2b8636	0.16750416
114	0x3ed22ba1	0.4104891
115	0x3e1456a9	0.14486183
116	0xbdd50cf8	-0.10402864
117	0xbc0d9b0d	-0.008642924
118	0xbd4a61fc	-0.04940985
119	0xbd3b3b2a	-0.04571072
120	0x3dfc41c7	0.123172335
121	0xbe15841b	-0.14601175
122	0x3dfbfd1e	0.12304138
123	0x3e0d414c	0.1379444
124	0x3cb25baa	0.021772224
125	0x3c57825f	0.0131536415
126	0x3e7a279a	0.2442917
127	0xbba79d96	-0.0051152213
128	0x3e051307	0.1299554
129	0x3e6c7116	0.23090014
130	0xbe41337a	-0.18867293
131	0xbe954060	-0.29150677
132	0x3e3d8be9	0.18510403
133	0xbe3f2a33	-0.18668441
134	0x3e72a771	0.23696686
135	0xbe21da70	-0.15805984
136	0x3d796668	0.060888678
137	0x3d58471b	0.052802186
138	0xbbad7d57	-0.0052944827
139	0x3da086b1	0.0783819
140	0xbe5e7c50	-0.21727109
141	0xbdbafa52	-0.09129776
142	0xbd9f954b	-0.07792147
143	0x3e19f4e0	0.15034819
144	0x3dbfa2b0	0.09357202
145	0x3dbc20a3	0.091859125
146	0x3e448b9e	0.19193885
147	0x3e612b19	0.21989097
148	0xbdf1da3a	-0.118092015
149	0xbe197e74	-0.14989644
150	0xbd2149e0	-0.039377093
151	0x3dbe8b1f	0.09303879
152	0xbd94afbf	-0.072600834
153	0x3c0a202e	0.008430524
154	0x3d03e7ca	0.032203473
155	0x3dd45c48	0.10369164
156	0x3e54473e	0.20730302
157	0x3cc8389e	0.02444106
158	0x3dc7368c	0.09727201
159	0xbd690f78	-0.056899518
160	0xbe279ed9	-0.1636919
161	0x3db32fcd	0.08749352
162	0x3e009de3	0.12560229
163	0x3e185408	0.14875805
164	0x3ddd3f71	0.10803116
165	0xbce8c14e	-0.028412487
166	0xbe9a36e8	-0.30120015
167	0xbeb41355	-0.35171
168	0x3e4d48b4	0.20047265
169	0x3e272246	0.16321668
170	0x3cea2188	0.028580442
171	0xbe1ae1e6	-0.15125236
172	0x3ea0a230	0.3137374
173	0xbccfbaff	-0.025357721
174	0x3dc9a085	0.0984507
175	0xbe487548	-0.19575989
176	0xbeb2bfaf	-0.34911868
177	0xbded8a70	-0.115986705
178	0x3e3b4bba	0.18290606
179	0x3df16464	0.11786726
180	0x3dd07442	0.101784244
181	0xbe0f381e	-0.13986251
182	0xbd32ce7b	-0.043653946
183	0xbc0c96d1	-0.008580879
184	0xbd2059c6	-0.039148115
185	0xbc243b7e	-0.01002395
186	0x3e18c67f	0.1491947
187	0xbc7f16bb	-0.015569384
188	0x3deb4ef8	0.114896715
189	0x3e723741	0.2365389
190	0x3db21f78	0.086974084
191	0xbc4eb93d	-0.012617406
192	0xbeb42252	-0.35182434
193	0xbe02e1d2	-0.12781456
194	0x3e4995c7	0.19686042
195	0x3e32c6e1	0.17458679
196	0x3de86396	0.113471195
197	0x3a3ccad9	0.00072018575
198	0x3e7b459e	0.24538276
199	0xbe00e0fb	-0.12585823
200	0x3d9aee79	0.07565016
201	0xbd965f8a	-0.073424414
202	0x3e12380b	0.14279191
203	0x3ed56475	0.41678205
204	0x3da19c2e	0.07891117
205	0xbb0674ee	-0.0020516473
206	0xbdbff506	-0.093729064
207	0xbdfff9d0	-0.1249882
208	0xbc46a155	-0.0121234255
209	0xbe37d35e	-0.17951724
210	0x3e2b934a	0.16755405
211	0xbd914916	-0.07094018
212	0xba6967c0	-0.00089037046
213	0xbe65673c	-0.22402662
214	0xbe0db2c3	-0.13837723
215	0x3e587a59	0.21140422
216	0x3c4aef11	0.012386099
217	0x3ccad362	0.024758998
218	0x3e212c9a	0.1573967
219	0x3e1ed81f	0.15512131
220	0x3e3069b1	0.17227818
221	0xbea46520	-0.32108402
222	0xbddba1bd	-0.107242085
223	0xbe19abb6	-0.15006909
224	0xbe6adc16	-0.22935519
225	0x3d3bd01a	0.045852758
226	0xbda957f7	-0.08268731
227	0xbe50b12c	-0.20380086
228	0x3d6d3c8f	0.05791908
229	0x3dddd617	0.1083185
230	0xbea8eeca	-0.32994682
231	0xbd9357d2	-0.07194485
232	0x3c655ee3	0.013999674
233	0x3d601b71	0.05471367
234	0x3bc0e51c	0.005886687
235	0x3e268cd9	0.16264667
236	0x3e84b61e	0.25920194
237	0xbd360991	-0.044442717
238	0x3e006a0a	0.1254045
239	0x3c35c16e	0.0110934805
240	0xbe0bbfb6	-0.1364735
241	0xbda13f2d	-0.07873378
242	0x3e2c1b5f	0.16807316
243	0x3e1514a3	0.14558654
244	0xbd68bb54	-0.056819275
245	0x3e2d7d17	0.16942249
246	0xbd8fb49f	-0.070168726
247	0x3a047175	0.0005052307
248	0x3e7367dc	0.23770088
249	0x3dc88cd5	0.097924866
250	0xbe16ddd3	-0.14733057
251	0xbcd246e0	-0.025668561
252	0x3d262e7d	0.04057168
253	0xbe1c2220	-0.15247393
254	0xbbe029f7	-0.00684094
255	0x3e417456	0.18892035

net.2.bias f4 [32]
0	0x3e64c836	0.22342
1	0x3d19352c	0.037404224
2	0x3e78856e	0.2426965
3	0xbe198b43	-0.1499453
4	0xbe5c4870	-0.21512008
5	0x3dea089c	0.11427423
6	0x3dc620a1	0.09674192
7	0xbe3d0cf1	-0.18461968
8	0x3e618bad	0.22025938
9	0xbdf41920	-0.11918855
10	0xbe22c6f6	-0.1589621
11	0xbc17807a	-0.00924694
12	0xbe138953	-0.14407854
13	0xbd4bac83	-0.049725067
14	0xbdf018a6	-0.11723451
15	0x3d2f54ac	0.04280536
16	0x3db8a1f4	0.09015265
17	0x3e15ae29	0.14617218
18	0xbdf06b60	-0.1173923
19	0xbd4d230b	-0.050082248
20	0x3e7b9aa1	0.24570705
21	0xbdd599ca	-0.104297236
22	0xbd80d1c8	-0.062900126
23	0xbd7547fb	-0.0598831
24	0xbe50a45a	-0.20375195
25	0xbe5a4dc3	-0.21318726
26	0x3e454e59	0.19268169
27	0xbced306b	-0.028953752
28	0x3d910867	0.07081681
29	0x3dccceba	0.100003675
30	0x3e1286b3	0.14309196
31	0x3e288894	0.1645835

net.4.weight f4 [64, 32]
0	0x3df42301	0.11920739
1	0x3d99a316	0.07501809
2	0x3e0a314a	0.13495365
3	0x3e040c36	0.12895283
4	0xbcad58b2	-0.021160457
5	0xbc4702e5	-0.012146686
6	0xbdb44477	-0.08802121
7	0xbdfa3cf2	-0.12218656
8	0x3e369738	0.17831123
9	0xbdf96c6a	-0.121788815
10	0xbdefc3f5	-0.11707298
11	0xbdf346ca	-0.11878736
12	0xbe1cb0b9	-0.1530179
13	0x3d746d83	0.05967475
14	0x3db3cbd7	0.08779114
15	0xbe0e4348	-0.13892853
16	0x3c66cb82	0.014086606
17	0xbdb651a0	-0.089022875
18	0x3c8292fb	0.015939226
19	0x3de030ad	0.10946784
20	0xbd73f2da	-0.059557773
21	0xbd758637	-0.05994245
22	0x3dfb23fa	0.12262721
23	0xbdc78c4c	-0.097435564
24	0xbd0eb9d6	-0.034845196
25	0xbe0f5ee3	-0.1400104
26	0x3e05f720	0.13082552
27	0x3d9308df	0.071794264
28	0xbd959806	-0.07304387
29	0x3e08365e	0.1330199
30	0x3e3582d7	0.17725693
31	0x3d9f0f26	0.07766561
32	0x3d16a059	0.036774013
33	0xbca78951	-0.02045122
34	0x3e1e3cb0	0.15452838
35	0x3d912811	0.0708772
36	0x3bb924f5	0.0056501576
37	0x3e67a107	0.22620021
38	0xbe02a694	-0.12758857
39	0x3d83840b	0.064216696
40	0x3e222a8f	0.15836547
41	0x3c3aed4f	0.011409118
42	0xbdc5d7d8	-0.096603096
43	0x3e24db31	0.1609924
44	0x3f207813	0.6268322
45	0x3d3fc304	0.04681684
46	0xbd525460	-0.051349998
47	0xbcd015f0	-0.025401086
48	0x3db0c9dc	0.086322516
49	0x3da106ba	0.07862611
50	0xbd906ae5	-0.070516385
51	0xbd527f48	-0.051390916
52	0x3d4c2377	0.04983851
53	0x3dde5cab	0.10857519
54	0x3e0dd6f6	0.13851532
55	0x3e3d43cd	0.18482895
56	0xbd9e5305	-0.077306785
57	0x3ce68466	0.028139304
58	0x3d5a509d	0.053299535
59	0xbd19f3d9	-0.037586067
60	0x3c3e944c	0.011632036
61	0xbd53d457	-0.051716175
62	0x3dabd694	0.08390537
63	0xbe8b0cf3	-0.27158317
64	0xba5d6ba6	-0.0008446522
65	0xbe84924d	-0.2589287
66	0xbe703d0f	-0.23460792
67	0x3de99386	0.11405091
68	0xbc821b65	-0.015882203
69	0xbea9f5de	-0.33195394
70	0xbd0c2add	-0.034220565
71	0x3eb71998	0.35761714
72	0xbdf31ad3	-0.11870351
73	0x3e190786	0.14944276
74	0xbdb91502	-0.0903721
75	0xbe46c150	-0.1940968
76	0x3e01b970	0.12668395
77	0xbd7c8341	-0.06164861
78	0x3d0f3409	0.034961734
79	0xbe1d7b05	-0.1537896
80	0x3e2a5c4c	0.16636771
81	0xbd1ed0c7	-0.038773324
82	0x3e33b85f	0.175508
83	0xbdbe32ba	-0.09287019
84	0xbe2b4a7a	-0.1672763
85	0x3e11d2ac	0.14240521
86	0x3e393da5	0.18089922
87	0x3d88c3b1	0.0667795
88	0xbe81a0e9	-0.25318077
89	0xbe89dbd3	-0.26925525
90	0xbda4ca9a	-0.08046456
91	0x3dbdcff4	0.092681795
92	0x3c5ea7e2	0.013589831
93	0x3e014a51	0.12626006
94	0x3e2aa087	0.16662799
95	0xbcdec65c	-0.027194194
96	0x3de1a281	0.11017323
97	0x3e02d807	0.1277772
98	0xbe9fc240	-0.31202888
99	0xbe887a59	-0.26655844
100	0xbe21de87	-0.15807544
101	0xbea4fe3e	-0.3222522
102	0x3e3f7b65	0.18699415
103	0x3e4fad13	0.20280866
104	0xbd1b2a10	-0.03788191
105	0xbd3641e5	-0.044496436
106	0xbe32dc81	-0.17466928
107	0xbdc94472	-0.09827508
108	0xbd8dabaf	-0.06917512
109	0x3dc54a2c	0.09633288
110	0x3e3b7ba1	0.1830888
111	0xbe2ea9c9	-0.17056955
112	0x3dcee46c	0.10102162
113	0x3e026baf	0.1273639
114	0xbe1e5db4	-0.15465432
115	0xbddab598	-0.106791675
116	0x3cd63f48	0.026153222
117	0x3de357d5	0.11100737
118	0x3e68fb35	0.22752078
119	0x3dfc0866	0.123062894
120	0x3dc2f1ea	0.09518798
121	0x3e070761	0.13186409
122	0x3d9868c1	0.07441855
123	0xbdf850b8	-0.12124771
124	0xbe3c218d	-0.18372174
125	0xbd6c773e	-0.057730906
126	0xbd2605cd	-0.040532876
127	0x3d84e032	0.06488074
128	0x3e3705cb	0.17873304
129	0x3e4f09b1	0.2021854
130	0xbd79ef93	-0.06101949
131	0x3d9ba470	0.07599723
132	0xbd36abce	-0.04459744
133	0xbe8b955c	-0.2726239
134	0x3dc2492c	0.09486613
135	0xbc4447cb	-0.011980007
136	0x3b8791ec	0.0041372683
137	0x3d23b7d6	0.03997024
138	0x3dd2bb48	0.10289627
139	0x3ddf1451	0.10892547
140	0x3dfe1a64	0.12407377
141	0xbec17be1	-0.37789825
142	0x3d583db1	0.05279321
143	0xbdb60384	-0.08887389
144	0xbe8fa3f0	-0.28054762
145	0xbd3971e4	-0.04527463
146	0x3b81fac8	0.003966663
147	0xbe008324	-0.12550026
148	0xbc3e55cd	-0.011617136
149	0xbcd0afc3	-0.025474435
150	0x3e4eb1fe	0.20185086
151	0xbd922304	-0.07135585
152	0xbdb3badd	-0.08775876
153	0xbda6316e	-0.08114897
154	0xbe3239c2	-0.17404845
155	0xbda2529d	-0.079259135
156	0xbe3f683f	-0.1869211
157	0x3d8ef7ca	0.06980856
158	0xbc8fb9d5	-0.017544666
159	0xbe5774d7	-0.21040665
160	0x3eb088c4	0.34479344
161	0x3df4d9af	0.11955582
162	0x3e56fbab	0.20994441
163	0xbdc4f1c2	-0.09616424
164	0x3e817e11	0.25291494
165	0xbdf72052	-0.120667115
166	0xbe4b9259	-0.19880046
167	0xbed635d6	-0.4183795
168	0x3e0dd92f	0.1385238
169	0xbe0bb94f	-0.13644908
170	0x3d297562	0.04137171
171	0xbe06ff38	-0.13183296
172	0xbe6e21e5	-0.23255117
173	0xbd8bce1b	-0.06826421
174	0xbd83a554	-0.06428018
175	0xbe50a255	-0.20374425
176	0x3d360ad0	0.044443905
177	0xbcc8ab23	-0.024495667
178	0x3d25880a	0.04041294
179	0x3d84ce6f	0.064846866
180	0xbc1ec205	-0.009689813
181	0xbc8ae92a	-0.016956884
182	0x3da017c0	0.0781703
183	0xbe543182	-0.2072201
184	0x3deccec8	0.11562878
185	0x3e24b1c8	0.16083443
186	0xbeeaabcd	-0.458342
187	0xbd5a644c	-0.053318307
188	0xbe6687b0	-0.22512698
189	0xbe0ec34b	-0.13941686
190	0xbcf3a4e6	-0.029741716
191	0xbe1c7f12	-0.15282848
192	0x3d8155bc	0.06315181
193	0x3cbf1ac6	0.023328196
194	0xbdc395d6	-0.09550063
195	0xbeec6ca4	-0.46176636
196	0x3decc97a	0.11561866
197	0x3e2ea76a	0.17056051
198	0x3c7134b8	0.014722042
199	0xbdd751b4	-0.105136305
200	0x3da7b63a	0.08189054
201	0x3dc78bb0	0.0974344
202	0xbd8de3a5	-0.069281854
203	0x3e89b949	0.26899174
204	0xbddf88ec	-0.10914788
205	0x3d290de3	0.04127301
206	0x3dde2923	0.1084769
207	0xbe0406f6	-0.1289328
208	0xbcc3ea50	-0.02391544
209	0xbdacead1	-0.08443225
210	0xbd5b67bf	-0.053565737
211	0x3df67275	0.1203355
212	0x3da98813	0.08277907
213	0xbe4c519a	-0.19953004
214	0xbda414dd	-0.08011792
215	0xbcb37d45	-0.02191032
216	0xbde35d16	-0.11101739
217	0xbdec1cd0	-0.11528933
218	0xbe3e8c40	-0.18608189
219	0x3e0d7439	0.13813867
220	0x3d8e5236	0.06949274
221	0x3d2db9d4	0.042413548
222	0xbd754fce	-0.05989056
223	0xbe1834dd	-0.14863916
224	0xbb741d8c	-0.0037249057
225	0x3e2ebe65	0.17064817
226	0x3c5a7e1c	0.013335731
227	0x3d11a3a8	0.035556465
228	0xbe6c4de9	-0.23076595
229	0xbd4f6893	-0.05063684
230	0x3db63d67	0.0889843
231	0x3ea9d82d	0.33172742
232	0xbe22699b	-0.15860598
233	0x3e0048b1	0.1252773
234	0xbe8f4220	-0.27980137
235	0x3d3ed39a	0.046588518
236	0xbe562260	-0.2091155
237	0x3e081853	0.13290529
238	0xbd3c6183	-0.045991432
239	0x3cd5d011	0.02610019
240	0xbe022b33	-0.12711792
241	0xbbac314f	-0.0052549015
242	0xbcda761a	-0.026667643
243	0xbdce1109	-0.10061843
244	0x3ddccb68	0.10780984
245	0x3e968ed2	0.29405838
246	0x3c31a164	0.010841701
247	0xbc34393d	-0.010999975
248	0xbd8b08cd	-0.06788788
249	0x3d1e19b4	0.03859873
250	0x3cbf1729	0.023326473
251	0xbcbdbb41	-0.023160579
252	0xbcd05b31	-0.025434108
253	0xbde48ec0	-0.1116004
254	0xbd228c3c	-0.03968452
255	0xbca9c590	-0.020724088

net.4.bias f4 [64]
0	0x3e4860a2	0.19568112
1	0xbddd576f	-0.10807692
2	0x3df81915	0.12114159
3	0xbd1df211	-0.03856093
4	0x3dd3c85b	0.10340949
5	0x3d443d0a	0.047909774
6	0x3d9db6f3	0.077009104
7	0x3d83c7b7	0.06434577
8	0x3db05253	0.08609452
9	0xbd9603f3	-0.07324972
10	0xbd910ad4	-0.070821434
11	0x3d792e57	0.06083521
12	0xbdc6a308	-0.096990645
13	0x3c8849de	0.016636785
14	0x3d938d91	0.07204736
15	0xbe0ce76f	-0.1376016
16	0x3d4efaea	0.05053226
17	0x3d1010d2	0.03517229
18	0xbe0b5cac	-0.1360957
19	0x3dfded85	0.12398819
20	0x3d03be3f	0.032163855
21	0xbe229f63	-0.15881114
22	0xbcee0779	-0.029056298
23	0x3d03378c	0.032035396
24	0x3e1d6f48	0.15374482
25	0xbc8c4876	-0.017124396
26	0x3e316c4e	0.17326471
27	0xbd9e29e0	-0.07722831
28	0xbe3af0e7	-0.1825596
29	0xbd45d494	-0.048298433
30	0xbdec3fb2	-0.115355864
31	0x3d8b251f	0.0679419
32	0x3e0b320e	0.13593313
33	0xbe09182a	-0.13388124
34	0xbe048428	-0.12941039
35	0x3da401f8	0.08008188
36	0xbcbcd13f	-0.023048995
37	0x3e313477	0.1730517
38	0x3dc7934a	0.0974489
39	0xbd82060a	-0.06348808
40	0x3dc21a38	0.09477657
41	0xbdfcfd6b	-0.12353023
42	0x3dbfbce3	0.09362199
43	0xbdc78048	-0.097412646
44	0x3cb8949b	0.022531798
45	0x3e4028fa	0.18765631
46	0x3cc0a1a9	0.023514586
47	0xbddea566	-0.10871391
48	0x3d823fd5	0.06359831
49	0xbd35988b	-0.04433493
50	0x3df927f0	0.121658206
51	0xbdd6b865	-0.10484389
52	0xbd41464e	-0.04718619
53	0xbe1816a7	-0.14852391
54	0xbdc5989a	-0.09648247
55	0xbd02aa2a	-0.031900562
56	0xbdeedc0a	-0.11663063
57	0xbdc44a82	-0.09584524
58	0xbde85803	-0.11344912
59	0xbdab36b2	-0.08360042
60	0xbddb5fb9	-0.10711617
61	0x3d53c0dc	0.051697597
62	0xbe2a1238	-0.16608512
63	0x3e0437d5	0.12911923

net.6.weight f4 [32, 64]
0	0x3dbfe3bf	0.09369611
1	0x3df074c0	0.11741018
2	0x3d78caf7	0.060740437
3	0xba9f5215	-0.00121552
4	0xbc31fc52	-0.0108633805
5	0x3dcde367	0.10053139
6	0x3daf7ea5	0.085690774
7	0x3d9f29d3	0.07771649
8	0x3dcf6c16	0.10128038
9	0xbc7c0fa6	-0.01538459
10	0xbd20b02b	-0.039230507
11	0x3d62da6d	0.05538409
12	0x3dd6709c	0.10470697
13	0x3af64dd8	0.001879151
14	0x3dcff920	0.10154939
15	0x3daf3a91	0.085560925
16	0x3d1d901e	0.03846752
17	0xbd70d6e0	-0.05879867
18	0xbd2bb32c	-0.04191892
19	0x3b86a8e4	0.004109489
20	0xbc96ec10	-0.01842311
21	0x3a818a62	0.000988316
22	0xbdc4f34b	-0.09616717
23	0xbdaf951c	-0.08573362
24	0xbcf10365	-0.029420564
25	0x3dc8ec12	0.09810652
26	0x3d8b275c	0.067946166
27	0xbdeaee94	-0.114712864
28	0xbdaa10e8	-0.08304006
29	0xbd96347e	-0.07334231
30	0x3df2c87c	0.118546456
31	0x3cc601f1	0.024170848
32	0x3dd64995	0.104632534
33	0xbdb31d8a	-0.087458685
34	0x3def2536	0.11677019
35	0x3dd3ae61	0.103359945
36	0xbc725b02	-0.014792206
37	0xbd5466dc	-0.051855907
38	0x3d8f6127	0.07000952
39	0xbd911cae	-0.07085548
40	0xbd1dde2f	-0.03854197
41	0x3d87ae7d	0.06625078
42	0xbddec75d	-0.10877869
43	0x3c859dd7	0.016310615
44	0xbc25dc8d	-0.010123384
45	0x3c375a23	0.011190924
46	0x3d682d2c	0.056683704
47	0x3c36ca8f	0.011156692
48	0xbd71023b	-0.058840018
49	0x3d9726f1	0.07380474
50	0xbddb1757	-0.10697811
51	0x3d68843f	0.056766745
52	0xbda62aed	-0.08113656
53	0x3df65d46	0.12029509
54	0x3d22726e	0.03965991
55	0x3cb56066	0.022140693
56	0x3d0804cc	0.0332077
57	0x3d2aa805	0.041664142
58	0xbd626b64	-0.055278197
59	0xbdbdc037	-0.09265178
60	0x3d9918d0	0.07475436
61	0x3dc89970	0.09794891
62	0xbc1de01c	-0.009635951
63	0x3c7fe405	0.015618329
64	0xbc4f3e9d	-0.0126492055
65	0xbce73d70	-0.028227538
66	0x3daea972	0.08528413
67	0xbd990e0a	-0.07473381
68	0xbdf32cd4	-0.11873785
69	0xbca94898	-0.020664498
70	0xbd9c5ae8	-0.076345265
71	0xbdb0bfab	-0.08630308
72	0xbd2539a6	-0.04033818
73	0xbc074786	-0.008256799
74	0x3da09d53	0.07842507
75	0x3d87e5d7	0.06635635
76	0x3dc88622	0.09791209
77	0x3db5ef7a	0.08883567
78	0x3d06b632	0.0328886
79	0xbb4d97f8	-0.0031371098
80	0xbb82c840	-0.003991157
81	0xbdbf1fdd	-0.09332249
82	0x3c433c70	0.011916265
83	0xbd085626	-0.033285283
84	0xbd184dd4	-0.037183598
85	0x3dd732e2	0.10507752
86	0x3d714186	0.05890038
87	0x3da09f4a	0.07842882
88	0x3da55bd6	0.08074157
89	0xbd9b3287	-0.07577997
90	0x3d035f4d	0.032073308
91	0xbc9964a6	-0.01872475
92	0x3d2cd233	0.04219265
93	0x3d96816e	0.073489055
94	0xbd0086d4	-0.031378582
95	0x3dc01a3c	0.09380004
96	0x3a80c371	0.0009823871
97	0xbce19386	-0.027536165
98	0x3da7b51a	0.08188839
99	0x3dbf5df4	0.09344092
100	0xbd1ef727	-0.03880992
101	0x3d89d4ca	0.067300394
102	0xbd02035d	-0.03174149
103	0xbbd05bcb	-0.006358599
104	0xbdb90ce7	-0.09035664
105	0xbd691a7b	-0.05691002
106	0x3c50513f	0.012714683
107	0xbcf06c3c	-0.029348485
108	0xbc89d8ef	-0.016827075
109	0x3cd35384	0.02579666
110	0xbd58a0df	-0.052887794
111	0x3d86372d	0.06553493
112	0x3df30eca	0.11868055
113	0x3dc6f4ee	0.097146854
114	0x3de15812	0.11003126
115	0xbd16b568	-0.036794096
116	0x3b05b16a	0.0020399936
117	0xbd2bbda4	-0.041928902
118	0xbd77b4ac	-0.060475037
119	0xbce559f0	-0.027996987
120	0x3d9bcf72	0.076079264
121	0xbdef65cc	-0.11689338
122	0xbd8cf67b	-0.0688295
123	0x3d7a2588	0.06107095
124	0x3d85821c	0.06518957
125	0xbd02ed78	-0.03196475
126	0xbcfa1973	-0.030529713
127	0xbc9ee06c	-0.019394122
128	0x3dd50074	0.10400477
129	0x3dd4438e	0.103644475
130	0x3baa522e	0.005197785
131	0x3dcada7a	0.09904952
132	0xbd9a8036	-0.075439855
133	0xbe7ef942	-0.24899772
134	0x3bb7f6e8	0.0056141503
135	0x3c832fc8	0.016013995
136	0xbca24598	-0.019808576
137	0x3ddd5788	0.10807711
138	0x3d4f0a8f	0.05054718
139	0x3cb7e254	0.022446789
140	0x3bf0d790	0.007349916
141	0x3c6cd81f	0.014455824
142	0x3df8877a	0.12135215
143	0xbc479198	-0.012180708
144	0x3cd3984e	0.02582946
145	0x3da8d446	0.08243613
146	0x3d979cb0	0.07402933
147	0x3d99aa90	0.07503235
148	0xbc9641d1	-0.01834193
149	0x3c949fed	0.018142665
150	0x3d4d861c	0.050176725
151	0x3c9384a0	0.018007576
152	0x3a87bfc5	0.0010356834
153	0x3e03fe5c	0.12889999
154	0x3d8259ae	0.06364761
155	0x3d048571	0.032353822
156	0x3e370765	0.17873915
157	0xbcfe5160	-0.031044662
158	0xbdb7cc86	-0.089745566
159	0xbc51aee8	-0.012798049
160	0xbdc11a4f	-0.09428846
161	0x3e161693	0.14657049
162	0x3d5b2494	0.05350168
163	0x3d4241c6	0.047426008
164	0xbcd91906	-0.02650119
165	0xbd63a630	-0.05557841
166	0x3d98d954	0.07463327
167	0xbdb4b0f1	-0.088228114
168	0x3cbe4425	0.023225853
169	0x3d9f3700	0.07774162
170	0xbdc07254	-0.09396806
171	0x3ddcd728	0.10783225
172	0xbd5acf8a	-0.05342058
173	0xbc52f0ea	-0.012874821
174	0x3d4be428	0.049778134
175	0x3e0dfb22	0.13865331
176	0x3df77f0b	0.120847784
177	0x3dc0f96a	0.09422572
178	0xbe0a9436	-0.135331
179	0x3d40bbb6	0.047054015
180	0xbde93f5e	-0.113890395
181	0x3d91bad6	0.07115714
182	0x3ce3a2ae	0.027787533
183	0x3e14e832	0.145417
184	0x3cf03e18	0.029326484
185	0x3d716003	0.058929455
186	0x3d96b79f	0.07359242
187	0xbdded929	-0.10881264
188	0xbda8604a	-0.08221491
189	0x3c91305a	0.017723251
190	0xbdf823a1	-0.12116171
191	0x3de664bb	0.112496816
192	0xbd99b2d4	-0.07504812
193	0xbdc23e82	-0.09484579
194	0x3df94f84	0.121733695
195	0xbda423b2	-0.08014621
196	0xbd648c3c	-0.0557978
197	0x3b0a2240	0.0021077543
198	0x3d234560	0.039861083
199	0xbd378d34	-0.044812396
200	0x3d8907e0	0.06690955
201	0xbda3e272	-0.080021754
202	0x3cc6cfb0	0.024268955
203	0xbdfbde6c	-0.12298283
204	0xbde5db88	-0.11223513
205	0x3d3542fc	0.044253334
206	0x3d762010	0.06008917
207	0xbd64a21c	-0.055818662
208	0x3d33b3b0	0.043872535
209	0xbd05e530	-0.032689273
210	0x3d8f026c	0.06982884
211	0x3c5fa240	0.013649523
212	0xbce23e48	-0.027617589
213	0x3cc28dd0	0.023749262
214	0xbdf2f628	-0.11863357
215	0x3d8f66ca	0.07002027
216	0x3dec9eb8	0.11553711
217	0x3dda5988	0.10661608
218	0xbd937b70	-0.07201278
219	0xbd4e2718	-0.05033025
220	0xbd605444	-0.054767862
221	0x3c9bb008	0.019004837
222	0xbdb34480	-0.087533
223	0xbdc03d32	-0.09386672
224	0xbd472514	-0.048619345
225	0x3de01664	0.10941771
226	0x3d06e074	0.0329289
227	0xbde7d1ec	-0.11319336
228	0xbd6ee094	-0.058319643
229	0xbdcacf2a	-0.09902795
230	0xbc8365a8	-0.016039684
231	0x3b81f4c0	0.003965944
232	0xbdaaf34e	-0.08347188
233	0xbdc7aa68	-0.09749299
234	0xbcc9e430	-0.024644941
235	0x3beef8e0	0.007292852
236	0x3dbc2f7c	0.091887444
237	0x3d39cefc	0.04536341
238	0xbd951488	-0.07279307
239	0xbdec4908	-0.11537367
240	0x3cc7ada8	0.024374798
241	0xbc92e928	-0.017933443
242	0x3d961ef2	0.07330121
243	0xbdb11b46	-0.0864778
244	0xbbc6c700	-0.006066203
245	0xbdbabb34	-0.091177374
246	0xbd806244	-0.06268743
247	0xbd970a8e	-0.0737506
248	0xbcd54160	-0.02603215
249	0xbc2b9490	-0.010472432
250	0x3dedfbdc	0.11620304
251	0x3de2e542	0.11078884
252	0x3dc769ec	0.09737
253	0x3cf4d0f0	0.029884785
254	0x3b018cc0	0.0019767731
255	0x3df3b6b0	0.11900079

net.6.bias f4 [32]
0	0x3e1392c9	0.14411463
1	0xbd51cbe4	-0.051219836
2	0xbdd06072	-0.101746455
3	0xbdbb2438	-0.091377676
4	0x3e0638dc	0.13107628
5	0xbd0b47f2	-0.03400416
6	0xbdd76b0e	-0.10518466
7	0xbc9caa17	-0.019124074
8	0xbdafe41d	-0.08588431
9	0xbc9dd025	-0.01926429
10	0xbd7a8bc0	-0.061168432
11	0x3df43c43	0.119255565
12	0x3d0ba0f3	0.03408904
13	0x3dc74489	0.09729869
14	0x3d08262c	0.03323953
15	0xbd637987	-0.05553582
16	0xbd7df10e	-0.061997466
17	0xbdabd0b4	-0.08389416
18	0xbdb8f43e	-0.090309605
19	0xbddd35be	-0.10801266
20	0x3d2a5012	0.041580267
21	0x3d79bd25	0.060971398
22	0x3e06c689	0.13161673
23	0x3cca13e2	0.024667684
24	0xbc9535e0	-0.018214166
25	0xbc0bb965	-0.008528088
26	0x3d47ddf8	0.04879567
27	0xbb9b4830	-0.00473883
28	0xbc8d2725	-0.01723058
29	0xbd246566	-0.040135764
30	0xbe0570d8	-0.13031328
31	0xbdd90d37	-0.10598224

net.8.weight f4 [16, 32]
0	0xbd9af7cb	-0.07566794
1	0x3c8c4e90	0.017127305
2	0xbde36485	-0.11103157
3	0x3d8aa7cc	0.06770286
4	0xbdc6010a	-0.09668167
5	0x3e2f232b	0.1710326
6	0xbe1ffa2a	-0.15622774
7	0x3dc9df5e	0.09857057
8	0xbdbbf9c4	-0.091784984
9	0xbd805e8e	-0.06268035
10	0xbe290658	-0.16506326
11	0xbe27c47d	-0.16383548
12	0xbe2b500f	-0.16729759
13	0xbb5e8440	-0.003395334
14	0x3e26bb63	0.1628242
15	0x3da60002	0.0810547
16	0x3de2b0aa	0.11068852
17	0x3d222034	0.039581493
18	0xbd8be183	-0.06830122
19	0xbd8cff53	-0.06884637
20	0xbd571772	-0.052512594
21	0xbe291fc3	-0.16516022
22	0x3dc700ea	0.09716971
23	0xbd573ca2	-0.05254806
24	0xbdcccaaa	-0.099995926
25	0x3d33a638	0.04385969
26	0x36980000	4.529953e-06
27	0x3dc4e406	0.096138045
28	0xbded172f	-0.115766875
29	0x3e33d42b	0.17561404
30	0xbd901d1c	-0.07036802
31	0x3d88cb0a	0.06679352
32	0x3e2fdaed	0.17173357
33	0xbbeb97b4	-0.0071897153
34	0xbe19f20e	-0.15033743
35	0xbe2f2358	-0.17103326
36	0x3e3e463c	0.1858148
37	0xbe96e68e	-0.29472774
38	0xbd864d36	-0.065576956
39	0x3df90893	0.121598385
40	0xbe3bb1d8	-0.18329561
41	0x3e9b9d14	0.3039328
42	0x3c8ca348	0.017167702
43	0x3d8ed00f	0.06973278
44	0x3d0fb4d8	0.035084575
45	0x3c0721c5	0.008247797
46	0x3dd47459	0.10373754
47	0xbdb10724	-0.0864394
48	0x3d237d75	0.039914567
49	0xbda3da07	-0.0800057
50	0x3e2b51e5	0.16730459
51	0x3e17a7e9	0.14810146
52	0xbd6fc3e5	-0.05853643
53	0x3e0a4a07	0.13504802
54	0xbcb50eca	-0.022101779
55	0x3da911de	0.08255361
56	0xbd4ccce0	-0.05000007
57	0xbe48bcd2	-0.19603279
58	0x3dd14a96	0.10219304
59	0x3d9bacdc	0.0760133
60	0x3e2543bc	0.1613912
61	0x3d50fce1	0.051022414
62	0xbd57902d	-0.05262773
63	0xbb9d816c	-0.004806688
64	0x3ce269e6	0.027638387
65	0x3e1fdb94	0.15611106
66	0x3d9780ac	0.07397589
67	0x3e1a6571	0.1507776
68	0x3ce93e76	0.028472167
69	0x3e51267d	0.20424838
70	0xbde7cf4e	-0.11318837
71	0x3e24ab4f	0.16080974
72	0x3e77721e	0.24164626
73	0xbc0713df	-0.008244484
74	0xbe012f05	-0.12615593
75	0x3e1bda43	0.15219979
76	0x3d87c51c	0.066293925
77	0xbdc945ca	-0.09827764
78	0x3d9f6640	0.077831745
79	0x3de378b1	0.111070044
80	0xbdd8615c	-0.10565445
81	0x3c5c1c60	0.0134344995
82	0x3d4ede84	0.050505176
83	0xbd7b5eb5	-0.061369617
84	0x3e0db982	0.13840297
85	0x3e26c4ee	0.1628606
86	0x3e504727	0.20339642
87	0xbdd126ec	-0.10212502
88	0x3c213cf0	0.009841189
89	0x3e80fbaa	0.25192004
90	0x3e141f2c	0.14465016
91	0x3ca995dd	0.020701343
92	0x3e10e3f5	0.14149459
93	0x3e0c37c7	0.13693152
94	0xbc3e8bfd	-0.0116300555
95	0x3e2ce77b	0.16885178
96	0x3de8d0d5	0.113679565
97	0xbcbf383e	-0.023342248
98	0xbd7db121	-0.0619365
99	0xbdc002c8	-0.093755305
100	0xbdfc5aa5	-0.123219766
101	0xbc864462	-0.01639003
102	0x3d3d08a8	0.046150833
103	0x3d791975	0.060815293
104	0xbc52b736	-0.012861064
105	0xbc490441	-0.012269081
106	0x3dfa9446	0.12235312
107	0x3d2ebd28	0.042660862
108	0xbdebc4d6	-0.11512153
109	0x3e0ce670	0.1375978
110	0x3dec89d6	0.115497276
111	0x3db48d46	0.08816008
112	0x3daf7522	0.08567263
113	0xbe1903af	-0.14942811
114	0x3dd454f6	0.103677675
115	0x3d37bb77	0.044856515
116	0x3b3307e0	0.0027317926
117	0xbc9c6930	-0.019093126
118	0x3e202dd0	0.15642476
119	0x3cb7146e	0.022348609
120	0xbdca3dac	-0.09875044
121	0x3dbbe4aa	0.091744736
122	0x3d42cee8	0.047560602
123	0xbd955b2e	-0.07292782
124	0x3e033631	0.12813641
125	0x3e2f7f6d	0.17138453
126	0x3c8ad743	0.016948348
127	0xbde3dbc3	-0.111259006
128	0xbdc24c7d	-0.09487245
129	0xbdbcf45b	-0.092262946
130	0x3db9c1da	0.090701774
131	0x3de31336	0.110876486
132	0xbddb6802	-0.10713197
133	0x3dc887ca	0.09791525
134	0x3be6cf40	0.007043749
135	0xbbc9d9c0	-0.006159991
136	0xbd664998	-0.05622253
137	0xbe26befa	-0.1628379
138	0xbe1b43b8	-0.15162551
139	0x3e04bd97	0.12962948
140	0xbced3718	-0.028956935
141	0xbbfcde00	-0.007716894
142	0xbdda54a8	-0.10660678
143	0xbd0437f0	-0.03227991
144	0xbd8d3b9b	-0.068961345
145	0x3c8255c0	0.01591003
146	0xbe2cca68	-0.16874087
147	0x3c8c7118	0.017143771
148	0xbe203a12	-0.15647152
149	0xbe00aab9	-0.12565126
150	0xbb775640	-0.0037740618
151	0xbc9a4010	-0.018829376
152	0xbd4b88d0	-0.04969102
153	0x3dd289d2	0.102801934
154	0x3c512550	0.012765244
155	0x3d16124c	0.036638543
156	0x3d942256	0.072331116
157	0x3c2389b0	0.009981558
158	0xbe20569a	-0.15658036
159	0xbd86a38e	-0.06574164
160	0x3df6b692	0.12046541
161	0x3dd5ebe8	0.10445386
162	0x3d90f4a9	0.07077915
163	0x3e1fc801	0.15603639
164	0xbd94bb63	-0.07262304
165	0x3e34c0a4	0.17651612
166	0xbcd7c320	-0.02633816
167	0xbd3d9e37	-0.046293464
168	0x3e80a153	0.2512308
169	0xbe9b343a	-0.30313283
170	0x3d0931b0	0.03349465
171	0x3e401057	0.18756233
172	0xbdbc7337	-0.09201663
173	0x3dffcc44	0.124901325
174	0xbe136ece	-0.14397737
175	0x3db833b7	0.08994239
176	0xbdccc33d	-0.09998176
177	0x3d65174c	0.05593042
178	0x3d1e65a8	0.038671166
179	0x3d277260	0.04088056
180	0xbcb0547d	-0.021524662
181	0xbca44b18	-0.020055339
182	0xbe21278a	-0.15737739
183	0x3bf6aab7	0.007527675
184	0x3e2cccf3	0.16875057
185	0xbd165e98	-0.036711305
186	0xbd78745b	-0.06065784
187	0x3d057cd4	0.03258975
188	0x3dba15df	0.09086203
189	0x3d62a27d	0.055330742
190	0x3e0ce083	0.1375752
191	0xbc520d9c	-0.012820628
192	0xbd322514	-0.04349239
193	0xbe16e481	-0.14735605
194	0xbe34eecb	-0.17669217
195	0xbe0a9f48	-0.13537323
196	0x3db5df82	0.08880521
197	0x3e22ae59	0.15886821
198	0x3e2c4f2b	0.16827075
199	0x3e0791b1	0.1323917
200	0x3c157af0	0.009123549
201	0x3df94c6a	0.12172778
202	0x3d89a3de	0.06720708
203	0xbdf522e0	-0.119695425
204	0xbd07e3f4	-0.033176377
205	0xbe2800fb	-0.16406624
206	0x3e1b64cd	0.15175171
207	0x3d1d6238	0.038423747
208	0x3e263a7d	0.16233249
209	0xbcaf5cc0	-0.021406531
210	0x3e0fbde3	0.1403728
211	0x3da9758a	0.08274372
212	0xbcb0c158	-0.021576568
213	0xbbbf9220	-0.005846277
214	0x3e010363	0.12598948
215	0xbcbe73f0	-0.023248643
216	0x3e0cc121	0.13745548
217	0x3d1ed8c4	0.038780943
218	0xbd8dd42d	-0.06925235
219	0xbda7cfd4	-0.08193937
220	0xbdb01962	-0.085985914
221	0x3de84a42	0.113422886
222	0x3e08d5a7	0.13362752
223	0xbdaa341e	-0.08310722
224	0xbe253b31	-0.16135861
225	0x3dcd322e	0.10019337
226	0xbd24a688	-0.04019788
227	0xbe2635b2	-0.1623142
228	0x3d1804b4	0.03711386
229	0xbc901820	-0.017589629
230	0x3e026aff	0.12736128
231	0x3d19b734	0.03752823
232	0xbddf3678	-0.10899061
233	0xbd02f208	-0.0319691
234	0xbe01fd04	-0.12694174
235	0x3da94896	0.08265798
236	0x3d53cfe8	0.051711947
237	0x3dd5b722	0.104353204
238	0xbe05f945	-0.1308337
239	0xbdc98639	-0.09840054
240	0xbddc5163	-0.10757711
241	0xbe161a7b	-0.14658539
242	0xbe28d84c	-0.1648876
243	0xbe120178	-0.14258373
244	0x3dfc32de	0.1231439
245	0xbd5a7278	-0.053331822
246	0xbd059520	-0.03261292
247	0x3d5a3fe8	0.053283602
248	0x3d3e94c8	0.046528608
249	0x3da2c522	0.07947756
250	0xbdffa0a8	-0.124818146
251	0x3e20d8f5	0.15707763
252	0xbc6761d0	-0.014122441
253	0xbdabebd1	-0.08394588
254	0x3de9ae4a	0.11410196
255	0xbe1681d0	-0.14697957

net.8.bias f4 [16]
0	0xbdbb29e0	-0.091388464
1	0x3df94e0c	0.121730894
2	0xbe2629aa	-0.16226831
3	0x3da89d14	0.08233085
4	0xbde454e5	-0.11149005
5	0x3d976d9d	0.07393954
6	0xbe259db1	-0.16173436
7	0xbcefd9c8	-0.02927865
8	0x3d995a38	0.07487911
9	0xbdb50c8d	-0.088402845
10	0x3da26492	0.079293385
11	0x39c13cea	0.00036857213
12	0x3e419b03	0.18906789
13	0x3e1098ea	0.14120832
14	0xbdd59be4	-0.104301244
15	0xbd20382c	-0.03911607

net.10.weight f4 [2, 16]
0	0xbd514a30	-0.05109614
1	0xbde05666	-0.10953979
2	0x3dd7f983	0.105456375
3	0xbe752006	-0.23937997
4	0xbe1985ea	-0.1499249
5	0xbd52c936	-0.05146142
6	0xbe63c57e	-0.22243306
7	0xbe753402	-0.2394562
8	0x3d94fd99	0.072749324
9	0xbe55bf66	-0.20873794
10	0x3e1933fa	0.14961234
11	0xbe1d4b71	-0.1536081
12	0xbd1e934e	-0.0387147
13	0x3de0a6ca	0.109693125
14	0xbe7c7408	-0.24653637
15	0xbe7b77a9	-0.24557365
16	0x3c2a90a0	0.010410458
17	0xbe157348	-0.14594758
18	0x3e5ac1e0	0.2136302
19	0x3db12676	0.08649914
20	0x3cfc1150	0.030769974
21	0x3dfff2fb	0.12497517
22	0x3e5b0416	0.21388277
23	0x3d228598	0.039678186
24	0x3e0a707b	0.1351947
25	0xbe105616	-0.14095339
26	0x3e44fc06	0.19236764
27	0xbd865040	-0.06558275
28	0x3e3d3ada	0.18479481
29	0xbeafd427	-0.34341547
30	0xbe19d774	-0.15023595
31	0xbe14358c	-0.14473552

net.10.bias f4 [2]
0	0x3dd3968e	0.103314504
1	0xbc64b342	-0.013958754
