5 DOF non-linear duffing/linear_5_dof_new_model_parameters_m1.pth (torch, 27010 bytes, 12 tensors)

net.0.weight f4 [16, 11]
0	0xbdd9558d	-0.10612021
1	0xbf202b2d	-0.6256588
2	0xbe57db75	-0.2107981
3	0x3f03b62f	0.51449865
4	0x3f4b3883	0.79383105
5	0xbdd56164	-0.104189664
6	0x3e6351ea	0.22199216
7	0x3d5479dc	0.051874027
8	0xbe9bdeae	-0.3044333
9	0x3d1cb181	0.03825522
10	0xbe0825de	-0.13295695
11	0xbd003f36	-0.031310283
12	0x3ff0f080	1.8823395
13	0x3eaf753f	0.3426914
14	0x3eb0247d	0.34402838
15	0x3f0894bc	0.5335195
16	0x3e950b7d	0.29110327
17	0xbc93432f	-0.017976372
18	0x3d73d526	0.059529446
19	0xbdcd6fa8	-0.10031062
20	0x3d2fb646	0.04289844
21	0xbdea1aa1	-0.1143086
22	0x3d0a97b3	0.033836078
23	0x3fba1e31	1.4540464
24	0xbf13d6cc	-0.5774963
25	0x3dd89733	0.10575714
26	0x3f8c1fa7	1.094716
27	0xbdaf6791	-0.085646756
28	0xbdb45519	-0.088052936
29	0x3c853253	0.016259348
30	0xb9f0db4a	-0.0004593975
31	0xbd8c45eb	-0.06849273
32	0xbd84e8b2	-0.064896956
33	0xbd97140e	-0.07376872
34	0x3d522ecc	0.05131416
35	0x3ec18126	0.37793845
36	0x3ed72c3f	0.42025945
37	0x3f9f505d	1.24464
38	0x3e8f0d1b	0.27939686
39	0x3e0fb1e8	0.1403271
40	0xbd80e90d	-0.06294451
41	0x3e7db210	0.24774957
42	0xbd8c7271	-0.068577655
43	0x3ea0b51a	0.3138817
44	0x3d900bd8	0.07033509
45	0xbefb5a42	-0.490923
46	0xbdf1c7ea	-0.11805709
47	0xbec90177	-0.3925893
48	0xbfa2c948	-1.2717676
49	0xbe358f58	-0.17730463
50	0xbe2ece2f	-0.1707084
51	0x3d8d7d04	0.069086105
52	0xbe86e8ea	-0.26349574
53	0x3db928fb	0.090410195
54	0xbea13802	-0.31488043
55	0x3c1162c2	0.008873643
56	0xbf99db70	-1.2020092
57	0xbf253501	-0.64534
58	0xbd2288d6	-0.03968128
59	0x3f67ff36	0.90623796
60	0x3e770677	0.2412356
61	0x3ce1d66f	0.02756807
62	0x3ceeb2b5	0.029137949
63	0x3d36d21f	0.04463398
64	0xbd78ee95	-0.060774405
65	0xbe392b98	-0.18083036
66	0x3e0528b5	0.1300381
67	0x3f9525d8	1.1652174
68	0x3cf3426c	0.029694758
69	0xbf05e916	-0.52308786
70	0x3f7f86ee	0.9981526
71	0x3effba7c	0.49946964
72	0xbe5cece2	-0.21574739
73	0xbec83fb5	-0.39111105
74	0x3d7699d8	0.06020531
75	0xbdc0a7fd	-0.09407041
76	0x3ea8f982	0.3300286
77	0x3a12c81a	0.00055992755
78	0xbf7fed89	-0.99971825
79	0xbf0a6296	-0.5405668
80	0x3e72e4b3	0.23720054
81	0x3fc5352c	1.5406852
82	0x3e2224c2	0.15834334
83	0xbe069a28	-0.13144743
84	0xbd53288e	-0.051552348
85	0x3d04b8b4	0.03240271
86	0xbde92701	-0.113843925
87	0xbddaf0ef	-0.10690486
88	0xbe4180bb	-0.18896763
89	0x3e2433cf	0.16035388
90	0x3ebe4788	0.3716395
91	0xbe760863	-0.24026637
92	0xbfaa5e5c	-1.3310046
93	0xbda4d7c7	-0.08048969
94	0xbe7fb760	-0.24972296
95	0xbe4d2ed9	-0.20037402
96	0x3d33621a	0.04379473
97	0xbe2d50c6	-0.16925344
98	0x3db8bbce	0.09020196
99	0xbe03d98f	-0.12875961
100	0xbf2f6719	-0.6851669
101	0xbea3a906	-0.31964892
102	0xbee263b6	-0.44216698
103	0xbf55fd77	-0.8358988
104	0xbd084a1a	-0.033273794
105	0xbca04f18	-0.019568965
106	0x3dec0c65	0.115258016
107	0xbebf9d99	-0.37424925
108	0xbe032d54	-0.1281026
109	0x3bfe0299	0.0077517745
110	0x3d2df73c	0.04247211
111	0xbee5688d	-0.44806328
112	0x3eae877e	0.34087747
113	0x3ef2dcfe	0.4743423
114	0x3f6741f3	0.90335006
115	0xbe50ab72	-0.20377901
116	0xbe1aa873	-0.15103321
117	0x3e2d759e	0.16939399
118	0xbeafd7b0	-0.34344244
119	0x3defc16e	0.11706816
120	0xbe2add27	-0.16685925
121	0x3aff08ee	0.0019457617
122	0xc028c140	-2.636795
123	0xbe304dd9	-0.17217197
124	0x3e275aef	0.16343282
125	0x3f621354	0.8831074
126	0x3d9ee318	0.077581584
127	0x3c7bec6a	0.01537619
128	0x3c94b43a	0.018152345
129	0xbdb30999	-0.08742065
130	0x3ced8855	0.028995672
131	0x3b9014ab	0.004396995
132	0xbb594a57	-0.0033155882
133	0x3f934ccb	1.150781
134	0x3be18071	0.0068817665
135	0x3e9a6505	0.30155197
136	0x3f97d5a9	1.1862079
137	0x3e31e301	0.17371751
138	0xbdc29f75	-0.0950307
139	0x3c95b8b0	0.018276542
140	0xbe4dcc01	-0.20097353
141	0x3d8b50df	0.06802534
142	0xbd658c5d	-0.056042064
143	0xbd03a859	-0.03214297
144	0x3fd988cb	1.6994871
145	0xbd38c2a3	-0.045107495
146	0xbed4b625	-0.41545215
147	0x3e9e6a50	0.30940485
148	0xbdaecc10	-0.085350156
149	0x3e3d5883	0.18490796
150	0xbd8be056	-0.06829898
151	0x3e93e5cd	0.28886262
152	0xbda6b0d6	-0.081391975
153	0x3e6e6847	0.23281966
154	0x3e395b42	0.18101218
155	0xbe185ade	-0.14878413
156	0x3e60217e	0.21887776
157	0x3da99935	0.08281175
158	0x3f9f128e	1.2427537
159	0x3e2609d2	0.16214684
160	0x3e6469f5	0.22306044
161	0x3e3b7ad8	0.1830858
162	0xbd6a4242	-0.057192095
163	0x3e4b4806	0.19851694
164	0xbe1ab79b	-0.15109102
165	0x3d9d5b3e	0.07683419
166	0x3e037f52	0.12841538
167	0xbf5c94de	-0.86164653
168	0xbe69a966	-0.22818527
169	0xbf9abc36	-1.2088687
170	0x3dd77363	0.10520055
171	0xbdfbc304	-0.12293056
172	0xbd14889a	-0.036263086
173	0x3ccffb06	0.025388252
174	0xbd9f867a	-0.07789321
175	0xbe2181cc	-0.1577217

net.0.bias f4 [16]
0	0xbe8e2dfb	-0.27769455
1	0x3e977305	0.2957994
2	0x3e78625b	0.2425627
3	0xbe06abc3	-0.1315146
4	0x3e00c8c2	0.12576583
5	0x3d9837f4	0.07432547
6	0xbd9c0373	-0.076178454
7	0x3e80a5c6	0.25126475
8	0x3def1939	0.11674733
9	0xbd3cfa12	-0.046136923
10	0x3d9a3aea	0.07530768
11	0x3ea1cecd	0.3160309
12	0x3e7c98f9	0.2466773
13	0xbd38c438	-0.045109004
14	0xbdf62222	-0.12018229
15	0x3e67052a	0.22560564

net.2.weight f4 [32, 16]
0	0xbd1e0f4a	-0.0385888
1	0x3e0fdf32	0.14049986
2	0xbcdac262	-0.026704017
3	0x3e94d9ca	0.2907241
4	0x3d04bea2	0.032408364
5	0x3eb548e3	0.3540717
6	0x3df2d64b	0.118572794
7	0x3f0e8922	0.55678
8	0x3cab084f	0.020877985
9	0xbc27d8e6	-0.010244584
10	0x3e5a6c5f	0.21330403
11	0x3eda7b14	0.42672026
12	0x3dfc3844	0.12315419
13	0x3e55ee19	0.20891608
14	0x3e0178cd	0.12643738
15	0xbd9becf9	-0.07613558
16	0x3e5f8680	0.21828651
17	0xbe049d90	-0.1295073
18	0x3e2655ec	0.16243714
19	0x3e7dae84	0.24773604
20	0xbe309052	-0.17242554
21	0xbe171054	-0.14752322
22	0xbe7dac8c	-0.24772853
23	0xbd384810	-0.0449906
24	0xbe688008	-0.2270509
25	0xbdab7ae4	-0.08373049
26	0x3d9b70d4	0.0758988
27	0x3e34f5f0	0.17671943
28	0x3e0e99dc	0.1392588
29	0x3e0e19c8	0.13877022
30	0x3dd46908	0.103715956
31	0xbe1ec79c	-0.15505832
32	0xbe69c578	-0.22829235
33	0x3d19da41	0.03756166
34	0x3e8042b1	0.25050882
35	0xbdaf2163	-0.0855129
36	0x3e18b295	0.14911874
37	0xbeb4a539	-0.35282305
38	0x3d2d28b2	0.04227514
39	0xbe9b38d8	-0.30316806
40	0x3e81daee	0.25362343
41	0xbcefcdac	-0.029272877
42	0xbde35372	-0.110999
43	0xbdceda76	-0.10100262
44	0xbdfe13f7	-0.12406152
45	0xbde03e44	-0.10949376
46	0x3dc593c8	0.09647328
47	0x3e8bf5ad	0.27335873
48	0xbea2baea	-0.3178323
49	0xbe8dea94	-0.2771803
50	0x3c5f9ecb	0.013648699
51	0xbe9479ca	-0.28999168
52	0xbe8532c2	-0.26015288
53	0x3ebe4960	0.37165356
54	0xbbd6a459	-0.0065503535
55	0x3e0f81dd	0.14014383
56	0xbcc36e01	-0.023856165
57	0x3c2e86db	0.010652269
58	0x3e838414	0.25686705
59	0xbe029825	-0.12753351
60	0x3db41325	0.08792714
61	0xbe5ea2a1	-0.21741726
62	0x3e340c4a	0.17582813
63	0xbd3ad6a1	-0.045614842
64	0x3d035e5f	0.03207242
65	0xbc2eb62f	-0.010663553
66	0xbe2b3ea1	-0.1672311
67	0xbe01672a	-0.1263701
68	0x3e8cf1b9	0.2752817
69	0xbd0fc68e	-0.035101466
70	0x3dacc091	0.084351666
71	0xbe980eff	-0.2969894
72	0x3adaef9c	0.0016703489
73	0x3e8c7b3d	0.27437773
74	0x3db0acce	0.0862671
75	0x3eb774e1	0.3583136
76	0xbe662c40	-0.22477818
77	0xbdd51f3f	-0.1040635
78	0xbde7901a	-0.11306782
79	0x3e855a9e	0.26045698
80	0xbdc8487d	-0.09779451
81	0x3ea07e33	0.31346282
82	0x3e8e04e8	0.27738118
83	0x3e5e9fd9	0.21740665
84	0x3d49e5d4	0.049291447
85	0x3eb5956b	0.3546556
86	0x3e82cea6	0.25548285
87	0xbe59518d	-0.21222515
88	0xbcc85904	-0.024456508
89	0x3e283bd0	0.16429067
90	0x3d5fb2f5	0.054614026
91	0xbf33f11d	-0.70289785
92	0x3eb6486a	0.35602123
93	0x3e8135c7	0.2523634
94	0x3ceb9f3c	0.028762452
95	0x3d584b20	0.05280602
96	0xbcbdc9bb	-0.023167482
97	0x3e460fdc	0.19341987
98	0x3e912f26	0.28356284
99	0x3dd97847	0.10618644
100	0xbe501ac1	-0.20322706
101	0x3df3258d	0.118723966
102	0x3e07f5b1	0.13277318
103	0x3e631b9a	0.22178498
104	0xbe5208c2	-0.20511153
105	0x3e01f88c	0.1269247
106	0x3dad079d	0.08448718
107	0x3e5650ca	0.20929256
108	0x3f00affd	0.50268537
109	0xbe1a7cba	-0.15086642
110	0x3dca06dc	0.098645896
111	0xbe30dd73	-0.17271976
112	0x3da69b93	0.08135142
113	0x3e404edb	0.18780081
114	0x3dc83a6c	0.09776768
115	0x3e84803c	0.25879085
116	0xbd99be10	-0.07506955
117	0x3e1ea3bf	0.15492152
118	0xbe9fc232	-0.31202847
119	0x3eb95577	0.36198017
120	0x3e20d804	0.15707403
121	0xbe22cb99	-0.15897979
122	0xbecd51d5	-0.40101495
123	0x3ea5fdc5	0.32420173
124	0xbe37b834	-0.17941362
125	0x3ea56251	0.32301572
126	0x3e348f04	0.17632681
127	0x3e752362	0.23939279
128	0x3e976a59	0.29573324
129	0xbc358ec5	-0.011081402
130	0x3defe4d2	0.11713566
131	0x3e9fd537	0.31217358
132	0x3e3deaee	0.1854665
133	0x3e977153	0.29578647
134	0xbe0ab48c	-0.13545436
135	0xbd92e278	-0.07172102
136	0xbdbfdc7b	-0.09368225
137	0x3e256d15	0.16154893
138	0xbd160fce	-0.036636166
139	0x3d24feca	0.04028205
140	0xbefc1f27	-0.49242517
141	0xbe69c0cb	-0.22827451
142	0x3e7b5e1e	0.24547622
143	0x3e9db0e0	0.30799007
144	0x3dc64509	0.09681136
145	0x3ce2f9a7	0.027706934
146	0xbbb2a8b9	-0.005452242
147	0x3e174856	0.14773688
148	0x3d32566b	0.043539446
149	0xbe23d12e	-0.15997764
150	0x3e542c7e	0.20720097
151	0x3f100122	0.5625173
152	0xbe368ffb	-0.17828362
153	0x3d80b9ee	0.06285463
154	0xbe0da62a	-0.13832918
155	0x3e1d79d9	0.15378512
156	0x3eccc5fb	0.39994797
157	0x3ddf2dd1	0.10897411
158	0x3e808aad	0.251058
159	0xbe386b37	-0.18009649
160	0x3dc9e4bc	0.09858081
161	0xbea744c8	-0.32669663
162	0xbe62021b	-0.22071116
163	0xbe8c19fc	-0.27363575
164	0x3ee3acdd	0.44467822
165	0x3dcda01c	0.10040304
166	0xbdc34dc2	-0.095363155
167	0xbaa10cb1	-0.0012287108
168	0xbdf4614f	-0.11932623
169	0xbcee6431	-0.02910051
170	0xbe267e95	-0.16259225
171	0x3e47aba9	0.19499077
172	0x3d5b793f	0.053582426
173	0x3e0c0a44	0.13675791
174	0xbdaf1da1	-0.08550573
175	0x3e105aeb	0.14097182
176	0x3dddc377	0.108282976
177	0x3d9c8bc2	0.07643844
178	0x3ef5bec7	0.47997114
179	0x3ca60801	0.020267488
180	0xbdbdc327	-0.09265738
181	0xbd72f9ce	-0.059320264
182	0xbbb97705	-0.00565994
183	0xbe89863a	-0.2686022
184	0x3a111439	0.00055343244
185	0xbd74c53c	-0.05975841
186	0xbcdf829e	-0.027283963
187	0xbf1b1d00	-0.60591125
188	0x3ef12e1a	0.47105485
189	0x3e01f5ce	0.12691423
190	0xbd532386	-0.05154755
191	0x3d9018c2	0.07035972
192	0xbe756bf6	-0.23966965
193	0x3dc4ce11	0.096096165
194	0xbe859984	-0.26093686
195	0xbd3f76fc	-0.04674433
196	0x3e6dbd23	0.23216681
197	0x3e1a14ce	0.15046999
198	0x3e92d158	0.28675342
199	0x3d88cd15	0.06679741
200	0x3e68db25	0.22739847
201	0xbe314303	-0.17310719
202	0x3cea9d8a	0.028639574
203	0x3d81b41a	0.0633318
204	0x3df191da	0.11795397
205	0x3ce41224	0.027840681
206	0xbe497793	-0.1967452
207	0xbe42c9df	-0.1902232
208	0xbc2b72b6	-0.010464361
209	0xbed6f2f0	-0.41982222
210	0xbf1ffdfa	-0.6249691
211	0xbd4d67f4	-0.050147966
212	0x3da10a56	0.078632995
213	0x3e41eac0	0.18937206
214	0xbcba3fd0	-0.022735506
215	0x3e908082	0.28223044
216	0xbcc75298	-0.024331376
217	0x3cd00c56	0.025396507
218	0x3e262fb0	0.16229129
219	0x3f103e0f	0.56344694
220	0xbe93b198	-0.2884643
221	0xbebbabd9	-0.36654547
222	0xbb2deca5	-0.0026538756
223	0xbde24db3	-0.11049976
224	0x3d12499d	0.035714734
225	0xbe4b5ec2	-0.19860366
226	0xbeb3640c	-0.35037267
227	0x3e73be51	0.23803069
228	0xbde84cf8	-0.113428056
229	0x3ea028c3	0.312811
230	0x3e5bc610	0.21462274
231	0xbbf56208	-0.007488493
232	0x3ddeda99	0.10881538
233	0xbd78dbbd	-0.060756434
234	0x3defde8b	0.117123686
235	0x3f0968da	0.53675616
236	0xbf1d024c	-0.6133163
237	0xbe21d171	-0.15802552
238	0xbdc3b9cf	-0.095569246
239	0x3e3507da	0.17678776
240	0x3e07e631	0.13271405
241	0x3e183eb0	0.14867663
242	0x3e036314	0.12830764
243	0x3eb1109c	0.34582984
244	0x3dd2f183	0.10299971
245	0xbe817ec9	-0.25292042
246	0xbe1467b8	-0.1449269
247	0xbb433348	-0.0029785205
248	0xbc0e277e	-0.008676408
249	0x3ca1f575	0.019770363
250	0x3dd095a3	0.10184791
251	0x3e166485	0.14686783
252	0x3ecbc58b	0.3979915
253	0x3d02f512	0.031972
254	0xbe9bd587	-0.30436346
255	0x3b777060	0.003775619

net.2.bias f4 [32]
0	0xbe154a0d	-0.1457903
1	0xbe6d863e	-0.2319574
2	0x3e0f9a30	0.14023662
3	0x3dc63d11	0.09679616
4	0x3defb936	0.11705248
5	0xbdde81bd	-0.10864589
6	0x3d490d09	0.049084697
7	0xbe4c5414	-0.19953948
8	0xbe771e96	-0.24132761
9	0x3d4c8aae	0.049936943
10	0x3ea3a880	0.31964493
11	0xbd0af099	-0.033920858
12	0x3e350aab	0.17679851
13	0x388c89ca	6.7013854e-05
14	0xbe3e4d43	-0.1858416
15	0xbe7f1df1	-0.24913765
16	0x3e73d198	0.23810422
17	0x3ea1bc4c	0.31588972
18	0x3ca75eed	0.020431006
19	0x3db96b5c	0.0905368
20	0x3e8c890d	0.2744831
21	0x3de7a191	0.11310113
22	0x3e424df0	0.18975043
23	0xbe95850e	-0.29203075
24	0xbe922aa0	-0.28548145
25	0xbe273daf	-0.16332124
26	0x3d242709	0.04007629
27	0xbe71b5b0	-0.23604465
28	0xbe436a8e	-0.19083616
29	0xbe031635	-0.1280144
30	0xbe7a3cc8	-0.24437249
31	0x3d257486	0.04039433

net.4.weight f4 [64, 32]
0	0xbe39fa62	-0.1816192
1	0xbdd3dd7d	-0.1034498
2	0x3de4bb4d	0.11168537
3	0x3d3b87c2	0.045783766
4	0xbea663bc	-0.32497966
5	0x3ee8143d	0.4532794
6	0x3e1d146f	0.15339826
7	0xbe05f97a	-0.13083449
8	0xbf25b701	-0.64732367
9	0xbe40964e	-0.18807337
10	0xbe98a3e2	-0.29812533
11	0x3f08e92a	0.5348078
12	0x3e54911a	0.20758477
13	0xbe44c689	-0.1921636
14	0xbdc523da	-0.09625979
15	0x3e61dff1	0.22058083
16	0xbe1e8358	-0.15479791
17	0x3dc2fa19	0.095203586
18	0xbf735536	-0.95051897
19	0x3dc8716f	0.09787261
20	0xbda5c855	-0.08094851
21	0x3d95e516	0.07319085
22	0xbcec7bef	-0.02886769
23	0xbdd90813	-0.10597243
24	0x3e125c50	0.14293027
25	0x3d9f910e	0.07791339
26	0x3e70c387	0.23512088
27	0x3f2c97c7	0.67419094
28	0x3d1505f4	0.03638263
29	0xbf3aab15	-0.729173
30	0x3a86ff00	0.0010299385
31	0x3f403d2a	0.7509333
32	0xbde1e6e7	-0.11030369
33	0xbdf5f3b4	-0.12009373
34	0x3b549af5	0.0032440994
35	0xbe3875c8	-0.1801368
36	0x3e1e7795	0.15475304
37	0xbdae6111	-0.08514608
38	0x3dc51d13	0.09624686
39	0x3e29e9cf	0.16593097
40	0x3e71ad6a	0.23601308
41	0xbd80b37e	-0.062842354
42	0xbdb6daee	-0.08928476
43	0xbcb5e10f	-0.022202043
44	0xbd7a8f13	-0.061171602
45	0x3f5b11ad	0.85573846
46	0x3eb8a578	0.36063743
47	0xbe1019cd	-0.14072342
48	0xbde01146	-0.10940795
49	0x3dbf0574	0.09327212
50	0x3e907099	0.28210905
51	0xbe21ff9b	-0.15820162
52	0x3e039e8e	0.12853453
53	0xbd805a73	-0.06267252
54	0x3d5183cc	0.051151082
55	0xbc4ab426	-0.012372052
56	0x3e173a49	0.14768328
57	0x3dfdde5e	0.12395929
58	0xbd500601	-0.050786976
59	0x3ec4608a	0.38354903
60	0x3db0dda2	0.08636023
61	0x3e376878	0.17910945
62	0xba9ac182	-0.0011806937
63	0x3e6873ef	0.22700475
64	0x3cd61712	0.026134048
65	0xbd807f53	-0.06274285
66	0xbe4c0b1e	-0.19926116
67	0x3ccdce94	0.025122918
68	0x3c202012	0.009773271
69	0x3e1697b6	0.1470631
70	0x3e95948c	0.29214895
71	0x3cbda5ec	0.023150407
72	0xbdcd43e6	-0.10022716
73	0x3ec42fdf	0.38317773
74	0x3dd5f4c8	0.10447079
75	0x3e0f5261	0.13996269
76	0x3dd9fcdb	0.106439315
77	0xbec292c9	-0.38002613
78	0xbe8dc56e	-0.2768969
79	0xbd48dcb3	-0.0490386
80	0x3e608911	0.21927287
81	0x3e165e48	0.14684403
82	0xbe855545	-0.26041618
83	0x3e941da9	0.2892888
84	0xbde85d62	-0.11345936
85	0x3e550606	0.20803079
86	0x3d976399	0.073920436
87	0x3d91d09f	0.071198694
88	0x3de5c0b0	0.11218393
89	0xbd867d73	-0.06566896
90	0x3dbadf84	0.091246635
91	0xbeb06e74	-0.3445927
92	0xbe241f14	-0.1602748
93	0xbe1d84de	-0.15382716
94	0xbd8f0b4c	-0.069845766
95	0xbe813267	-0.25233766
96	0xbdbafd7b	-0.09130379
97	0xbd18e098	-0.037323564
98	0xbe281e01	-0.16417696
99	0xbdbff0f9	-0.09372134
100	0x3c856940	0.016285539
101	0x3ded3c36	0.1158375
102	0x3e24803d	0.16064544
103	0xbe08eede	-0.1337237
104	0x3d980716	0.074232265
105	0xbdcc1465	-0.099648274
106	0xbe0bf4d4	-0.13667613
107	0xbbff1460	-0.0077844113
108	0xbdcfaea9	-0.10140736
109	0xbe1be6f9	-0.15224828
110	0xbe292b4e	-0.16520426
111	0xbdf2547a	-0.11832519
112	0x3e14c003	0.14526372
113	0x3dc9e972	0.09858979
114	0xbd8f4fdc	-0.06997654
115	0xbdf251ea	-0.1183203
116	0xbe0b3f65	-0.13598402
117	0xbdd5caa6	-0.10439043
118	0xbd94fa72	-0.07274331
119	0x3dd96fc2	0.10617019
120	0x3d6cf580	0.057851315
121	0xbd8b8506	-0.068124816
122	0x3df93d22	0.12169863
123	0xbde0e913	-0.109819554
124	0xbe13796a	-0.14401785
125	0x3d1e07ac	0.038581535
126	0xbdc7a0e2	-0.09747483
127	0x3d4dfc00	0.050289154
128	0x3e5e6a19	0.2172016
129	0xbdab35c5	-0.08359865
130	0xbe7e0e67	-0.24810182
131	0x3e8f35e7	0.27970812
132	0xbef62a57	-0.48079178
133	0x3e90429a	0.28175813
134	0x3e0e0d73	0.13872318
135	0x3db5b515	0.08872429
136	0xbe8e269e	-0.27763838
137	0x3d46376a	0.04839269
138	0xbe3ac4f7	-0.18239199
139	0x3e2beff6	0.16790757
140	0x3e17320c	0.14765185
141	0x3cc108a6	0.023563694
142	0x3d3269e0	0.043558
143	0x3e4bf841	0.1991892
144	0x3ddb4e61	0.10708309
145	0xbee26206	-0.4421541
146	0xbdfba73e	-0.12287758
147	0xbd27066c	-0.04077761
148	0xbeb8f5c0	-0.36124992
149	0x3e6e7e86	0.23290452
150	0xbe7c99a6	-0.24667987
151	0x3e80396b	0.25043806
152	0x3d94d440	0.07267046
153	0x3c3c332a	0.011486808
154	0x3e7ef635	0.24898608
155	0xbeb82d28	-0.3597195
156	0xbce49a48	-0.027905598
157	0x3e45307f	0.19256781
158	0x3d8701c2	0.06592132
159	0x3e8b5916	0.27216405
160	0x3e4c4b89	0.1995069
161	0xbdd580ec	-0.104249805
162	0xbe1cbc0c	-0.15306109
163	0x3e5facab	0.21843211
164	0xbdc24ae1	-0.09486938
165	0x3b87e74e	0.0041474467
166	0x3e305e24	0.17223412
167	0x3e30d2e2	0.17267945
168	0xbd032a53	-0.032022785
169	0x3e3551bd	0.17706962
170	0xbe9c7639	-0.30558947
171	0x3e298ab8	0.16556823
172	0x3e6a4139	0.22876443
173	0xbe5801b6	-0.21094403
174	0x3e21bd34	0.15794832
175	0x3acfd424	0.001585607
176	0xbeae9d15	-0.3410422
177	0xbe73271c	-0.23745388
178	0x3e679a01	0.22617342
179	0x3e38bc16	0.18040499
180	0xbe024b6f	-0.12724088
181	0x3d484a46	0.048898958
182	0xbd19d611	-0.037557665
183	0x3e1857a0	0.14877176
184	0x3eb857a0	0.36004353
185	0xbe322ba3	-0.17399459
186	0x3cbaf7e0	0.022823274
187	0xbee2d007	-0.44299337
188	0xbda266e5	-0.07929782
189	0xbd38cb9b	-0.04511605
190	0xbdfcc548	-0.12342316
191	0xbecf25c5	-0.40458503
192	0x3e63afbc	0.22235006
193	0x3dc1437e	0.09436701
194	0xbea0436f	-0.31301448
195	0x3e0fb211	0.1403277
196	0xbe141f89	-0.14465155
197	0xbe2e6358	-0.17030084
198	0x3e5b5c94	0.21422035
199	0xbbdeb8a7	-0.0067969146
200	0xbd8115d9	-0.06302995
201	0xbd1791e4	-0.037004367
202	0xbd8ecabb	-0.069722615
203	0x3e5722c5	0.21009357
204	0x3c9648b8	0.018345222
205	0x3d3ff2e1	0.046862487
206	0xbda4e8bf	-0.08052205
207	0x3eb19307	0.34682485
208	0xbedbd259	-0.4293392
209	0xbf031c89	-0.51215416
210	0x3cddbd7a	0.027067889
211	0x3c2ecf37	0.010669521
212	0xbda574dc	-0.0807893
213	0x3d8ff552	0.07029213
214	0xbb1d3b4a	-0.0023991638
215	0x3e05fd92	0.1308501
216	0x3e8fea62	0.28108507
217	0x3dbccc61	0.0921867
218	0xbe322b63	-0.17399363
219	0xbe523b61	-0.20530464
220	0xbe29d573	-0.1658533
221	0xbd1b7404	-0.037952438
222	0xbe1e26d5	-0.154445
223	0xbe1a41e7	-0.15064202
224	0xbe2069bc	-0.15665334
225	0xbd3bedb4	-0.04588099
226	0xbddacffa	-0.106842
227	0x3da56c44	0.08077291
228	0xbe56f364	-0.20991284
229	0x3f0f03a0	0.55864906
230	0x3d7ec962	0.062203772
231	0x3cbde018	0.023178145
232	0xbeb484d2	-0.35257584
233	0x3d1cc2bf	0.03827166
234	0x3e1ed635	0.15511401
235	0x3e41f8e9	0.18942608
236	0x3d62321e	0.055223577
237	0x3e7c5dbf	0.24645136
238	0x3e67585a	0.22592297
239	0xbe9ebe72	-0.31004673
240	0xbdc2c7a5	-0.095107354
241	0x3e5cff31	0.21581723
242	0xbd510dfc	-0.051038727
243	0xbe1fc4d0	-0.15602422
244	0x3e6b52b1	0.22980763
245	0x3dc10dbf	0.0942645
246	0x3d9d7653	0.07688584
247	0xbe84268a	-0.25810653
248	0x3d1e8a20	0.038705945
249	0xbe547c88	-0.2075063
250	0x3e634c9a	0.2219719
251	0x3eebc1fc	0.46046436
252	0x3d186f10	0.037215292
253	0xbd1ec104	-0.038758293
254	0x3d822768	0.063551724
255	0xbde6209a	-0.11236687

net.4.bias f4 [64]
0	0xbd5eefef	-0.054428037
1	0x3e319171	0.17340638
2	0xbcd2e64f	-0.025744585
3	0xbdae2cc8	-0.08504635
4	0xbe00b653	-0.12569551
5	0xbe2fa7f5	-0.17153914
6	0xbe54163e	-0.2071161
7	0xbb0061db	-0.0019589576
8	0x3da1b1c0	0.07895231
9	0x3e82b487	0.25528356
10	0x3e3cfee2	0.18456605
11	0xbbbb640e	-0.0057187146
12	0x3dafb0df	0.08578657
13	0x3df2b678	0.118512094
14	0xbdd99515	-0.10624138
15	0x3e30b5da	0.17256871
16	0xbe60d20b	-0.21955125
17	0x3e36967d	0.17830844
18	0xbd9e95e2	-0.07743432
19	0x3c600ff0	0.013675675
20	0x3d0cdcef	0.034390386
21	0x3e43bcbb	0.19114964
22	0xbc6824bb	-0.0141689135
23	0xbe11bc10	-0.14231896
24	0x3db0e285	0.08636955
25	0x3e37edd5	0.1796182
26	0xbdbc896e	-0.092059
27	0xbded24d5	-0.11579291
28	0xbd91fd65	-0.07128409
29	0xbe27a03f	-0.16369723
30	0xbd88144c	-0.06644496
31	0x3da73a91	0.081654675
32	0x3d922301	0.07135583
33	0x3d6db46b	0.058033388
34	0x3e5c42da	0.21509877
35	0x3d9b6ee1	0.07589508
36	0xbd945fab	-0.0724481
37	0x3d5fba06	0.054620765
38	0xbdd4daeb	-0.10393318
39	0xbda64511	-0.08118642
40	0xbe2ac1a2	-0.16675428
41	0x3d6f7f7d	0.05847119
42	0xbdc20158	-0.094729125
43	0x3e0f4433	0.1399086
44	0x3e40f810	0.18844628
45	0xbe0a0da7	-0.1348177
46	0xbe05b6c6	-0.13058004
47	0xbd42a56b	-0.047521036
48	0x3dcc4a4b	0.09975108
49	0x3ddf9ca7	0.10918551
50	0xbddfce65	-0.109280385
51	0x3dc83433	0.09775581
52	0x3e2ff306	0.1718255
53	0xbe430bba	-0.19047442
54	0x3d84ba0b	0.064807974
55	0xbdecefdd	-0.11569188
56	0xbc9cb343	-0.019128447
57	0x3e01fa83	0.12693219
58	0xbd0f2e8a	-0.034956492
59	0x3dd1a46c	0.10236439
60	0x3e12edfe	0.143486
61	0xbe5ab396	-0.21357569
62	0xbd993013	-0.074798726
63	0x3dbeac32	0.093101874

net.6.weight f4 [32, 64]
0	0xbe25d6f0	-0.16195273
1	0x3d2526c0	0.040320158
2	0x3d0a1e8b	0.033720534
3	0x3d2ada48	0.041712075
4	0x3e69106d	0.22760172
5	0x3e3404e2	0.17579988
6	0x3e902858	0.2815578
7	0x3e0dca26	0.13846645
8	0xbe926271	-0.2859073
9	0xbcee9876	-0.029125433
10	0x3ded6f46	0.11593489
11	0x3eb5991d	0.3546838
12	0x3d989673	0.07450571
13	0x3dc80f1b	0.09768506
14	0xbdef437d	-0.11682794
15	0x3e3cdef3	0.18444423
16	0x3e39448c	0.18092555
17	0x3dceb5d2	0.10093273
18	0x3d8a2049	0.06744439
19	0xbe1c3283	-0.15253644
20	0x3e1e699d	0.15469976
21	0xbe3469e1	-0.17618515
22	0x3e3dd235	0.18537219
23	0xbb988a2e	-0.004655144
24	0xbe3c13d7	-0.18366943
25	0xbd7c6c60	-0.061626792
26	0xbde34270	-0.11096656
27	0x3f0f9f1f	0.56102175
28	0x3e819719	0.2531059
29	0x3ea131ae	0.31483215
30	0x3ec048a4	0.3755542
31	0xbe9a49f4	-0.30134547
32	0xbea86838	-0.32892013
33	0xbe8e0e23	-0.2774516
34	0xbdeb4e37	-0.11489528
35	0xbd49e5e0	-0.04929149
36	0x3e8da14c	0.27662122
37	0xbee1d4f8	-0.44107795
38	0xbddc740a	-0.1076432
39	0x3c9c7fff	0.019104002
40	0xbc99a290	-0.018754274
41	0xbe058718	-0.13039815
42	0x3e69386c	0.2277543
43	0x3e37fdda	0.1796793
44	0xbd409f7b	-0.047027092
45	0x3e4e747c	0.20161623
46	0xbe6d5f85	-0.23180969
47	0xbcd6be47	-0.026213778
48	0xbea20e12	-0.3165136
49	0x3e2c8aac	0.16849774
50	0x3dd3df27	0.10345297
51	0x3d34343d	0.04399513
52	0xbe090fcd	-0.13384934
53	0x3e19973c	0.14999098
54	0xbe808bc6	-0.2510664
55	0x3e817188	0.2528193
56	0x3e178aec	0.14799088
57	0x3dbbfa96	0.09178655
58	0x3d77fdd1	0.060544793
59	0xbe003845	-0.12521465
60	0xbb3478ce	-0.0027537826
61	0x3b1ddb32	0.002408695
62	0x3da22ee7	0.07919102
63	0x3e14511c	0.14484066
64	0xbd785c8c	-0.060635135
65	0xbd51ff60	-0.051268935
66	0xbd33a4f4	-0.043858483
67	0x3b1ffe80	0.0024413168
68	0xbdb7bf7a	-0.08972068
69	0x3c961ed8	0.018325254
70	0xbda411f2	-0.08011235
71	0x3ca1d008	0.019752517
72	0x3dea7ed0	0.11449969
73	0x3cacf3e0	0.021112382
74	0x3dbabcda	0.09118052
75	0xbdb65356	-0.08902614
76	0xbc9082c0	-0.017640471
77	0xbd9e1312	-0.07718481
78	0xbc633820	-0.013868362
79	0xbd4bac08	-0.04972461
80	0xbd915a94	-0.070973545
81	0xbdf747e2	-0.120742574
82	0xbd3dd890	-0.04634911
83	0x3c8921e8	0.0167398
84	0xbcb42480	-0.02199006
85	0xbdee6ca2	-0.11641814
86	0x3dc04d3a	0.0938973
87	0x3dbdd216	0.09268586
88	0xbd9a57bc	-0.07536265
89	0x3c5030a0	0.012706906
90	0x3da9fc7e	0.08300112
91	0xbdf31c26	-0.11870603
92	0xbde2339e	-0.110450014
93	0x3d8e0ba8	0.06935817
94	0xbb224080	-0.0024757683
95	0x3d230a50	0.039804757
96	0xbd54eaf0	-0.051981866
97	0x3cb9a978	0.022663817
98	0x3da9ca26	0.0829051
99	0xbcfa84e0	-0.030580938
100	0xbd2560f8	-0.04037568
101	0xbdf3c2aa	-0.119023636
102	0xbc9e0300	-0.01928854
103	0x3da237e8	0.079208195
104	0xbdf1f008	-0.118133605
105	0xbc1e3380	-0.009655833
106	0x3dba9b78	0.091116846
107	0xbd1221e0	-0.035676837
108	0xbd3d2af4	-0.04618354
109	0xbd1a6f78	-0.03770396
110	0xbd4f70c0	-0.050644636
111	0x3c751e10	0.014960781
112	0xbdf67a52	-0.120350495
113	0x3d43a77c	0.047767147
114	0xbd014f00	-0.03156948
115	0xbc825fc8	-0.015914813
116	0xbc0a2d40	-0.00843364
117	0x3d8f02ac	0.069829315
118	0xbd9f04a4	-0.07764557
119	0xbde8f4b2	-0.11374797
120	0xbdb92d6a	-0.09041865
121	0xbdbbcc96	-0.09169881
122	0xbd7946d4	-0.060858563
123	0x3dca315a	0.09872694
124	0xbdc60ba4	-0.09670189
125	0xbd967be4	-0.07347849
126	0xbdd0b130	-0.10190046
127	0xbd809adc	-0.06279537
128	0x3ed424b4	0.41434252
129	0xbbcdd5b0	-0.006281577
130	0xbc370c96	-0.011172434
131	0x3d2d0654	0.042242363
132	0x3e997ba2	0.29977137
133	0x3e0ec173	0.13940983
134	0x3e86675f	0.2625074
135	0x3e28d801	0.16488649
136	0x3d20ab91	0.03922612
137	0x3e0e4b48	0.13895905
138	0x3e070ec1	0.13189222
139	0x3ecc0738	0.39849257
140	0x3d854164	0.06506613
141	0xbd6ea3f7	-0.058261838
142	0xbc37161f	-0.011174708
143	0x3e4903e4	0.1963039
144	0x3e31bbcc	0.17356795
145	0x3e26b944	0.1628161
146	0xbaee91c2	-0.0018201398
147	0x3efdbf19	0.49559858
148	0x3df9274b	0.12165698
149	0xbbe0ea43	-0.0068638637
150	0x3ecb59b5	0.3971688
151	0xbd5e800a	-0.054321326
152	0xbacf194f	-0.0015800389
153	0x3d5978d9	0.053093765
154	0x3d888942	0.06666805
155	0x3c99bc10	0.018766433
156	0x3da25caf	0.07927834
157	0x3ea7a8af	0.32745883
158	0x3e4f59e3	0.20249133
159	0x3db43a64	0.088002
160	0xbdc0199f	-0.09379887
161	0xbd87a9ad	-0.0662416
162	0xbd15111f	-0.03639328
163	0xbd7e3eec	-0.062071726
164	0x3e4e5e97	0.2015327
165	0x3dddabd4	0.10823789
166	0x3d099e40	0.033598185
167	0xbda7694e	-0.08174382
168	0x3deaa616	0.1145746
169	0x3dc328e7	0.09529286
170	0x3dcdbd7c	0.10045907
171	0xbbfd8817	-0.0077371704
172	0x3dec5998	0.11540526
173	0x3ea305d2	0.31840378
174	0x3e1d4b84	0.15360838
175	0xbf13a776	-0.576774
176	0x3df9c126	0.12195043
177	0x3d8d6273	0.06903543
178	0x3d9e2400	0.0772171
179	0xbd3b4e1d	-0.04572879
180	0x3c603c68	0.013686277
181	0x3e07b041	0.1325083
182	0x3cc6e4b3	0.024278974
183	0x3e02b0eb	0.12762801
184	0x3e3ed1fa	0.18634787
185	0x3df6d0b9	0.120515294
186	0x3df30489	0.118660994
187	0x3c358e79	0.011081331
188	0x3e344a50	0.17606473
189	0x3d2af3a4	0.04173626
190	0xbd54e6d7	-0.05197796
191	0x3d1c14c5	0.038105745
192	0xbf0a656c	-0.5406101
193	0x3e170b3e	0.14750382
194	0x3e31f796	0.17379603
195	0x3d2f4dc0	0.042798758
196	0xbd5743ef	-0.05255502
197	0x3ea8ccaa	0.32968646
198	0xbc233ef1	-0.009963737
199	0xbd82fb78	-0.0639562
200	0x3e166780	0.1468792
201	0x3e745cb0	0.23863482
202	0x3dfa651a	0.12226315
203	0x3c8ef268	0.017449573
204	0x3e35be55	0.17748387
205	0x3f18ade7	0.59640354
206	0x3d5f4db6	0.05451747
207	0x3de43129	0.11142189
208	0x3f5e4474	0.868232
209	0x3dd4b34f	0.10385763
210	0xbdcc2f13	-0.09969916
211	0xbe1f9bd9	-0.15586795
212	0x3de7a8e0	0.11311507
213	0x3cfc3c77	0.03079055
214	0x3e4152ea	0.18879285
215	0xbddd7e02	-0.1081505
216	0x3dcfb164	0.101412565
217	0x3e2e4601	0.17018892
218	0x3df02450	0.11725676
219	0x3e0beefc	0.13665384
220	0x3dfc7a0d	0.12327967
221	0xbe6fe7bd	-0.23428245
222	0xbd436186	-0.047700427
223	0xbddcbcd9	-0.10778207
224	0x3e79c8bc	0.2439298
225	0x3daa93a8	0.083289444
226	0x3e378fc1	0.17925932
227	0x3e2b0511	0.16701151
228	0x3ec25edf	0.37963006
229	0x3e8caf89	0.27477673
230	0x3d8e7614	0.06956115
231	0xbb85412a	-0.004066606
232	0xbdad82dc	-0.08472225
233	0x3dd264e4	0.102731496
234	0x3e00e60d	0.12587757
235	0x3e65cb48	0.22440827
236	0x3d035afe	0.0320692
237	0xbefe0773	-0.49615058
238	0xbe407636	-0.18795094
239	0x3f1e018b	0.61721104
240	0x3e66d761	0.22543098
241	0x3ddb54eb	0.10709556
242	0xbd8e978b	-0.06962498
243	0x3e3c5bae	0.18394348
244	0x3da35baf	0.07976472
245	0x3e703125	0.23456247
246	0x3e2932b4	0.16523248
247	0x3e08637e	0.13319203
248	0x3f65e6f6	0.89805543
249	0x3db49453	0.08817353
250	0x3dc02868	0.09382707
251	0x3e8045fc	0.25053394
252	0x3e32084a	0.17385975
253	0x3f27f853	0.6561329
254	0xbc0092ff	-0.007847547
255	0x3c2ee90e	0.010675682

net.6.bias f4 [32]
0	0xbdfa79c8	-0.12230259
1	0xbcf81318	-0.030282542
2	0x3e0c4a7f	0.13700293
3	0xbc9710bf	-0.018440602
4	0xbb06ab27	-0.0020548792
5	0x3c9841c6	0.01858605
6	0xbe002047	-0.12512313
7	0x3e1e8ed6	0.15484175
8	0x3e352bbb	0.17692463
9	0xbe02ae72	-0.12761858
10	0x3ded6974	0.11592379
11	0xbdf3ff6e	-0.11913954
12	0x3e0a2e84	0.13494307
13	0xbe12969a	-0.14315262
14	0x3c819725	0.015819142
15	0xba262117	-0.0006337328
16	0x3dfc163b	0.123089276
17	0xbbd2affd	-0.006429671
18	0xbc4b6f8a	-0.01241673
19	0xbde23e54	-0.110470444
20	0x3dca701a	0.09884663
21	0x3d19f056	0.037582718
22	0x3d29fe54	0.04150231
23	0x3bfda3ee	0.007740489
24	0xbdca8a16	-0.09889619
25	0xbbdb4ad8	-0.0066922717
26	0x3de9768f	0.113995664
27	0x3dc2cea8	0.09512073
28	0xbd96a0e4	-0.07354906
29	0x3dd45631	0.10368002
30	0x3deec047	0.11657768
31	0xbdad0a21	-0.084491976

net.8.weight f4 [16, 32]
0	0x3e828d12	0.25498253
1	0xbbf194a0	-0.007372454
2	0x3db8ec02	0.0902939
3	0xbe4705d4	-0.19435817
4	0xbdcc30aa	-0.099702194
5	0x3e287ec4	0.16454607
6	0x3dc3d5c1	0.09562255
7	0xbe8843ee	-0.26614326
8	0x3df9163f	0.12162446
9	0xbc4aa40b	-0.012368212
10	0xbe168818	-0.14700353
11	0x3eeee904	0.46662152
12	0x3e49e93b	0.19717877
13	0x3e16af19	0.14715232
14	0x3f06b09f	0.5261325
15	0xbbb7575c	-0.005595131
16	0xbe28b025	-0.16473444
17	0xbd6bd7a1	-0.057578687
18	0x3e9e179f	0.30877396
19	0x3f25d9f5	0.647857
20	0x3e823582	0.25431448
21	0xbdae421e	-0.085087046
22	0x3e79653c	0.24355024
23	0x3e499d52	0.19688919
24	0xbd8194b0	-0.06327188
25	0x3e246086	0.16052446
26	0x3e0b818a	0.13623634
27	0xbd8e3e13	-0.069454335
28	0xbe2557da	-0.16146794
29	0x3e779656	0.24178442
30	0xbeb596e4	-0.35466683
31	0x3eade1cb	0.3396133
32	0x3e86f6cd	0.2636017
33	0xbd048ea0	-0.03236258
34	0x3d75db77	0.06002375
35	0x3e21137d	0.1573009
36	0xbe982f77	-0.29723713
37	0xbe53af3a	-0.20672312
38	0x3dc0d087	0.094147734
39	0xbe6ad20c	-0.22931689
40	0xbe5ab3c6	-0.2135764
41	0x3da41597	0.080119304
42	0xbe21e8b2	-0.15811422
43	0xbdc83292	-0.097752705
44	0xbe591aed	-0.21201678
45	0x3e09022d	0.13379736
46	0x3f16aeaf	0.58860296
47	0x3e88ef79	0.26745203
48	0xbe3df636	-0.18550953
49	0x3e92d93e	0.28681368
50	0x3ebf4fba	0.37365514
51	0x3ecc461e	0.39897245
52	0x3e862316	0.26198643
53	0xbcdb60b4	-0.02677951
54	0x3e879dc3	0.2648755
55	0xbd8a8186	-0.06762986
56	0xbd035e18	-0.032072157
57	0xbbd01c10	-0.0063510016
58	0x3da6c192	0.08142389
59	0x3d85f8ba	0.065415815
60	0x3e088d2b	0.13335101
61	0x3e7506a4	0.23928314
62	0xbe0ec25c	-0.1394133
63	0x3ec8a39d	0.39187327
64	0x3ec9ae68	0.39390874
65	0x3d8282f6	0.06372635
66	0x3df217b3	0.118209265
67	0xbe015355	-0.12629445
68	0xbe831fee	-0.25610298
69	0x3e5d896c	0.21634454
70	0xbe04f5fe	-0.12984464
71	0x3ed81b87	0.42208502
72	0xbf9b3f9a	-1.2128785
73	0xbe705626	-0.23470363
74	0xbdf42fc1	-0.11923171
75	0x3f84b279	1.0366966
76	0x3c8310ff	0.015999315
77	0xbe1826c1	-0.14858533
78	0x3dba2ed5	0.09090964
79	0x3e8da867	0.27667543
80	0xbe481d49	-0.19542421
81	0x3f55e8b6	0.83558214
82	0x3e68e14f	0.22742198
83	0xbf167bb5	-0.5878251
84	0x3dcd8c34	0.10036507
85	0x3d939506	0.07206158
86	0x3f0eedd1	0.5583163
87	0xbecec3d6	-0.40383786
88	0x3e072aa1	0.13199855
89	0x3cc97030	0.024589628
90	0x3e863c02	0.26217657
91	0x3e322f89	0.17400946
92	0xbd349698	-0.04408893
93	0x3dc2a4b7	0.09504073
94	0xbf17d47c	-0.593086
95	0x3e8358ee	0.25653785
96	0xbea84cf9	-0.32871225
97	0x3def17c6	0.11674456
98	0x3e0b5039	0.13604821
99	0x3e6dfe2d	0.23241492
100	0x3e865758	0.26238513
101	0x3e9bbce9	0.30417565
102	0xbe09652d	-0.13417502
103	0xbcc8ddd5	-0.02451984
104	0x3e037fdd	0.12841745
105	0x3f3bdac8	0.7338071
106	0x3deb2a58	0.11482686
107	0x3f4b6431	0.79449755
108	0x3e45a0f1	0.19299676
109	0x3bf44693	0.007454702
110	0xbe83e322	-0.25759226
111	0xbd9c15c3	-0.07621338
112	0x3e644c2e	0.22294685
113	0xbe9f0f95	-0.31066576
114	0xbeb9e72a	-0.36309177
115	0x3d8abd11	0.06774343
116	0x3e5fe6d4	0.21865398
117	0xbd40cc62	-0.047069915
118	0xbe23c52b	-0.15993182
119	0x3cf3fda3	0.02978403
120	0xbe098ef9	-0.13433446
121	0xbce12800	-0.027484894
122	0x3e2a1b98	0.16612089
123	0xbda3e486	-0.08002572
124	0x3e29c1cd	0.16577835
125	0xbd3e12f6	-0.0464048
126	0xbd504fa3	-0.050857197
127	0xbe2f9f9c	-0.1715073
128	0xbe02dbf5	-0.1277922
129	0x3e28dc23	0.16490225
130	0xbd3895ab	-0.04506461
131	0x3e006996	0.12540278
132	0x3dee49d2	0.11635174
133	0x3eb9075d	0.3613843
134	0x3dca3a73	0.098744296
135	0x3e74069c	0.23830646
136	0xbdb7e4dc	-0.08979198
137	0x3f912312	1.1338828
138	0x3e35fd50	0.17772412
139	0x3e108e10	0.14116693
140	0x3e1808d0	0.14847112
141	0x3e0438fd	0.12912364
142	0xbe8c0982	-0.27351004
143	0x3e0670bb	0.13128941
144	0xbd1de070	-0.03854412
145	0x3e9d72b4	0.30751574
146	0xbe83831b	-0.25685963
147	0xbe9a4ae1	-0.30135253
148	0x3c7382d1	0.014862732
149	0x3e103130	0.14081264
150	0xbe30f93e	-0.17282578
151	0xbe111228	-0.14167082
152	0x3da15cee	0.07879053
153	0x3dec6945	0.11543516
154	0xbb22f20f	-0.0024863516
155	0x3d6763fd	0.05649184
156	0x3e114741	0.14187337
157	0x3d7d7bde	0.061885707
158	0xbcf569a4	-0.0299576
159	0x3d719ab9	0.058985446
160	0x3f3075cd	0.6892975
161	0xbcf5d038	-0.030006513
162	0x3e39ffc9	0.1816398
163	0x3e5d84a1	0.21632625
164	0xbc8495bc	-0.01618468
165	0x3d36bbdb	0.044612747
166	0xbe392bcd	-0.18083115
167	0x3e3f8f74	0.18707067
168	0xbeb138c2	-0.34613615
169	0xbe86e2d2	-0.26344925
170	0x3d893e7e	0.067013726
171	0xbe16ff0f	-0.14745735
172	0xbdad69c5	-0.084674396
173	0xbd1be707	-0.03806212
174	0x3e8754cb	0.2643188
175	0x3e825562	0.25455767
176	0x3d8f11d1	0.0698582
177	0x3f17da42	0.5931741
178	0x3e895385	0.26821533
179	0xbeb16f80	-0.3465538
180	0x3e82a12d	0.25513592
181	0x3d90c5ab	0.07068952
182	0x3f0857a3	0.53258723
183	0xbe22ae2e	-0.15886757
184	0x3df71eb6	0.120664045
185	0x3d03dc4c	0.032192513
186	0xbddbc024	-0.10730007
187	0x3e206de8	0.15666926
188	0xbb727100	-0.0036993623
189	0x3e303734	0.17208558
190	0x3e4d9e81	0.20079996
191	0x3eb70f4f	0.35753867
192	0xbea3e4c7	-0.3201048
193	0xbe28f4fc	-0.16499704
194	0x3e6d9bd3	0.23203973
195	0x3c7a7408	0.015286453
196	0x3db8d288	0.09024531
197	0xbc864b05	-0.016393194
198	0xbdb73a53	-0.08946671
199	0x3e0f024e	0.13965723
200	0x3ec60fed	0.38684025
201	0x3f076da5	0.5290168
202	0xbacf5773	-0.0015818909
203	0x3f3623b0	0.71148205
204	0x3e2a3975	0.1662348
205	0xbda8f2aa	-0.082494095
206	0xbe1205e4	-0.1426006
207	0xbbaef3ca	-0.0053391205
208	0x3e62dbf5	0.2215422
209	0xbebe8e20	-0.37217808
210	0xbea6d842	-0.32586867
211	0x3e170d24	0.14751107
212	0xbce826de	-0.028338846
213	0xbd9e6e89	-0.07735927
214	0xbe33961a	-0.17537728
215	0x3d58d583	0.052937996
216	0xbd48d050	-0.049026787
217	0x3e054cda	0.13017598
218	0x3e20d241	0.15705206
219	0x3d8a919f	0.06766056
220	0xbd6830f2	-0.056687303
221	0xbc24831a	-0.010041023
222	0x3d8455a4	0.06461647
223	0xbe22cc3b	-0.1589822
224	0x3dae818d	0.085208036
225	0x3c899948	0.016796723
226	0x3e0632b7	0.13105284
227	0xbc061731	-0.00818424
228	0xbd7f7b80	-0.06237364
229	0xbd94a8f1	-0.072587855
230	0x3dbf9db0	0.093562484
231	0x3df5aafb	0.119955026
232	0xbd8c6b5e	-0.06856416
233	0xbe23c12f	-0.15991662
234	0x3d8a1ac1	0.06743384
235	0x3e87d18b	0.26527056
236	0xbdc2ff66	-0.0952137
237	0xbdce6b7d	-0.100790955
238	0x3f19c980	0.6007309
239	0x3db30b91	0.087424405
240	0xbd518573	-0.051152658
241	0xbe302d3f	-0.1720476
242	0x3ece5ceb	0.40305266
243	0x3e9736e6	0.29534072
244	0x3e7d1761	0.2471595
245	0xbd35b5e0	-0.044362903
246	0x3e470df9	0.19438924
247	0x3db5e662	0.08881833
248	0xbdb972bd	-0.09055088
249	0x3bb2555c	0.0054423045
250	0x3dae10c3	0.08499291
251	0xbe374f8c	-0.17901438
252	0xbd0e99b0	-0.034814537
253	0x3e0a9a5b	0.13535444
254	0x3e022d82	0.12712672
255	0x3e905f1f	0.28197572

net.8.bias f4 [16]
0	0x3d84bd9c	0.064814776
1	0xbcf647b6	-0.030063491
2	0xbdeb45b8	-0.11487907
3	0xbac92eee	-0.0015349069
4	0x3e61e167	0.2205864
5	0x3e54de3b	0.20787899
6	0x3e26ab55	0.16276295
7	0x3e34e25d	0.17664476
8	0xbd3a8e6e	-0.045545988
9	0xbe25cbbc	-0.16191
10	0x3e07ab14	0.13248855
11	0x3e11a89c	0.14224476
12	0xbd8735e7	-0.06602078
13	0xbc81fb8c	-0.015867017
14	0x3c3e8878	0.011629216
15	0xbe3bfb74	-0.1835764

net.10.weight f4 [5, 16]
0	0xbf0ed807	-0.5579838
1	0xbdc54f98	-0.09634322
2	0x3fc1f678	1.5153341
3	0xbe168814	-0.14700347
4	0x3e2de7fd	0.16983028
5	0x3f0de784	0.5543139
6	0xbe346218	-0.17615545
7	0xbd21c005	-0.039489765
8	0xbe910745	-0.2832586
9	0xbc32203d	-0.010871944
10	0xbef42dcf	-0.476912
11	0x3e926b2c	0.2859739
12	0x3e59f5e2	0.21285203
13	0x3d9c8b59	0.07643766
14	0x3d2cd445	0.042194624
15	0x3e00c4ae	0.12575027
16	0xbc0adfba	-0.008476192
17	0xbb58660a	-0.0033019804
18	0x3a91ceea	0.0011124287
19	0x3d6c3b64	0.057673827
20	0x3d2bf7be	0.041984312
21	0xbd1af543	-0.037831556
22	0xbe2cb7ef	-0.1686704
23	0x3d29244a	0.041294374
24	0x3d87381b	0.06602498
25	0xbda71c65	-0.08159713
26	0xbaa94f92	-0.001291739
27	0xbd4f233e	-0.05057072
28	0x3e12e56d	0.14345331
29	0xbda33de4	-0.07970789
30	0xbb81313f	-0.003942638
31	0xbe526cf5	-0.20549376
32	0xba91dd34	-0.0011128546
33	0x3b1c63a4	0.0023863101
34	0xbb1ea067	-0.0024204494
35	0xbe027b25	-0.12742288
36	0x3e0c792b	0.13718097
37	0x3bbfce65	0.0058534616
38	0xbe37d29a	-0.17951432
39	0xbdcf965c	-0.10136101
40	0x3dd64098	0.10461539
41	0xbdfefb40	-0.12450266
42	0x3e1fd577	0.15608774
43	0xbe278585	-0.16359527
44	0x3e40d671	0.18831803
45	0xbd83ec63	-0.064415716
46	0x3b6cfc88	0.0036161263
47	0x3d9a4cd9	0.07534189
48	0xbe52dd1d	-0.2059216
49	0xbee1fba8	-0.4413731
50	0xbddaf6bc	-0.10691592
51	0x3e566870	0.20938277
52	0x3e9a39a9	0.30122116
53	0xbe1b8906	-0.15188989
54	0x3e248785	0.16067322
55	0xbe396af4	-0.18107206
56	0xbe705cd5	-0.23472913
57	0x3e28e915	0.16495164
58	0xbdc83781	-0.097762115
59	0xbe91d9ad	-0.28486386
60	0x3ab2d178	0.0013642749
61	0xbdaef244	-0.08542302
62	0x3f16b95d	0.5887659
63	0xbdf39dc5	-0.118953265
64	0x3bff4e91	0.0077913483
65	0xbb267d29	-0.002540419
66	0xba168c1d	-0.00057429244
67	0xbd5c560c	-0.053793
68	0xbcc4789c	-0.023983292
69	0x3b112adb	0.0022150788
70	0x3e2949a6	0.16532001
71	0xbc897e53	-0.016783869
72	0xbcec464f	-0.02884212
73	0xbcf7386f	-0.030178277
74	0xbd38f65e	-0.04515683
75	0x3da41c3d	0.080131985
76	0x3e473f86	0.19457826
77	0x3d812be3	0.06307199
78	0x39f7d65c	0.0004727122
79	0x3e65ebd2	0.2245324

net.10.bias f4 [5]
0	0x3dba1d8a	0.090876654
1	0x3d54c477	0.051945176
2	0x3d295c4d	0.04134779
3	0x3db4c223	0.08826091
4	0xbd4c1034	-0.04982014
