5 DOF non-linear duffing/linear_5_dof_model_parameters_m1.pth (torch, 27330 bytes, 12 tensors)

net.0.weight f4 [16, 11]
000000 6c 08 62 bd 4f 46 0f c0 09 e7 96 3d e7 1d af be
       -0.055183813 -2.2386663 0.07368285 -0.342025
000010 f2 d8 3b be 4f df c5 be 20 6f bc 3a 4f 4b b5 3d
       -0.18344477 -0.38646933 0.001437638 0.088522546
000020 27 1e 8b 3d 2f 01 bc 3c 9c 7d 7d 3d 21 fa 05 3e
       0.067928605 0.022949783 0.06188737 0.13083698
000030 e2 cb b5 3f e7 3e a8 3e b4 f8 8c be 0a d2 93 bf
       1.4202845 0.3286049 -0.27533495 -1.1548474
000040 a2 f4 86 be 0b 88 6a 3c c7 19 1d be 42 9b 96 be
       -0.26358515 0.014314662 -0.15341865 -0.29415327
000050 5e e6 69 3c b9 14 1d be b6 1d 95 bd b3 5e 9a 3f
       0.014276115 -0.15339936 -0.072810575 1.206015
000060 b2 e0 ae be 38 d3 a8 3e b6 80 5e 3f 86 4e 6e 3e
       -0.34155804 0.32973647 0.8691515 0.23272142
000070 14 a5 51 bd 5a 4e e6 3d d6 d1 9f 3d bb ab 47 3c
       -0.05118282 0.11245413 0.07803695 0.01218694
000080 ed c8 90 3d 79 45 01 3b a9 f0 90 be 56 73 22 3f
       0.070695736 0.0019725247 -0.2830861 0.6345724
000090 0e df 91 bf e1 ef e7 bf 85 e0 2e bf 87 3c bd bb
       -1.1396196 -1.812008 -0.6831134 -0.0057750377
0000a0 40 83 15 3b 5a 3b 32 3c 4c 48 04 bc 8a 67 a1 3c
       0.0022813827 0.010878408 -0.008073878 0.019702692
0000b0 7e 7f bb bd ea 0e a8 bf b3 3f 6b bc e8 77 ce be
       -0.091551766 -1.3129551 -0.014358449 -0.40325856
0000c0 87 06 48 bf 86 7f 50 bd 29 4c 96 bb 23 52 be 3d
       -0.7813496 -0.050902866 -0.0045867157 0.0929301
0000d0 1a ed 0c 3e 1f 44 33 3d 03 41 a8 3d 63 8b 68 ba
       0.13762322 0.043766137 0.08215525 -0.0008870868
0000e0 fe 7e 13 3f 0e 46 4b bf c5 95 b7 3f e7 49 86 3f
       0.5761565 -0.7940377 1.4342581 1.0491303
0000f0 0a df 43 3f bc cd 01 3b 9c 15 d7 3b 7e 64 86 3b
       0.76512206 0.0019806465 0.0065638553 0.004101335
000100 ac a3 22 b9 96 b3 2c bc 76 9a 07 3e 3d 3e df 3f
       -0.00015510496 -0.0105408635 0.13242516 1.7440869
000110 db 5d 27 3e 95 08 4f be 44 2d 19 3e 3c 22 d5 bd
       0.16344397 -0.20218118 0.14958674 -0.1040692
000120 9d 53 cf 3c 0f 30 3a be 58 3a 61 be 09 89 3a bd
       0.025308425 -0.18182395 -0.21994913 -0.045540843
000130 de a2 0a be c3 09 09 3e 10 cc 50 3f 64 9f d9 be
       -0.13538691 0.1338263 0.81561375 -0.42504418
000140 f9 f8 af 3f 8a 05 be 3f e8 af bd 3e ec b0 8f 3b
       1.3747855 1.484544 0.37048268 0.0043851044
000150 a3 47 13 be ae f3 88 be 8c ae 46 bd fd b3 12 be
       -0.14382796 -0.26748413 -0.048506305 -0.14326473
000160 2d c2 e6 bc b6 0d c0 be 45 3d ea be c1 c5 80 3f
       -0.028168762 -0.3751046 -0.4574987 1.006035
000170 18 79 c0 3f 72 d5 89 3e 41 9d 7a bc c5 06 88 3d
       1.5036955 0.26920658 -0.015296281 0.06641916
000180 07 88 7e 3d 0d 8c 0f bd c0 86 48 3d 1a 67 a0 bd
       0.062141445 -0.035045672 0.048956633 -0.07832165
000190 3c 80 00 40 a4 88 4b bd 07 2d 90 be 19 f2 59 3f
       2.0078268 -0.049690858 -0.28159353 0.85135037
0001a0 bf 87 34 bd da 5a fd bc cd 87 c4 3d b5 0a 20 3e
       -0.04407477 -0.03092711 0.095962144 0.15629084
0001b0 bd 50 08 3c 37 2c ad 3d 49 77 27 3d 65 20 00 3f
       0.008320031 0.08455699 0.040885244 0.5004943
0001c0 83 ee a9 3e 24 be c8 be 3b c6 bf be 79 14 6a be
       0.33189783 -0.39207566 -0.37455925 -0.22859372
0001d0 ee 3a 51 3a af 3d 26 bd ee fd aa bd a9 90 83 3b
       0.00079814985 -0.04058617 -0.083492145 0.0040150476
0001e0 3f f7 3b bd 7c 64 c6 3d 84 bb 48 c0 1d 03 82 be
       -0.04589009 0.096871346 -3.136445 -0.25393
0001f0 53 cc 05 3f c4 cf 95 bf 00 ed 6d 3c 73 e5 2b 3c
       0.522649 -1.170403 0.014521837 0.010491717
000200 e9 b6 01 be 50 9c 85 be 61 7e 85 3c 02 3f cc bd
       -0.12667431 -0.2609582 0.016295614 -0.09972955
000210 7e f9 eb bd f7 6a 53 3f 7e e1 47 bd 19 ad ec be
       -0.11522196 0.8258509 -0.04879903 -0.46225813
000220 51 6a 7e bf 4f 66 37 bd eb 77 da bc 05 b6 fe 3d
       -0.99380976 -0.044775303 -0.02666851 0.12437061
000230 9d c1 3a 3e 01 91 b5 3d d9 bb cb 3d ba 3f ec 39
       0.1823792 0.08865548 0.099479385 0.00045060908
000240 44 e2 e6 3e 3c b0 55 3e dd 00 0b 40 37 4e fd 3f
       0.45094502 0.2086801 2.1719277 1.9789494
000250 4b 29 93 be 3c aa d8 bd 0a 81 75 bc 8b 66 84 3d
       -0.28742442 -0.10579345 -0.014984379 0.06464871
000260 78 f1 e2 bc 76 c7 7b bc 93 bf 96 3d 6e 4e 0b bf
       -0.027703032 -0.015367379 0.07360759 -0.5441655
000270 96 db 40 3e 67 ee 42 3c 33 d0 cf be 71 b4 e8 bd
       0.18833765 0.01189766 -0.4058853 -0.113625415
000280 77 72 60 3c fe 23 ac bd ba 7a 0b be 8c 07 7e bc
       0.013699166 -0.084053025 -0.13621035 -0.015504729
000290 e2 90 94 bd 7f 6c 9f 3d 59 2d 3d c0 34 2f bc be
       -0.07254197 0.07784366 -2.9558928 -0.36754763
0002a0 86 13 53 3f b0 f3 5f bd 13 a5 ca 3e 4d aa 45 3d
       0.82451665 -0.054675758 0.39579067 0.048258115
0002b0 d6 77 d0 bd d5 86 f5 bd 7d 3e 31 bd 26 2f 92 bd
       -0.10179107 -0.11988608 -0.043272484 -0.07137899

net.0.bias f4 [16]
000000 20 b7 56 bd 3c d4 0a be b4 1c 13 be f1 3d 46 3e
       -0.052420735 -0.13557523 -0.14366418 0.19359566
000010 df f7 d2 3d 50 48 8b 3d 51 46 ad bd 64 1a 3e be
       0.10301184 0.06800902 -0.084606774 -0.18564755
000020 2e 0e 8f bb c2 99 62 3e f7 60 11 3e de e7 8e be
       -0.004365704 0.22128966 0.14197145 -0.27911276
000030 a4 74 8e bd a7 e8 81 be 86 fe 87 3e 61 ca 74 3e
       -0.06955841 -0.25372812 0.26561373 0.23905326

net.2.weight f4 [32, 16]
000000 a7 c1 03 3e 4d 24 bf bd 9a a9 b2 bd 78 44 c8 bd
       0.12866841 -0.09333096 -0.08723755 -0.097786844
000010 f6 ab 10 be 11 65 31 3d c5 d9 32 be 8c 10 c1 3c
       -0.14128098 0.043309275 -0.17465885 0.02356746
000020 13 e9 b2 bc 8a 5a 93 3d 30 02 35 3e c6 d5 02 3e
       -0.021839654 0.07195003 0.17676616 0.1277686
000030 a0 4b d2 3d bf f9 9c be 5f 80 3f be 5b 10 5c bb
       0.102683306 -0.3065929 -0.18701313 -0.0033579085
000040 67 0a cc bd a4 03 05 3e 0c c1 46 3d 93 27 3a be
       -0.099629216 0.1298967 0.048523948 -0.18179159
000050 6f b0 5a 3d 1d fd 5c 3d 7a 1f c7 3d 83 2d 57 be
       0.053390916 0.053952325 0.097228006 -0.21013455
000060 3f e8 44 bd 5e b0 59 3e 32 e5 36 3e 13 7a 76 be
       -0.04807305 0.21258685 0.17860869 -0.24070005
000070 36 08 81 be 69 08 38 be 08 15 73 3e 47 63 0d bc
       -0.25201577 -0.17971958 0.23738492 -0.008629627
000080 e6 27 2e 3e 88 0c 44 be aa 64 80 be c4 d8 fc 3d
       0.17007408 -0.19145405 -0.250768 0.12346032
000090 c2 a6 44 3d 1d 86 1d be 38 16 9e bc 88 f4 59 bb
       0.048010595 -0.15383191 -0.019297704 -0.0033257324
0000a0 bb 06 d6 3b c2 aa dc bd 35 83 ec 3d e4 c7 d1 bc
       0.006531564 -0.10774757 0.11548463 -0.02560801
0000b0 55 57 1f 3e 9c 94 03 3f b2 87 ad 3d 29 27 06 be
       0.15560658 0.51398635 0.084731475 -0.13100876
0000c0 57 69 99 bb 34 09 8a bd 76 b0 53 be ae ec 53 be
       -0.004681747 -0.067400366 -0.20672783 -0.20695755
0000d0 fc c9 5e 3e af 60 48 3d ad 9b ff 3d 9a 1a 35 3e
       0.21756738 0.04892033 0.12480865 0.17685929
0000e0 8a 2e 21 3e c9 0c d9 3d 35 31 30 be d0 aa 41 be
       0.1574041 0.10598142 -0.17206271 -0.18912816
0000f0 f9 74 4c 3c fd 75 75 3f 3e 67 19 3c 9f 87 0c 3e
       0.01247906 0.9588316 0.009362994 0.1372361
000100 66 87 de 3d 00 55 be bd a5 25 fa 3d 69 8f f3 bc
       0.10865669 -0.09293556 0.122142114 -0.02973147
000110 29 ce e3 3c bb 02 cf 3d 3e 4f 4f be 90 b7 7c be
       0.027808266 0.10107943 -0.20245072 -0.24679399
000120 8b f9 b7 3d fb 42 e4 3d 2e 79 6c 3e 2c 6f d2 3d
       0.089831434 0.11145588 0.23093101 0.102751106
000130 15 74 1d 3e 02 46 01 3e 09 f3 58 bf d2 51 1d 3e
       0.15376313 0.12624362 -0.8474584 0.15363243
000140 4a e0 40 3e 04 c3 06 3e 76 ec ae 3d 9e 00 c8 3d
       0.1883556 0.1316033 0.08541195 0.09765743
000150 81 b7 fa 3b c2 95 44 ba 87 4d 76 3c 40 65 5e be
       0.00765127 -0.00074991223 0.015033132 -0.21718311
000160 ee 2b 56 3e dd 08 e1 bd ca 42 59 3e 53 01 b0 3c
       0.20915195 -0.10988019 0.21216884 0.021485006
000170 de 40 48 3e bf 37 51 3e d1 76 18 3e e7 6a ae bd
       0.19555995 0.20431422 0.14889075 -0.08516484
000180 95 d9 15 3d 0d 1c 4e 3e a3 f7 9b 3e 8e c7 dd be
       0.036584456 0.20127888 0.3046237 -0.4331631
000190 3b 42 79 3d 9d 07 da 3e 95 5d a0 3c 28 d8 4d 3e
       0.060854178 0.42583933 0.019575873 0.20101988
0001a0 49 5e ac 3e ef 81 ab 3d 25 d5 f6 3d 52 78 cc bd
       0.33665684 0.08374392 0.12052373 -0.09983887
0001b0 c6 cc c9 be 55 08 0b 3f b2 2a 20 bb f9 48 f7 bc
       -0.39414042 0.5430959 -0.002443951 -0.030186163
0001c0 a2 a9 b7 3d 1e 88 5e bd 92 3a 6e bc 29 29 7d 3e
       0.08967902 -0.05432903 -0.014540331 0.24722733
0001d0 41 ab 71 3e c3 82 38 3c 82 2e 69 bd 8e a3 b2 3d
       0.23600484 0.011261645 -0.05692912 0.08722602
0001e0 b8 62 a7 bd d9 9a f1 bd 81 ad fe bd ec 20 42 be
       -0.08173126 -0.11797113 -0.12435437 -0.18957871
0001f0 bc 9c bf 3d e6 6c 81 3d 82 aa d5 3d de 27 58 3d
       0.093560666 0.06319599 0.104329124 0.052772395
000200 07 a9 3d be a7 10 69 be e1 76 dd bd 31 b5 30 3e
       -0.1852151 -0.22760259 -0.1081369 0.17256619
000210 84 ff 4f 3c bc ce c9 3c 0d 98 5d bd 8f 44 1e 3d
       0.012695197 0.024634711 -0.054100085 0.0386396
000220 3d 51 2a bd f1 e1 a1 3d 55 1b 2c 3d 51 b6 f5 3d
       -0.04158138 0.07904423 0.042018253 0.11997665
000230 b0 2e 90 3d 13 48 b9 3b 10 8a f8 bd 7a 8d 8d bd
       0.07040155 0.005654344 -0.12135708 -0.0691175
000240 8b 43 9a bb 86 d5 a7 bd e3 e7 1b 3f cc 05 1a 3e
       -0.004707759 -0.08195023 0.60900706 0.15041274
000250 19 fc 2e be 85 e4 9d bd 0a f2 6c 3e 51 88 8a be
       -0.17088355 -0.07709602 0.23139206 -0.27057126
000260 67 7d b8 3e 5e df 88 bd a1 de 55 bc 17 fd f3 3c
       0.36033174 -0.06683229 -0.013053567 0.029783769
000270 bd af be be 24 f6 de bc 08 2d 55 3e 84 2e f2 bc
       -0.37243453 -0.027216978 0.2081796 -0.029563196
000280 93 6a 6a bf b5 8b 73 be bd 30 31 bf d7 c2 1b be
       -0.9156887 -0.23783763 -0.69214994 -0.15211044
000290 06 03 06 bf 6e c8 be 3e 03 87 5a 3e 28 61 0d bd
       -0.52348363 0.3726229 0.21340565 -0.034516484
0002a0 b5 b9 4b be 64 6d 0a be 2d 61 11 3e 93 bf 50 be
       -0.1989506 -0.13518292 0.14197226 -0.2038558
0002b0 0b 9c ab bd bc fe 0a 3e 14 17 16 3e d2 b2 1a 3e
       -0.08379372 0.13573736 0.14657241 0.15107277
0002c0 d1 55 d5 bd c0 b5 35 3e 8a b6 6d be e5 e0 86 3d
       -0.10416759 0.17745113 -0.23214164 0.06585864
0002d0 b2 61 d3 3d 21 32 79 3e 40 81 d4 bd 4d 59 ca bd
       0.10321368 0.24335529 -0.10376215 -0.09880314
0002e0 d1 c9 fc bd b5 a3 0f 3e ab 1e 65 be 22 ad ba 3d
       -0.12343181 0.14027293 -0.2237498 0.09115054
0002f0 0c 79 ef bc de 16 1a bf 44 ec 93 3d e1 e3 cc 3d
       -0.029232524 -0.6019114 0.072227985 0.10004402
000300 1d 3e 2a bd 9b dd fa bd 3b a5 2e be e0 35 56 bd
       -0.041563142 -0.12249299 -0.17055218 -0.052297473
000310 5d 83 b8 3d be e1 d9 bd 2a 03 b7 3d 55 f1 06 be
       0.090094306 -0.1063876 0.0893615 -0.13177998
000320 94 92 32 bd 4c 5e 82 be 36 38 5e bb b7 d8 d1 3d
       -0.04359682 -0.25462568 -0.0033908016 0.10246413
000330 08 2d 34 bc 8d 5d 78 3e 3d 6a d2 3b 78 f4 c3 bd
       -0.010997064 0.24254437 0.006421356 -0.09568113
000340 c8 8b 82 bd 2d 6c 4b 3e eb 0b 20 be d9 b6 3d be
       -0.063743174 0.19865485 -0.15629546 -0.18526782
000350 91 6b 56 bd 46 e9 40 be 6a 7d 3d 3e aa 27 06 3d
       -0.052348677 -0.18838987 0.18504873 0.03275267
000360 a2 22 1e 3e 2e 43 85 3d c6 50 0c 3e 12 ab 9d 3d
       0.15442899 0.06506954 0.13702688 0.07698645
000370 8b de 21 3e 11 19 df 3b e4 b8 1b 3e a4 cf 62 3e
       0.1580755 0.006808408 0.15207249 0.22149521
000380 11 62 aa bc 05 88 89 bd 2e 87 27 be 54 66 bf bd
       -0.020798715 -0.06715397 -0.1636016 -0.093456894
000390 04 4c 3d 3d d9 00 34 bd b0 1a 31 be 03 40 97 3c
       0.046215072 -0.04394612 -0.17295337 0.01846314
0003a0 02 d4 21 3e 08 71 8c bd dc a6 19 be 54 35 8e 3e
       0.15803531 -0.068574965 -0.15005058 0.2777506
0003b0 0b ff ac 3d e7 68 4d be 3e c3 9a 3d 0f 9d 3a 3e
       0.08447083 -0.20059548 0.07556771 0.18223976
0003c0 fb ea a0 3e ad 57 78 bd 68 02 a7 3c a9 cc 61 3e
       0.31429276 -0.06063049 0.02038689 0.22050728
0003d0 db 65 2b 3e 52 a2 9f 3e fc aa 93 3c 16 36 17 bd
       0.16738074 0.31178528 0.018025868 -0.036916815
0003e0 19 73 95 bd c3 dc 01 be 66 a4 29 3e 84 eb 68 3e
       -0.07297344 -0.1268187 0.1656662 0.22746092
0003f0 5b 3f 1e be 7d 31 ea bd c2 aa 73 be cb 61 7a 3c
       -0.15453856 -0.114352204 -0.23795608 0.015282105

net.2.bias f4 [32]
000000 7b 51 62 3e 59 62 41 3e 9b 11 1c 3c 2c bd b4 3d
       0.22101395 0.18885173 0.009525682 0.08825144
000010 3d 43 23 be 47 ab 47 3e 33 6a ef bd dd a1 30 bc
       -0.15943618 0.19498931 -0.11690178 -0.010780779
000020 d9 6f 37 3d 27 a7 94 bd b1 5d ef bd 67 bc 9e 3d
       0.0447844 -0.07258444 -0.11687792 0.07750779
000030 8a b3 29 3e c3 b5 2e be e4 bd 8a 3d 7b de 29 3b
       0.16572395 -0.17061524 0.067745 0.0025919962
000040 64 28 48 3e 6a 16 2c be f5 c0 79 be 6a 0d 07 be
       0.19546658 -0.16805425 -0.24390014 -0.13188711
000050 de ea 27 be 7c 39 0c 3e af 86 39 3e 4a 14 90 3d
       -0.16398188 0.13693804 0.18117784 0.0703512
000060 3e dd bf bd 25 0e 50 be c3 fe 15 3e 9f 88 b8 bc
       -0.093683705 -0.20317896 0.14647965 -0.022526084
000070 af 57 51 3d 70 b4 4d 3e 51 48 06 3e 1a 78 ff 3d
       0.051109012 0.20088363 0.13113524 0.124740794

net.4.weight f4 [64, 32]
000000 5c 71 9d bc eb ff fa bc 17 20 7d 3d fb 23 38 bc
       -0.019219093 -0.03063961 0.06179818 -0.011239047
000010 82 e8 29 be b7 7d 12 3d 83 35 ba 3d 0b ac 11 3e
       -0.16592601 0.035764422 0.09092238 0.14225785
000020 2c e2 f0 3d 60 75 f3 bc bf a3 05 bd db 10 c2 3d
       0.11761889 -0.029719055 -0.032626864 0.09475871
000030 cc 3c ef bd 82 e5 ef bd 37 14 8e 3d ce 2c fe bd
       -0.11681518 -0.11713697 0.069374494 -0.124108896
000040 1f ba d1 bc 29 41 62 3d 0a 57 59 bd 87 75 8a bd
       -0.025601445 0.055237923 -0.053061523 -0.06760698
000050 13 8c 14 3e 6c f9 8c bd 58 ca bf 3a f6 8b 20 3e
       0.14506559 -0.06883511 0.0014632447 0.15678391
000060 55 91 15 be ba dd 18 3e 01 61 82 3d e6 c1 ee 3d
       -0.14606221 0.14928332 0.06366158 0.11658077
000070 83 a4 2c bd 3c 62 49 3d 6a 09 e0 3d 65 e1 b6 3d
       -0.042149078 0.04916595 0.109392956 0.08929709
000080 a3 6c f6 3d 9b 14 eb bd cc c3 a9 3d a7 2b 09 be
       0.120324396 -0.114785396 0.082892984 -0.13395558
000090 1d 4c f4 bd 35 3e 8d 3d 60 b2 bc be ce 2a 12 3e
       -0.1192858 0.06896631 -0.3685484 0.14274141
0000a0 2c 97 fa bd f8 52 33 bf 94 d5 8c bc 89 79 f7 3c
       -0.12235865 -0.70048475 -0.017191686 0.03020932
0000b0 4a 96 fe bd ac 7e fd bd b3 2e 36 bd 76 7e 66 3e
       -0.12431009 -0.12377676 -0.04447813 0.22509179
0000c0 fc 2d 67 bc 15 15 b2 3e dc 61 06 3e 2e ed 0e be
       -0.014110085 0.3478171 0.13123268 -0.13957664
0000d0 fe 24 14 be 7b 7a 21 3e 50 a3 a8 bd 18 a2 ce bd
       -0.14467236 0.15769379 -0.082342744 -0.10089511
0000e0 b9 e5 df 3e 99 08 f4 3d d3 02 e9 bd 71 1d ed 3e
       0.43729952 0.119157024 -0.11377492 0.46311525
0000f0 30 9a 6c bd 98 28 dd bc ee f9 f1 bd be 09 ba 3d
       -0.057764232 -0.026996896 -0.118152484 0.090838894
000100 1d f2 11 3d 36 ed 03 3e cf ed b5 be ea 1e 88 3d
       0.035631288 0.12883458 -0.35532996 0.066465214
000110 c5 ed 0d 3e 69 59 31 be b2 55 04 3e a5 d6 03 3e
       0.13860233 -0.17319264 0.12923315 0.12874849
000120 7c 02 23 3e 92 20 11 be 2d 54 27 be fd 0f 05 be
       0.15918916 -0.14172581 -0.16340704 -0.1299438
000130 1d d4 35 3e 6c 7e c9 bd fd 42 08 be 8c c5 a9 be
       0.17756696 -0.09838566 -0.13306804 -0.3315853
000140 d1 f9 07 3c 22 83 94 bd a2 db 1e 3e d7 1d ca bd
       0.008299307 -0.07251574 0.15513471 -0.09868973
000150 06 11 88 3b 0f 57 01 be 6e d4 cd 3d 2a 7f 50 be
       0.00415242 -0.12630866 0.10050283 -0.20361009
000160 84 9f fd 3d aa cc e1 3d e3 8d cf 3d 70 a5 47 be
       0.12383941 0.11025365 0.101344846 -0.19496703
000170 35 97 b9 be ef 43 02 3e 75 ef ef bd 0d f6 44 3e
       -0.36248174 0.12721227 -0.11715595 0.19234486
000180 48 ca 40 3d 54 47 44 be 1a fb f3 bd 58 6d 86 3d
       0.04706791 -0.19167835 -0.11913128 0.065638244
000190 5f 3b f0 3d b9 fc e4 bd 10 e0 97 3d a3 aa 3b be
       0.11730074 -0.111810155 0.074157834 -0.18326811
0001a0 18 2e f1 3b 5d 34 4e 3d af b1 7e bd c8 45 cd bc
       0.007360231 0.050342906 -0.06218117 -0.025057688
0001b0 43 40 1e bd 68 f1 36 3e 38 89 1b bd 11 3d 1e bd
       -0.038635504 0.17865527 -0.03797266 -0.038632456
0001c0 3a da 01 3d 5a 40 76 3e 0e 67 83 3e 92 eb f4 3d
       0.031702258 0.24047986 0.25664562 0.11958994
0001d0 05 dc 27 bb b8 52 25 be 10 e3 f0 bc 11 30 d9 bc
       -0.002561332 -0.16144836 -0.029405147 -0.026512178
0001e0 7a bc a9 3d d4 84 c0 bd eb 5c b2 bd 9f 6e 93 3e
       0.08287902 -0.09400335 -0.08709129 0.28795335
0001f0 cd 8f f8 bd d0 90 e1 3c 37 4b c3 3d 3d b8 0f bd
       -0.12136803 0.027534872 0.095358305 -0.035087813
000200 a4 3e 81 3d 98 99 17 3d 76 ab 21 3e 15 b9 fd 3c
       0.06310776 0.037011713 0.15788063 0.030972043
000210 45 ed 37 be 5e 6b 9a bb 0a 23 8b be 8b 80 12 be
       -0.17961605 -0.004712506 -0.2717517 -0.14306848
000220 3a 33 a7 bd 6e 89 a3 bd 3c 46 3e be c3 86 0e 3e
       -0.081640676 -0.07985197 -0.1858148 0.13918595
000230 ce a5 dc 3d a5 ca 79 bd 90 8d 40 bd c9 08 11 be
       0.10773812 -0.060984273 -0.047010005 -0.14163508
000240 ed 2c e0 bd 58 92 7e bd f2 14 b4 bd 47 bd 2c 3e
       -0.10946069 -0.062151283 -0.087930575 0.16869079
000250 e8 f5 b5 3e 70 77 f8 3d 22 dd 36 3e 91 22 2b be
       0.35539174 0.12132156 0.17857793 -0.16712405
000260 3b cf 93 3e fc 87 21 be fe 57 c4 3d b3 3e 65 bd
       0.28869042 -0.1577453 0.09587096 -0.055967998
000270 2b 97 78 bc 74 b0 cc 3d ad 3f 66 be b0 d9 05 be
       -0.01517276 0.09994593 -0.22485228 -0.13071322
000280 40 0e fa bc 32 b3 54 bd 76 37 f0 3d 1c 2a 20 bd
       -0.030524373 -0.051928706 0.11729328 -0.03910266
000290 a9 ae 08 3e 90 56 74 bc 00 a5 38 3d 08 29 b6 3c
       0.13347878 -0.014913216 0.04507923 0.022236362
0002a0 56 b5 f0 bd 20 b8 f0 bc 70 f1 2d 3c 74 22 1a bd
       -0.11753337 -0.029384673 0.010616645 -0.037630513
0002b0 1c db 92 bd 28 36 07 bd 30 18 ed 3c 8a ad cd 3d
       -0.07170698 -0.03301063 0.028942198 0.100428656
0002c0 ca 84 c2 bd 58 36 f3 bc 5d 4d 27 be db 35 25 3e
       -0.09497984 -0.029688999 -0.16338105 0.16133825
0002d0 03 7b d9 bd b4 95 76 3d 68 51 8d bc 3b d3 9d bd
       -0.10619166 0.06020136 -0.017250732 -0.07706305
0002e0 58 b3 4c 3d 35 6b 26 3e dd f6 2e 3e ce da bf 3d
       0.049975723 0.16251834 0.17086358 0.093679056
0002f0 be c7 bf 3d 90 9d db 3c 9e cf f0 3d 31 72 24 be
       0.0936427 0.02680853 0.1175835 -0.16059186
000300 c8 2b df bc 60 2a 7b bc ee d1 03 3d 41 2e 07 be
       -0.027242556 -0.015329927 0.032182626 -0.13201238
000310 80 06 5f bc 5a 8e 33 3c bb 72 e5 bc 04 a6 22 3c
       -0.01361239 0.010959232 -0.02800881 0.0099272765
000320 05 cb 2c 3e 32 4c 91 bd 41 fa 05 3e 2b a2 1e bb
       0.16874321 -0.07094611 0.13083746 -0.0024205546
000330 25 ce de bd 0a 0d 45 3d 79 2a 00 3e 72 b3 1e 3e
       -0.10879163 0.04810814 0.12516202 0.1549814
000340 2f 81 e5 bd b0 72 a5 3b e7 28 f9 3d b9 9e 32 3e
       -0.112062804 0.005049072 0.12166005 0.1744336
000350 36 be 61 bd 21 57 0b 3e e6 81 bc 3d 58 fb a6 bd
       -0.05511304 0.13607456 0.09204464 -0.08153409
000360 83 c5 f8 ba d3 8f e7 bc 0a d0 1c be 53 8e 52 3c
       -0.0018979762 -0.028266823 -0.15313736 0.012851316
000370 ea 10 75 3b d9 46 ec 3d ff c0 6d bd a8 00 ed 3d
       0.0037394115 0.115369506 -0.058045384 0.11572391
000380 60 e8 15 be 16 6b 35 3d 4a 9e b4 3c 14 b0 d1 3d
       -0.14639425 0.04429158 0.022048134 0.10238662
000390 68 f1 d0 bc 66 45 0f be 59 ea 05 3e bb b5 fe bd
       -0.025505736 -0.13991317 0.13077678 -0.12437006
0003a0 fc 51 1e be 61 9b 4c 3d 56 79 aa bd bf bf 27 3d
       -0.15460962 0.04995287 -0.08323924 0.040954348
0003b0 30 5d 21 bd ec bb 82 3d 75 e6 ff 3d d9 63 75 3c
       -0.03939551 0.063834995 0.12495128 0.014977419
0003c0 5e 9f 7b 3d 49 81 52 be 42 b5 92 be 5b 26 05 3e
       0.06143128 -0.20557131 -0.28653914 0.13002913
0003d0 41 0e f5 3e 3f 5b 18 be a3 82 10 be f5 a8 48 3c
       0.47862437 -0.14878558 -0.14112334 0.012247314
0003e0 d0 65 a2 3d 12 0a 0f be d4 4c 52 3d 76 9d 8e 3d
       0.079295754 -0.13968685 0.0513428 0.06963627
0003f0 37 51 43 be 2d 0a 88 bc 87 4a 59 bd b7 61 32 be
       -0.1907395 -0.016606415 -0.05304959 -0.17420088

net.4.bias f4 [64]
000000 fe b0 17 3e a6 3f 29 3d 89 1e dd bd bf 21 ed 3d
       0.14813611 0.041320466 -0.1079684 0.11578702
000010 29 ea 5e 3c cb 3d ab bd 88 cf d2 3c c1 43 3e be
       0.013605633 -0.083613954 0.025733724 -0.18580534
000020 58 c2 c1 bd 87 f1 c2 3d 18 cf 36 3d 3b ff ee bd
       -0.09460896 0.09518724 0.044631094 -0.11669775
000030 18 95 4a 3d bc ca 92 bd f1 63 f1 bd 27 c2 0a be
       0.049458593 -0.07167575 -0.117866404 -0.13550626
000040 ab 44 fb 3d 6a c0 2e 3d ea 9d ff bd a0 87 ff bd
       0.12268957 0.04266397 -0.124812916 -0.1247704
000050 3e 28 40 3d 6b 4d 01 be 58 42 98 3d 6c 04 d0 bd
       0.046913378 -0.12627189 0.07434529 -0.101570934
000060 1a 68 34 3c 49 e3 94 3d 39 83 85 bd 32 84 8a 3c
       0.011011148 0.07269914 -0.06519169 0.016908739
000070 a8 76 da bd c4 6e 27 be 66 4c 91 3d 05 c5 4a bd
       -0.10667163 -0.16350847 0.0709465 -0.0495043
000080 48 a9 7b 3d 81 04 37 bd 9c eb f7 bd 8b 36 29 3c
       0.061440736 -0.04468203 -0.12105486 0.010327945
000090 2e c0 52 3d 5c 8b 02 3c a2 62 a2 bc 31 92 9d bd
       0.051452808 0.007967796 -0.019822422 -0.076938994
0000a0 9f d7 dd 3d 69 35 26 be bf 9c da bc f5 19 af bd
       0.10832142 -0.16231312 -0.02668607 -0.08549873
0000b0 fb d5 81 3d 1e 4f 0c 3a 44 9e 94 3d 74 d9 03 be
       0.06339642 0.00053523656 0.07256749 -0.1287592
0000c0 38 9c 4c bd a0 98 37 be 91 8d 31 3e c8 2f ad 3d
       -0.04995367 -0.17929316 0.1733916 0.08456379
0000d0 36 1e 2b 3d ae f4 d7 3c bc f4 8d bd 90 7b 10 3e
       0.04177686 0.02636179 -0.06931445 0.14109635
0000e0 5a 43 af bc 6b 7c 55 3d fa 9a ec bd d6 fb 24 3e
       -0.02139442 0.052120607 -0.11552997 0.16111693
0000f0 08 01 02 3d 66 eb 35 bd 96 d4 6e bd f7 39 9e bd
       0.031739265 -0.044413947 -0.058308206 -0.077259

net.6.weight f4 [32, 64]
000000 f0 f4 68 bc 1c bc 69 bd b8 7f 50 3d f8 65 f1 3d
       -0.014218554 -0.05706416 0.050903052 0.11787027
000010 60 e3 1e 3c d0 54 d2 3c 18 6e 14 3d 4c df fb bd
       0.009697765 0.025675207 0.036237806 -0.1229845
000020 a4 82 f0 3d f4 99 16 3d a0 2e 92 3d 60 3d 39 bd
       0.11743668 0.036767915 0.07137799 -0.045224547
000030 ec 86 e0 bd f8 c3 8e bd 04 69 3f 3d 24 23 97 bd
       -0.10963234 -0.06970972 0.04673101 -0.073797494
000040 48 1a aa bc 50 cf 00 bc 5c 7d 2d bd 2e cd c8 bd
       -0.020764485 -0.007861927 -0.04235588 -0.0980476
000050 e6 31 a0 3d 28 7d 21 3d 12 e1 fb 3d 36 58 ca 3d
       0.07822017 0.039426 0.12298788 0.09880106
000060 c0 40 b6 3b e6 14 a3 bd 60 ca de 3c c0 43 03 bc
       0.005561918 -0.079629704 0.02719611 -0.008011758
000070 88 45 fa bd c8 28 1c 3d ae ec fe bd 0e a9 fd 3d
       -0.12220293 0.03812483 -0.12447487 0.1238576
000080 f0 14 79 bc 00 ac 93 bc 10 4b 60 3d 28 14 3a 3d
       -0.015202746 -0.018026352 0.054759085 0.04542938
000090 68 c0 c6 bc 58 7e 7c bd 5e 94 9d 3d dc 5d 3c bd
       -0.024261668 -0.06164393 0.076943144 -0.04598795
0000a0 40 0e c4 bb 60 a6 47 3c a4 0f d2 bd 48 10 ee bd
       -0.005983144 0.012185663 -0.102568895 -0.11624199
0000b0 d0 72 e8 bd 22 cd d3 bd f6 bf ca bd 14 44 db 3d
       -0.11350024 -0.1034186 -0.09899895 0.10706344
0000c0 40 68 62 3d e4 12 f6 bd e2 65 9d bd dc bc 07 3d
       0.0552752 -0.12015322 -0.07685448 0.033139095
0000d0 08 02 86 3c 46 f3 dc 3d a4 9a 96 3d 6c d1 3b bd
       0.01635839 0.10788588 0.07353714 -0.045854017
0000e0 3c 38 37 bd 58 54 9e bd 6c 8d c1 bd fe 15 93 3d
       -0.044731364 -0.07730931 -0.09450802 0.07181929
0000f0 60 b0 53 bd 10 4c be bc 04 f9 cd 3d 7c e0 14 bd
       -0.051681876 -0.023229629 0.100572616 -0.036346897
000100 d6 d5 fa bd b8 5f 5e bd 5a c2 98 bd 27 91 49 3d
       -0.12247817 -0.054290503 -0.074589446 0.049210694
000110 d3 ea a1 39 38 9c 50 bd 0b 8f 2e bc f9 e9 57 bd
       0.0003088327 -0.05093023 -0.010654221 -0.052713368
000120 16 74 41 bc ec b3 bf 3d 0a fe fb bc e5 4c f3 bd
       -0.011807462 0.09360489 -0.030760784 -0.11879901
000130 c6 5d 40 bd 25 ef 34 3d 6a 77 eb 3b 9a 7d f0 bd
       -0.04696443 0.04417338 0.007185866 -0.117427066
000140 ef 20 f4 3c a9 27 d5 bd 1a 76 ca 3d df c8 00 be
       0.02980086 -0.10407955 0.09885807 -0.12576626
000150 96 ae e1 3c 22 b6 fd 3d c7 d4 d4 bd 45 56 9b bd
       0.02754907 0.12388255 -0.103921466 -0.07584814
000160 38 fe b7 bb 60 44 eb 3c e0 95 0d 3d 23 90 bb 3c
       -0.005615022 0.028719127 0.03456676 0.022895878
000170 72 d6 99 bd 79 df b0 3d 66 9b b2 3d 6e e0 b4 3d
       -0.07511605 0.08636374 0.08721046 0.08831869
000180 86 dd 80 3d b3 5b 7c bb c5 28 c9 bd 06 a6 c9 bd
       0.06292252 -0.0038506805 -0.09822229 -0.098461196
000190 1e cc be 3b c3 bd 91 bc 64 cc 84 bd e7 86 08 be
       0.0058226725 -0.01779068 -0.06484297 -0.13332711
0001a0 99 73 2c bd e8 ac 7c bd 43 6a c3 3d 5b 3a 59 3d
       -0.04210243 -0.061688334 0.09541752 0.053034168
0001b0 6d 28 1b bd 4f 9c 07 bc 3f 5e b1 bc 03 d7 96 bd
       -0.03788035 -0.008277013 -0.021651385 -0.07365229
0001c0 1c 2c c4 bd 10 41 23 bc 80 ed 95 3d f3 cc ce bd
       -0.09578726 -0.009964243 0.0732069 -0.10097685
0001d0 33 e6 e1 bd 6b e2 95 bd 2e cb cd 3d c4 0f cb bd
       -0.11030235 -0.073185764 0.10048519 -0.099151164
0001e0 e2 bd 51 3d 8c 7e 99 bd cc b4 8c bd 38 29 e1 3b
       0.051206477 -0.0749484 -0.06870422 0.0068713687
0001f0 c4 04 cf 3c c0 69 d1 bc f4 af c4 3d 39 d6 06 be
       0.025270827 -0.02556312 0.09603873 -0.13167657
000200 4a f0 ef 3d 0f 05 f1 bd 19 81 c5 bd 5c 91 53 3d
       0.117157534 -0.11768543 -0.09643764 0.051652297
000210 2f d5 89 3d ba f0 be bd 7b fc db 3d c3 0b 96 bd
       0.06730115 -0.09323259 0.10741516 -0.07326462
000220 ea a5 22 be 9f 54 65 3c b4 f5 ef 3d df b3 42 3d
       -0.15883604 0.013997226 0.11716786 0.04753482
000230 06 92 8b 3d 5a d9 07 bd 65 31 0c 3e 99 d0 33 be
       0.06814961 -0.033166267 0.13690718 -0.17560042
000240 83 ff f4 bc 20 5d 88 3c ac a4 85 3d 68 b0 84 3e
       -0.029906994 0.016645968 0.06525549 0.25915837
000250 97 67 ad bd 70 dd 2b 3d 72 4a c7 3d b2 c1 e0 bd
       -0.08467024 0.041959226 0.09730996 -0.109744444
000260 58 60 c6 bd 89 c8 f4 3d 3e ec b7 bd e5 6a d6 3d
       -0.09686345 0.119523115 -0.089806065 0.10469607
000270 2b d4 70 3d 35 04 c3 bd 12 6f d0 bc b0 bb f8 bc
       0.05879609 -0.09522287 -0.025443587 -0.030362934
000280 51 d2 ee 3d d5 f8 9c 3d 44 56 17 bd ca 2d b5 bc
       0.116612084 0.076646484 -0.036947504 -0.02211656
000290 e5 2a 4d bd 4b c1 65 3d ca e4 e7 3d ab 39 74 bc
       -0.050089736 0.05609254 0.11322935 -0.014906327
0002a0 68 df 0a be 0a e4 cd 3d 46 9f fb bc 08 91 d2 bd
       -0.13561785 0.100532606 -0.030715596 -0.10281569
0002b0 d0 82 66 bd 4e 6d 8d bd a8 87 1b 3e 24 d5 94 3d
       -0.056277096 -0.06905614 0.15188468 0.07267216
0002c0 c9 ca ff 3d d7 6f d0 3d 5e 17 e3 3d c0 19 a8 3d
       0.1248985 0.10177582 0.11088441 0.082080364
0002d0 63 41 04 3e b7 fb 8d bd b4 23 4f bd 0f a4 8b 3d
       0.12915568 -0.069327764 -0.05057116 0.06818401
0002e0 1e 87 0f 3c c2 8a 09 3e 2c 7d 33 3d 1a cb d7 3d
       0.008760242 0.13431838 0.043820545 0.105367854
0002f0 55 6a 17 3d 03 5b b5 bd f4 0c 00 bd 8f af a5 3d
       0.03696664 -0.0885525 -0.031262353 0.08090126
000300 ec ac 1d 39 8f c2 5a bd 59 24 62 3d 2e 44 a1 bd
       0.00015037105 -0.0534082 0.055210445 -0.07874332
000310 b1 6a 14 bd d8 4c fe bd ac 27 20 3d c9 8a 09 3d
       -0.03623456 -0.124170005 0.039100334 0.03357962
000320 3e 6a b8 3c ac 6c 68 3d a4 00 d6 3d bf 4c 80 3d
       0.022511598 0.056744263 0.10449341 0.06264638
000330 2d c8 22 3c 7d 55 ac 3c d3 ca d5 bd 94 ec f3 bd
       0.009935421 0.021036858 -0.10439076 -0.11910358
000340 67 2c 80 3d 6d 0a db bb 40 36 cc bd 8f 0e 82 bc
       0.06258469 -0.0066845925 -0.09971285 -0.015876083
000350 ec 38 96 3d 70 99 de 3d 36 03 ee 3a d8 ff b2 3c
       0.07335076 0.1086911 0.0018158916 0.021850511
000360 99 38 fc bd 61 48 83 bd c0 78 37 3c 27 12 e0 bc
       -0.12315483 -0.064102896 0.011198223 -0.027352406
000370 e0 00 01 3d 65 da eb 3d 34 09 08 3d 06 98 fe 3c
       0.031494975 0.11516265 0.0332119 0.03107835
000380 1a 20 2d bc 9c 5d dc 3d 4d fb b7 bd a6 34 bb 3d
       -0.010566736 0.10760042 -0.08983479 0.09140901
000390 cd 59 b5 3d ed 2f c6 b8 2f 60 dd bd 98 05 2b bd
       0.08855019 -9.4503026e-05 -0.10809361 -0.04175338
0003a0 50 88 eb 3d 18 b9 35 3d 66 e6 d3 3d d4 81 cb 3d
       0.11500609 0.044365972 0.103466794 0.09936872
0003b0 70 ef 19 3d 02 2f a2 3b db b3 d3 bd 26 61 6c 3d
       0.03758186 0.0049494514 -0.10337039 0.057709835
0003c0 70 0c ba bc c0 96 6d 3b 2a 6a f0 3c 23 3e ec 3c
       -0.022711009 0.0036253184 0.029347498 0.028838223
0003d0 cc 27 98 3d dd de 30 3d 20 13 14 bc 3d 80 c6 bd
       0.07429466 0.04318129 -0.009037763 -0.09692428
0003e0 6b 7d f7 bc 60 3a d0 3d 38 1c 14 bd e9 78 8d 3c
       -0.030211171 0.10167384 -0.036159724 0.017269569
0003f0 c1 b4 b9 bd 64 1c 55 3d 50 4b 26 bd 97 88 d4 3d
       -0.09067679 0.05202903 -0.040599167 0.10377615

net.6.bias f4 [32]
000000 c0 27 72 bb cf eb 74 3d 9a 20 75 bd 79 cf 91 bd
       -0.0036949962 0.059795197 -0.059845544 -0.071196504
000010 c7 d2 81 3b 93 10 bd bc 24 88 c0 3d ba 8f af 3d
       0.003961894 -0.023079192 0.09400967 0.085723355
000020 23 72 f8 3b b1 d9 a9 bb 22 71 ee bd 6f e1 4d 3d
       0.0075819655 -0.0051834215 -0.11642672 0.05026382
000030 72 44 97 bc 10 55 90 3d ba e4 92 3d fb b0 06 be
       -0.018465254 0.070474744 0.071725324 -0.1315345
000040 00 0e 93 3d 84 5c e5 bd 2f 02 3a bd 7e 26 35 3d
       0.07180405 -0.111992866 -0.04541224 0.044226162
000050 c4 a5 87 3d 6a dd 2f bd 51 b7 33 bd fd 45 b4 3c
       0.06623414 -0.042935766 -0.043875996 0.02200603
000060 c0 9d f0 bd c1 60 44 3d 8a 8c 93 bd 3f ae 0d be
       -0.117488384 0.047943834 -0.0720454 -0.13836001
000070 2b 54 cc bc 42 c1 c3 3d 52 70 67 3d 62 43 1a 3d
       -0.024942478 0.095583454 0.0565036 0.037661918

net.8.weight f4 [16, 32]
000000 05 80 e3 bd 80 c0 11 3e 88 db 49 3e fc 39 14 be
       -0.11108402 0.14233589 0.19712651 -0.14475244
000010 ee c8 0b be 21 38 2c 3e f3 7e ff bd c1 2f 39 3d
       -0.13650867 0.16818286 -0.124753855 0.045211557
000020 2b 53 35 3e 79 58 37 3e 00 30 3f b8 c6 29 4c 3d
       0.17707507 0.17904843 -4.5582652e-05 0.049844526
000030 42 84 06 bd 91 c3 16 bd 18 0f f2 bd b1 3e ea 3b
       -0.032840975 -0.0368076 -0.11819285 0.0071485867
000040 da b7 17 3e f3 e8 df bd 6d 30 19 3e 69 49 a9 3d
       0.14816228 -0.109331034 0.14959879 0.08265955
000050 1b 76 e9 3d a2 6e b7 3d ba ac 05 3e d4 e6 ea 3c
       0.1139948 0.089566484 0.13054171 0.02867452
000060 3d 1a fc 3a 30 31 ba bd 0a d9 0b be 78 6f 2b be
       0.0019233894 -0.09091413 -0.13657013 -0.1674174
000070 42 45 16 bd 84 a9 41 3e bb cf 2d 3d 52 a5 d2 3d
       -0.036687143 0.18912321 0.042434435 0.102854386
000080 1b 2a 05 3e 99 22 c9 bd 54 5a db bd 74 00 13 be
       0.13004343 -0.09821052 -0.10710588 -0.14355642
000090 84 b0 17 be c2 8f 1d bc c5 cc 04 3e 30 9c af bc
       -0.14813429 -0.009616794 0.12968738 -0.02143678
0000a0 b6 b9 ad 3d 03 8b d3 bd 03 10 02 be bc f6 4a 3e
       0.08482687 -0.10329249 -0.1270142 0.19820684
0000b0 17 83 20 3d be aa 1b 3e dd ac 66 bd 40 ca 0d 3d
       0.039187517 0.15201852 -0.0563172 0.03461671
0000c0 ca 4f 06 be e1 3d 2b be c0 39 34 bd 76 d3 3d 3e
       -0.13116375 -0.16722824 -0.044000387 0.18537697
0000d0 1f b9 16 3c 1c 87 9c be 3e 32 31 bd 44 a7 33 3e
       0.00919941 -0.3057183 -0.043260805 0.17544276
0000e0 57 e6 0d 3e 64 a4 61 3d ea 86 e7 bd 05 c5 5d 3d
       0.13857399 0.055088416 -0.1130503 0.05414297
0000f0 bd 80 b2 bc ca 23 9f bb 33 5c 09 bb f2 59 f2 3d
       -0.021789903 -0.0048565613 -0.0020959496 0.11833562
000100 6c c7 3d 3d 69 f4 10 3e e0 b3 a6 3b 20 78 10 be
       0.04633276 0.14155735 0.0050873607 -0.14108324
000110 42 23 30 be 23 5a 18 be 34 f8 db bd 06 8e ad 3d
       -0.1720095 -0.14878134 -0.107407 0.084743544
000120 5a 7a 9d 3d d6 c7 98 3d a2 09 de 3d 33 aa c2 bd
       0.07689352 0.07459991 0.10841681 -0.09505119
000130 38 3d f5 bc ba 0e a8 3d c8 90 84 3d 66 36 fa 3d
       -0.029936418 0.08205934 0.06472927 0.12217407
000140 bf 00 21 be cb 0e 2f 3e 48 e5 9b 3c 84 59 16 be
       -0.15722941 0.17095487 0.019030228 -0.14682585
000150 58 d7 ad bd 92 f0 bd 3d 14 35 34 3d 28 41 04 bd
       -0.08488339 0.09274401 0.04399593 -0.0322887
000160 73 c5 06 3e 9b fd 34 3e ed 81 11 3e 70 3e 3b bd
       0.13161258 0.17674868 0.14209719 -0.045713842
000170 bc f7 2a be d0 6a 04 bd 30 c4 50 3d 40 72 77 3b
       -0.16696066 -0.032328427 0.05096835 0.0037757307
000180 39 e6 9d bd c2 03 8f 3d 1c c8 2f be 4c 52 78 3d
       -0.07709927 0.069831386 -0.1716618 0.06062536
000190 aa bd a3 3d 00 70 dd bb b0 bf 44 3d 36 74 ea bd
       0.0799516 -0.006757736 0.04803437 -0.11447947
0001a0 1c 0c 09 be 42 bf ad bd 60 e8 6b bc 9b 6b 12 bd
       -0.13383526 -0.08483745 -0.014398664 -0.03574715
0001b0 fc 2c b6 bd 7c 34 2a 3d d8 48 da 3c 92 a8 c5 3d
       -0.08895299 0.04155396 0.026646063 0.09651293
0001c0 e0 f0 d1 bd cf 9a 24 be 91 57 0d 3e 22 cd 41 bd
       -0.102510214 -0.1607468 0.13802935 -0.04731477
0001d0 64 c6 36 3e 98 86 a7 3c 03 0b 16 3e 2d 71 1f 3e
       0.17849118 0.020449921 0.14652638 0.15570517
0001e0 1f 0e 40 3d 38 b9 99 bd c8 56 34 be a0 ea d0 bd
       0.046888467 -0.07506031 -0.1761123 -0.10201001
0001f0 98 22 84 bc c3 d5 a3 bd 47 19 38 be 4f fa 03 3e
       -0.016129777 -0.07999756 -0.17978393 0.12888454
000200 58 c6 03 be 68 cc 73 bd 5c 40 1f bd ac a5 7a bd
       -0.12868631 -0.05952111 -0.038879737 -0.061193153
000210 8e 42 18 be 88 3f 2c be 85 93 c6 3d c2 f6 ae 3c
       -0.14869139 -0.1682111 0.09696106 0.021357898
000220 4e 9f 27 be 6e c5 c1 bd 58 65 9b bc 5c e2 06 be
       -0.16369364 -0.09461485 -0.018969223 -0.13172287
000230 5e 19 e0 3d 75 b9 b4 3b f8 99 46 bd 40 96 38 bc
       0.109423384 0.0055152723 -0.04848668 -0.011266291
000240 f1 f8 f7 bd af 28 04 be ed ad 15 3e 58 f3 28 3d
       -0.12108029 -0.12906145 0.14617129 0.041247696
000250 fa c5 f4 bd 7d 30 8c 3c ac ce fa bd 5b b7 bb 3d
       -0.119518235 0.017112965 -0.12246451 0.09165832
000260 67 54 9b bd 70 ab 2f bc e8 07 28 3d 29 74 4d bd
       -0.07584458 -0.010722026 0.041023165 -0.050159607
000270 67 b8 2d bd 10 78 5d bd 41 b8 29 be 41 d7 e0 bd
       -0.042412188 -0.05406958 -0.16574194 -0.109785564
000280 10 55 ec 3c 80 35 99 bb 11 71 e8 bd eb fb 28 3e
       0.028849155 -0.004675567 -0.11349691 0.16502349
000290 08 1a 6b bd 35 89 16 3e 13 98 08 3e 7f 06 1d be
       -0.057397872 0.14700778 0.13339262 -0.1533451
0002a0 b1 5e a5 bd 98 00 e5 bc 43 a0 05 be 47 f4 de bd
       -0.080747016 -0.027954385 -0.13049416 -0.10886436
0002b0 a0 01 01 be 4a 79 ff bd 3c 3a 1d bd 07 a4 f8 bd
       -0.12598276 -0.12474306 -0.038385615 -0.12140661
0002c0 9e df b8 bd 85 74 23 be b2 30 9d bd 79 b4 30 3e
       -0.090270266 -0.15962417 -0.076753035 0.17256345
0002d0 90 a1 fc 3c cf 78 27 3e 53 73 ce bd e8 6f 40 3d
       0.030838758 0.16354679 -0.1008059 0.046981722
0002e0 db f2 0a be 1c 6f 52 3d a7 db 21 3e 7b 64 c9 bd
       -0.13569205 0.051375493 0.15806447 -0.09833618
0002f0 da 39 ab 3d d0 e0 88 bc 59 39 11 be b4 27 7c 3d
       0.08360644 -0.016708761 -0.14182033 0.0615613
000300 fc 5e b1 bd 93 63 a5 bd 64 8f 09 be fe c7 b8 3d
       -0.08660695 -0.08075633 -0.13433605 0.090225205
000310 57 48 86 bd b3 89 e1 bd 63 76 00 be ef 08 9e bd
       -0.065567665 -0.11012592 -0.12545161 -0.07716548
000320 a8 da 20 3d 4a 92 a5 3d de d9 a5 3d d3 8d b6 3d
       0.039271027 0.08084543 0.080981955 0.089137696
000330 a6 e7 b2 bd aa 17 ab bc 30 74 50 3c 98 1f 61 3d
       -0.0873559 -0.020885307 0.012723014 0.05496177
000340 40 66 a4 3c d8 d2 00 3d 58 ef 54 3d c9 f0 64 3d
       0.020068288 0.031451076 0.05198607 0.055893693
000350 7a 78 e0 3d e4 b9 08 bd b7 ab a5 bd c0 7e dd 3b
       0.10960479 -0.033380404 -0.08089393 0.0067594945
000360 fa ee c9 bd 99 56 d7 bd aa 65 bc 3d a6 75 1c be
       -0.09860034 -0.10514564 0.091990784 -0.15279254
000370 02 ba a9 3d a0 30 8b 3d 7b 55 ff bd 0a 4a db 3d
       0.08287431 0.06796384 -0.12467476 0.10707481
000380 73 5d 2b 3e 01 d2 69 be 52 f1 39 3e aa 79 e9 3d
       0.16734867 -0.22834016 0.18158463 0.11400159
000390 0a 9f 23 be b0 be 28 be f7 b6 16 bd 5b 11 47 3e
       -0.15978637 -0.16478992 -0.036795583 0.19440214
0003a0 e6 80 ba 3b 78 4c e1 3d 0e 0e 03 be 1e ce d2 bb
       0.0056916354 0.110009134 -0.1279833 -0.0064332625
0003b0 a5 86 28 be 10 ff 4f 3e 00 93 03 be 48 37 99 3d
       -0.16457613 0.20312142 -0.12849045 0.07481247
0003c0 94 7f 36 be 80 33 6a bc d4 8a 01 be b6 c0 88 3d
       -0.17822105 -0.014294505 -0.12650615 0.06677382
0003d0 0f 7b 68 bc ce d4 9d 3e 4e 70 c9 3c 45 13 3d 3e
       -0.014189496 0.3082642 0.024589684 0.18464382
0003e0 be 4a 18 3c b0 33 ae be 0a 1e de 3d dd c3 26 be
       0.009295164 -0.3402381 0.10845573 -0.16285653
0003f0 7f b7 a6 3d de f5 2d 3e 6f 72 17 3d 93 93 0a 3e
       0.08140468 0.16988322 0.036974367 0.13532858

net.8.bias f4 [16]
000000 79 c3 0f 3e 0b 3a 3c bd f1 46 0a be 69 97 31 be
       0.1403941 -0.04595379 -0.13503624 -0.17342915
000010 35 8c 5e bd e0 8d fc bc 9f 15 35 bd 39 9e 95 bd
       -0.05433293 -0.03082937 -0.044210073 -0.07305569
000020 7c 80 4b 3e 65 42 ec bc d3 fb 31 3d b0 47 0a be
       0.19873232 -0.028840253 0.04345305 -0.13503909
000030 9f db 71 3d 37 ee 3a 3e 14 e7 44 bd 90 2f 90 bd
       0.059047338 0.18254934 -0.048071936 -0.07040322

net.10.weight f4 [10, 16]
000000 b5 9a d5 bd ad fc d7 3d c6 95 7c 3e 61 14 e5 3d
       -0.10429899 0.10546241 0.24666509 0.111855276
000010 60 4d 8a be 7c 99 e4 bd 06 d1 07 be df fa 96 3d
       -0.27012157 -0.11162087 -0.1326333 0.073720686
000020 64 1b 1e be 8e 8a 6a be 9e f0 25 3d 64 17 a0 bd
       -0.15440136 -0.22904417 0.040512674 -0.078169614
000030 f3 49 10 3d 74 7a 11 be 6c 12 69 3e fb 04 07 bd
       0.035226773 -0.14206868 0.22760934 -0.032963734
000040 79 4a 40 be 96 c7 2d 3e 1c 2a 50 3e 4f 32 36 3c
       -0.18778409 0.16970667 0.20328563 0.011120393
000050 02 dc d1 bd 18 5e 2e be a5 88 4d be 32 52 c6 3d
       -0.10247041 -0.17028081 -0.20071657 0.09683646
000060 5c 37 82 be d5 93 31 3e 9d 65 27 be b9 f4 4b 3e
       -0.2543286 0.1734155 -0.16347356 0.19917573
000070 ae 06 69 3d 80 e5 31 be de 1a 64 be 43 58 db 3c
       0.056891136 -0.17372704 -0.22275874 0.026775485
000080 7d b5 d6 3d e8 a4 a1 3d 3e 85 4e be 4d 16 43 be
       0.10483835 0.078927815 -0.20168015 -0.19051476
000090 73 1c ab 3d 82 52 7d be 55 26 e7 3d 89 96 76 3c
       0.08355036 -0.24738505 0.11286608 0.015050539
0000a0 d8 bb 43 be 23 65 27 3d 92 96 d5 3d be 1a 01 be
       -0.19114625 0.040867936 0.1042911 -0.12607858
0000b0 47 33 11 3c b5 3f 75 be 12 04 2a be e9 f6 ab 39
       0.008862323 -0.23950084 -0.16603115 0.00032799624
0000c0 7e 36 9b 3d 5d 39 e7 3d f4 d5 94 3d 93 13 b1 3d
       0.07578753 0.11290238 0.07267371 0.086463116
0000d0 2a 19 bb ba 34 15 9c bd 83 7a 6f be 6c 80 13 3e
       -0.0014274467 -0.07621232 -0.23386578 0.14404458
0000e0 6f 2a 6d bc 7a 3e 34 be 6d a4 06 be 3b 3f 26 be
       -0.014475449 -0.17601958 -0.13148661 -0.16235058
0000f0 8d e8 70 3d 7c ba 24 bd a2 d2 1d be 46 ab 4a be
       0.058815528 -0.040216908 -0.15412381 -0.19791898
000100 cb ab 2b be aa 27 95 bd c4 e2 7d 3e 7d ce 4e 3c
       -0.16764753 -0.07282956 0.24793535 0.012622473
000110 4f 18 56 be 30 d3 b3 3d 5f 28 72 be 49 7b 9f 3d
       -0.2090771 0.08780515 -0.23648213 0.07787187
000120 fd 79 17 3d 51 e3 38 be a8 77 c1 bd 8b e7 ae bd
       0.03698157 -0.18055464 -0.09446651 -0.08540257
000130 7b 1c 6f bd 67 82 fc bd 2a 46 16 3e d0 cb 73 3e
       -0.05837677 -0.1232956 0.14675203 0.23808217
000140 ba 9b d0 be fa 7d 8d 3e 18 91 e3 3d df ba 17 bd
       -0.4074381 0.27635175 0.11111659 -0.03704345
000150 14 05 20 be 40 72 34 3d 81 dc 53 3e 3f 51 c9 be
       -0.15626937 0.04405427 0.20689584 -0.39319798
000160 6e c5 57 3e ca 9e 1e bc ed 13 23 be a0 4e 5e 3e
       0.21071407 -0.009681413 -0.1592557 0.2170968
000170 75 38 ca 3e 0f 5b b9 bd 2c 91 5d be c0 6d 77 3d
       0.39496198 -0.09050571 -0.2163741 0.0604074
000180 2a 0e e6 3d cd d5 17 3e 08 a5 6f 3d db 8a 1c be
       0.1123317 0.14827652 0.058506995 -0.15287344
000190 bb 63 4d 3d c8 95 93 3d d7 c6 30 be cc 58 fe bd
       0.05014394 0.07206303 -0.17263351 -0.124192804
0001a0 5c 58 69 be 9b 01 73 3e f2 d2 f0 3d 9d b4 5e bd
       -0.22787613 0.23731081 0.117589846 -0.054371465
0001b0 32 42 95 3d 3b 02 f6 3b c2 09 11 be c4 4a 90 3e
       0.072880164 0.00750759 -0.14163879 0.28182042
0001c0 a8 bc fe 3d a7 0a 1f 3e e6 e4 25 be 03 73 31 3c
       0.12438327 0.15531407 -0.16200599 0.010830644
0001d0 bb 9a d1 3d b8 02 50 3e 55 d8 8a bd f7 1b 40 3e
       0.102345906 0.20313537 -0.06779543 0.18760668
0001e0 22 5b 8e 3d ef 95 2c be fd 98 19 bd 7a 5c 19 3d
       0.06950976 -0.1685407 -0.037499417 0.03744171
0001f0 58 e7 e7 3d 6c dd e5 3d 04 00 66 3e 9a cd 46 3e
       0.11323422 0.112238735 0.22460943 0.19414368
000200 d0 35 47 3e 8b 31 d9 3e d4 9c 34 be 39 0b 93 be
       0.19454122 0.4242061 -0.1763795 -0.287195
000210 a9 eb 94 bd 24 5a 7a be 11 71 22 be 09 ce e1 3d
       -0.07271511 -0.24448448 -0.15863444 0.11025626
000220 7f 6d 86 3e 91 e0 03 bc 80 6c c1 3d 10 8c ff bd
       0.26255414 -0.008049146 0.09444523 -0.12477887
000230 ee 97 43 bf dd 0f 09 3e c2 12 23 be 6e df 4b be
       -0.764037 0.13384958 -0.15925124 -0.1990945
000240 ce 9c 7b 3d 87 e5 9a 3e 06 20 0a be 50 a4 ce 3c
       0.061428837 0.3025324 -0.13488778 0.025224835
000250 55 e3 46 be 10 04 06 3e f8 30 11 3e 9e 29 98 3e
       -0.19422658 0.13087487 0.14178836 0.2971925
000260 96 aa f0 bd 71 36 5f be f4 65 0b be f4 9b 1f be
       -0.11751287 -0.21798111 -0.13613111 -0.15586835
000270 ad 1b 2a 3e 17 60 5a bd 98 4b 82 3d 1a 1d 7d 3e
       0.1661212 -0.053314295 0.063620746 0.24718133

net.10.bias f4 [10]
000000 2c ea be 3d 77 76 14 3e 87 7a c2 3d c5 0d 03 bd
       0.093220085 0.14498316 0.094960265 -0.031995554
000010 dd e3 75 3d 57 17 6e 3b 87 17 39 3d 01 84 fe bd
       0.06003176 0.003632983 0.045188453 -0.124275215
000020 2e 9d 22 be 89 3d 02 bd
       -0.15880272 -0.031796966
