5 DOF non-linear duffing/non_linear_5_dof_model_epsilon_parameters_m1.pth (torch, 27138 bytes, 12 tensors)

net.0.weight f4 [16, 11]
0.0075596976 0.30357757 0.25695065 0.38815147 1.3335139 -0.01997598 0.37784246 -0.048941836
0.059917048 0.016625736 0.031960625 0.00042003716 -1.1760986 0.26841772 0.01785976 -1.723314
-0.23430508 -0.015169252 -0.12107608 -0.18519185 -0.07585626 0.031460144 -0.19731957 -1.6724333
-0.4297102 0.5081872 1.6084743 0.40125751 0.016803307 -0.06689709 -0.18173338 0.12405383
0.090116866 0.21712248 1.5810091 -0.6664272 0.2354381 0.36385137 -0.027156323 -0.10897332
0.015471364 -0.28508413 -0.19383806 -0.020500181 0.023312764 2.4473808 0.3968532 -0.25264758
-0.50721806 -0.17265053 0.38834986 0.06926281 -0.038562514 -0.017895663 -0.009755545 -0.08708077
2.7926965 0.38113678 -0.24557169 -1.0119745 -0.15496883 0.039962582 -0.10460323 -0.098786175
0.008851722 0.01585144 -0.07110593 0.11223669 -0.28510356 -0.67893434 0.8226161 -0.36960527
0.052491877 0.2022241 -0.4568428 0.1545846 -0.014928963 -0.06523246 -1.968429 0.3449541
-0.23592238 1.0414994 -0.08507813 0.09252386 -0.06365876 -0.06973212 0.0017152381 -0.076785654
0.118577324 -1.1766429 0.10493763 0.38512197 1.0832537 0.3790955 0.09718763 -0.017415885
-0.22237384 -0.13911521 -0.051605336 0.14095774 -1.3017222 0.31916052 -0.2999326 -0.752065
0.22715983 -0.06462967 0.01645103 0.20336443 0.050585132 0.064407885 -0.19275782 -0.7854567
0.2983689 -0.5018687 -1.1363845 0.03554962 -0.045094687 -0.019809203 0.36566025 0.21263269
0.078479126 -0.055418406 -1.256465 0.6486127 0.20808375 0.11245925 0.4302374 0.017375933
0.0070083817 -0.034444086 0.019634606 -0.08604868 0.093677424 -2.8237793 -0.5118465 0.1276405
1.2075261 0.21106778 -0.03608377 0.06811381 0.067881756 -0.06571319 -0.055713065 0.20448402
1.8219976 0.52804494 -0.93564385 -1.5217265 -0.43729848 -0.02810989 0.07581867 0.20494728
-0.1401268 -0.075534016 0.013971579 0.3600697 0.08927676 -0.90723604 0.04048041 0.72258043
0.017846514 -0.09810965 -0.10958963 0.007232509 -0.42762235 -0.0028573594 0.73698443 -0.20654936
0.31042773 1.632783 0.023043483 -0.36772284 -0.07480363 -0.07695598 -0.007831161 0.037299704
00000000: 57b7 f73b 856e 9b3e 098f 833e cabb c63e
00000010: 95b0 aa3f aba4 a3bc 9174 c13e 3c77 48bd
00000020: 946b 753d b232 883c 25e9 023d 6f38 dc39
00000030: 668a 96bf 0c6e 893e a24e 923c 8e95 dcbf
00000040: aced 6fbe 7488 78bc bcf6 f7bd efa2 3dbe
00000050: 875a 9bbd 5adc 003d 240e 4abe 4b12 d6bf
00000060: fa02 dcbe 8e18 023f 7ce2 cd3f a071 cd3e
00000070: 17a7 893c 5701 89bd 5118 3abe ef0f fe3d
00000080: 318f b83d 5b55 5e3e 825e ca3f f99a 2abf
00000090: af16 713e ba4a ba3e f076 debc 672d dfbd
000000a0: 9b7b 7d3c 8cf6 91be 7c7d 46be ffef a7bc
000000b0: 69fa be3c e3a1 1c40 5830 cb3e 065b 81be
000000c0: 0bd9 01bf 4dcb 30be cbd5 c63e a9d9 8d3d
000000d0: baf3 1dbd ed99 92bc b9d5 1fbc 6757 b2bd
000000e0: 8abb 3240 5c24 c33e 2577 7bbe 6188 81bf
000000f0: 26b0 1ebe ceaf 233d 383a d6bd 6850 cabd
00000100: d006 113c e1da 813c fc9f 91bd 5adc e53d
00000110: 18f9 91be a4ce 2dbf f896 523f e73c bdbe
00000120: b901 573d d613 4f3e 4de7 e9be 6d4b 1e3e
00000130: 9c98 74bc 9998 85bd 7bf5 fbbf d39d b03e
00000140: a395 71be da4f 853f 713d aebd 267d bd3d
00000150: 865f 82bd b7cf 8ebd d7d1 e03a cc41 9dbd
00000160: abd8 f23d 3c9c 96bf 8ae9 d63d b52e c53e
00000170: 0fa8 8a3f ce18 c23e 4f0a c73d c2ab 8ebc
00000180: f8b5 63be 3874 0ebe 1e60 53bd 3a57 103e
00000190: d59e a6bf 0269 a33e c490 99be 5587 40bf
000001a0: 969c 683e 8f5c 84bd 4fc4 863c c43e 503e
000001b0: 5b32 4f3d 48e8 833d 4e62 45be b113 49bf
000001c0: cfc3 983e 787a 00bf 0c75 91bf 7a9c 113d
000001d0: 35b5 38bd e946 a2bc d237 bb3e 62bc 593e
000001e0: aab9 a03d 69fe 62bd d8d3 a0bf 7b0b 263f
000001f0: e813 553e 0951 e63d 1448 dc3e f957 8e3c
00000200: 91a6 e53b 3e15 0dbd c1d8 a03c 4a3a b0bd
00000210: f3d9 bf3d cdb8 34c0 5f08 03bf 31b4 023e
00000220: 3790 9a3f 2722 583e 93cc 13bd 417f 8b3d
00000230: 9705 8b3d a394 86bd 6233 64bd 4264 513e
00000240: 3837 e93f f42d 073f 5b86 6fbf efc7 c2bf
00000250: 96e5 dfbe b646 e6bc d246 9b3d b3dd 513e
00000260: 667d 0fbe 94b1 9abd 0de9 643c 0e5b b83e
00000270: bcd6 b63d 9f40 68bf c9ce 253d 08fb 383f
00000280: da32 923c b6ed c8bd 8770 e0bd affe ec3b
00000290: 51f1 dabe 8942 3bbb 03ab 3c3f ad81 53be
000002a0: 62f0 9e3e 09ff d03f b0c5 bc3c 2b46 bcbe
000002b0: a532 99bd 199b 9dbd 454e 00bc 93c7 183d

net.0.bias f4 [16]
0.30095905 0.12019024 -0.12769577 -0.16080467 0.07989837 0.16775568 -0.032194633 0.15084508
-0.044873904 -0.11507395 0.13694838 -0.13971718 -0.17866802 0.13409543 -0.0077016647 0.21719235
00000000: 4e17 9a3e 4d26 f63d aec2 02be fba9 24be
00000010: c2a1 a33d 25c8 2b3e 85de 03bd 2277 1a3e
00000020: b3cd 37bd e4ab ebbd 323c 0c3e 0512 0fbe
00000030: c0f4 36be 5050 093e 3f5e fcbb ac67 5e3e

net.2.weight f4 [32, 16]
-0.22431028 0.4173135 -0.16674332 0.110584855 -0.0411539 0.10275731 -0.16487812 -0.021470679
0.31725094 -0.21017542 -0.032229867 0.012388008 -0.23551409 -0.06004058 -0.14131144 -0.3773627
0.07358703 -0.5750335 0.047638007 0.025587883 0.2566492 0.17045225 -0.023881398 -0.07191922
0.2130133 0.089926705 0.043034278 -0.2379481 -0.32370546 -0.025145505 -0.22725227 0.15141305
0.14325693 -0.17864062 0.21711339 -0.07374719 -0.60159063 0.06654117 0.22677049 0.14144237
-0.011443424 0.13673979 0.052296408 -0.0712961 -0.09744772 -0.42483816 0.61249727 -0.38699877
-0.38088584 -0.616728 -0.091627516 0.10214001 0.15632361 0.60518193 0.025755264 -0.18494627
-0.08791624 0.12170264 -0.08089782 -0.11241097 -0.46321914 0.09497557 0.07857001 0.7021734
0.31323653 0.019483604 0.15851511 0.06823397 0.061892718 0.23417598 0.0061931447 0.06852854
-0.15404311 0.11006804 0.023029068 0.059827328 -0.5771461 -0.040008463 0.110884875 0.38914123
-0.22888002 -0.061694056 -0.1239976 -0.18122998 0.09615478 -0.17260689 0.11817491 0.03000769
-0.13235456 -0.02845025 0.021680206 -0.11141622 -0.16062728 -0.14088458 0.060318977 -0.22028539
0.24414416 0.3431255 0.29881427 0.13674606 0.33269227 -0.3011003 0.21680064 0.10695945
-0.0059450734 -0.4633404 0.12873466 -0.06689671 0.023220032 -0.19089346 -0.1629684 0.38584986
0.36051914 -0.3578821 0.249919 0.1980315 0.05914404 -0.19495822 -0.12244561 0.19358
-0.081528716 -0.16401881 -0.18277931 -0.09463228 0.13876314 -0.13818197 0.020519517 0.5024954
-0.13212232 0.085446596 0.1489607 -0.22358395 -0.16579431 0.18330635 0.1920897 -0.22244096
0.040680792 0.052690197 0.13366166 0.10261193 0.094368994 0.13670528 0.08090038 -0.43179265
0.26015237 -0.622703 0.26676068 0.14616288 -0.047938317 -0.16908543 -0.04987135 0.032491483
0.09426564 0.015293226 -0.2035427 0.09387729 0.24250545 -0.3243806 0.07917369 0.33663142
0.2169836 -0.41859266 -0.0153510785 0.10536003 0.10445635 -0.052572817 -0.064779714 0.2711464
0.24626797 -0.12575781 -0.08182556 0.26972008 0.08055644 -0.04465686 0.054010622 0.46076334
0.041114155 -0.5391973 -0.04611355 0.13597703 0.141076 0.38668385 0.19978982 0.0031338497
0.05756328 -0.027930927 -0.17945844 -0.19273745 -0.49596834 0.025182033 0.0745061 0.17660935
0.13655536 0.16481039 -0.04068327 0.14937913 0.44144446 0.47928777 -0.06483941 -0.07915189
-0.28021914 0.042567004 -0.023522114 -0.044391055 -0.2887132 0.24236915 0.070233874 -0.20469297
0.3095409 -0.22932678 0.083490536 -0.048580024 -0.00851389 0.18615833 0.06395311 -0.086485974
0.18165627 -0.070556164 -0.07357873 -0.3054223 0.17181177 -0.08644744 -0.01562917 0.50446206
-0.26943946 0.3800124 0.21025923 -0.3650438 -0.36550543 0.13778749 0.058703117 -0.10838699
0.2969648 0.29479167 -0.20624188 -0.048860505 0.18125309 -0.035740692 -0.1201979 0.021234605
0.2998485 0.5139491 0.12906823 -0.021159055 0.1965896 -0.20161732 0.1303891 0.23766342
0.35615948 0.13308164 -0.08494701 -0.20121583 0.28125143 -0.23099127 -0.08407697 -0.1372685
00000000: 98b1 65be 1daa d53e c3be 2abe 507a e23d
00000010: fe90 28bd 6d72 d23d cfd5 28be 47e3 afbc
00000020: b76e a23e 3a38 57be 7703 04bd 12f7 4a3c
00000030: 9b2a 71be 1ced 75bd f2b3 10be af35 c1be
00000040: ccb4 963d 6535 13bf 1220 433d ae9d d13c
00000050: 8667 833e 098b 2e3e eca2 c3bc 624a 93bd
00000060: 2920 5a3e 7e2b b83d b644 303d aba8 73be
00000070: b9bc a5be f2fd cdbc d2b4 68be 060c 1b3e
00000080: f2b1 123e 91ed 36be f952 5e3e c408 97bd
00000090: d801 1abf bd46 883d 8636 683e 45d6 103e
000000a0: 337d 3bbc 8405 0c3e c234 563d b103 92bd
000000b0: ac92 c7bd 6384 d9be 9fcc 1c3f b424 c6be
000000c0: 7803 c3be e3e1 1dbf 35a7 bbbd c82e d13d
000000d0: 4c13 203e 34ed 1a3f b4fc d23c 8e62 3dbe
000000e0: 6e0d b4bd 3c3f f93d c2ad a5bd b937 e6bd
000000f0: 0f2b edbe 8d82 c23d 50e9 a03d a3c1 333f
00000100: 8a60 a03e 149c 9f3c c951 223e 40be 8b3d
00000110: 3883 7d3d d4cb 6f3e ddef ca3b b158 8c3d
00000120: 7abd 1dbe 5a6b e13d 75a7 bc3c 800d 753d
00000130: d9bf 13bf eadf 23bd 9c17 e33d 853d c73e
00000140: 865f 6abe e8b2 7cbd 74f2 fdbd 5a94 39be
00000150: ccec c43d dcbf 30be b005 f23d b0d2 f53c
00000160: f487 07be 8010 e9bc b09a b13c 302e e4bd
00000170: 7a7b 24be 0c44 10be 0811 773d 7e92 61be
00000180: ed00 7a3e 25ae af3e 2ffe 983e 2907 0c3e
00000190: a456 aa3e d229 9abe fd00 5e3e 8e0d db3d
000001a0: e4ce c2bb f43a edbe 05d3 033e 2401 89bd
000001b0: f037 be3c 9379 43be 30e1 26be 1d8e c53e
000001c0: f795 b83e 533c b7be c4ea 7f3e c5c8 4a3e
000001d0: 0541 723d 21a3 47be c4c4 fabd d639 463e
000001e0: 87f8 a6bd 8cf4 27be 802a 3bbe 92ce c1bd
000001f0: ed17 0e3e 937f 0dbe 8c18 a83c 8aa3 003f
00000200: 134b 07be a0fe ae3d 2789 183e 31f3 64be
00000210: fcc5 29be a9b4 3b3e 2ab3 443e 90c7 63be
00000220: e7a0 263d add1 573d 9ade 083e 3426 d23d
00000230: 8844 c13d 78fc 0b3e 19af a53d ed13 ddbe
00000240: b132 853e 7769 1fbf db94 883e b9ab 153e
00000250: f85a 44bd bb24 2dbe e745 4cbd ca15 053d
00000260: 580e c13d 7090 7a3c 7f6d 50be bd42 c03d
00000270: 5953 783e 3715 a6be d125 a23d f45a ac3e
00000280: f330 5e3e c751 d6be 1783 7bbc 00c7 d73d
00000290: 36ed d53d 9856 57bd 3aab 84bd b3d3 8a3e
000002a0: ac2d 7c3e a8c6 00be 2994 a7bd c018 8a3e
000002b0: c6fa a43d 1dea 36bd 3e3a 5d3d 2ce9 eb3e
000002c0: 5167 283d d608 0abf 90e1 3cbd 903d 0b3e
000002d0: 3a76 103e 6dfb c53e b495 4c3e 4661 4d3b
000002e0: 79c7 6b3d 66cf e4bc f4c3 37be f75c 45be
000002f0: 90ef fdbe 8d4a ce3c a796 983d 15d9 343e
00000300: 2bd5 0b3e 0ec4 283e 80a3 26bd d8f6 183e
00000310: 0205 e23e 3565 f53e 86ca 84bd 631a a2bd
00000320: e278 8fbe bd5a 2e3d 73b1 c0bc 65d3 35bd
00000330: 37d2 93be 9e2f 783e c7d6 8f3d 099b 51be
00000340: 257c 9e3e a4d4 6abe 16fd aa3d d9fb 46bd
00000350: d87d 0bbc 4aa0 3e3e d9f9 823d 8f1f b1bd
00000360: 1a04 3a3e c07f 90bd 72b0 96bd 5060 9cbe
00000370: 6def 2f3e 5b0b b1bd bf08 80bc 6d24 013f
00000380: f8f3 89be fc90 c23e 324e 573e 05e7 babe
00000390: 8723 bbbe 2a18 0d3e ae72 703d 00fa ddbd
000003a0: c50b 983e efee 963e 1231 53be f421 48bd
000003b0: 699a 393e d564 12bd 512a f6bd 32f4 ad3c
000003c0: be85 993e 2b92 033f 762a 043e c155 adbc
000003d0: c94e 493e c574 4ebe b884 053e 0a5e 733e
000003e0: 895a b63e 8e46 083e b3f8 adbd 860b 4ebe
000003f0: 3000 903e fa88 6cbe 8c30 acbd 1d90 0cbe

net.2.bias f4 [32]
0.07977022 0.09469658 -0.08286225 -0.07478119 -0.07830528 -0.13070843 -0.1574885 0.07893236
0.038796425 -0.116036065 0.03654792 0.13277695 -0.14124855 0.012233337 -0.04839757 0.17614542
0.16664773 0.026449036 -0.097884834 0.22229996 0.12191365 0.062468957 0.19701724 -0.24921009
0.14814173 0.17408597 0.26644737 0.1563926 -0.16764404 0.24892494 0.19122823 -0.21881917
00000000: 925e a33d 48f0 c13d afb3 a9bd e126 99bd
00000010: 855e a0bd 6ed8 05be aa44 21be 4aa7 a13d
00000020: 00e9 1e3d 51a4 edbd 46b3 153d aef6 073e
00000030: 76a3 10be 566e 483c 883c 46bd 775f 343e
00000040: b4a5 2a3e a6ab d83c d877 c8bd 9aa2 633e
00000050: ddad f93d 73df 7f3d e3be 493e ee30 7fbe
00000060: 77b2 173e 9843 323e ca6b 883e 6225 203e
00000070: e1aa 2bbe 2ee6 7e3e 55d1 433e 2212 60be

net.4.weight f4 [64, 32]
0.18162408 0.19193912 -0.15949541 0.5271928 0.07353396 0.14178465 -0.23905228 -0.15335622
0.02447306 -0.5482981 -0.18198864 0.01661606 0.38728192 0.12743814 -0.1956866 -0.08229248
0.07160274 -0.024206309 -0.1302005 0.19116513 -0.16043343 0.15687828 -0.0035096707 -0.1756388
0.017735174 0.0032498385 0.11364697 -0.038283214 0.19839172 0.15374993 -0.097923934 -0.019007895
-0.027162818 0.16306388 0.147056 0.4034849 0.12549199 0.09995581 -0.03564521 0.29799813
-0.07002331 0.49033296 0.0745244 -0.02723576 0.06766118 0.18521915 -0.12928611 0.16931583
0.17281838 0.15338276 -0.048176274 0.13461933 0.2636611 0.16717264 0.10637737 0.13045861
-0.058506154 -0.00962727 -0.07607051 0.1267112 -0.018739663 -0.037843727 0.20308335 -0.08415477
-0.32440284 0.11780418 0.011767562 -0.07748736 0.07717553 -0.10810091 -0.202466 0.15540604
0.021770995 0.35015714 0.061963618 -0.1693089 -0.013235986 0.08081147 -0.11219648 -0.07939073
-0.15539442 -0.104296416 -0.08131529 0.06380272 -0.053699456 0.1349078 0.08845841 -0.13831222
0.026528578 -0.114773475 0.16694558 0.1885338 0.13338117 -0.05148503 0.00915747 0.03999928
0.3234136 0.08065269 -0.048170757 0.54335976 -0.109705076 -0.10971828 0.22229758 -0.038989358
0.13323456 -0.24686751 -0.016944584 -0.17166288 0.16816062 -0.045331117 -0.07256021 0.20135088
0.015095238 0.07629373 -0.07556656 0.26237124 0.080403455 0.26732463 0.118146166 -0.17373422
0.1606283 0.026467284 -0.04931673 -0.15426707 0.09199597 -0.1372361 0.103902884 -0.11228262
0.094510086 -0.0961203 -0.13268045 -0.0060461066 0.008131714 -0.16535917 0.043279853 -0.066770054
0.17056921 -0.5467075 -0.20107204 0.021243587 0.009950361 -0.17085195 -0.018301897 0.09897197
0.20082276 -0.15911421 -0.018414512 -0.018644711 0.008360881 0.0706515 0.07650292 -0.014349267
0.06388744 0.12946896 0.04754586 0.0399216 -0.02883555 0.20334002 0.16262014 -0.04139896
0.4902326 0.022307722 0.15547329 -0.029379006 -0.2258933 0.08223306 -0.039489713 0.076749176
0.085445374 0.5127539 0.108177856 -0.0777515 0.016821805 -0.030138899 0.28370312 0.14164871
0.010659666 0.000692342 0.14501314 -0.01689173 0.21257333 0.1031724 -0.10981126 -0.124633245
0.10673266 -0.06523421 0.31299022 -0.09316326 0.064687304 0.15563692 0.21847565 -0.32351014
-0.6147064 -0.0024061096 -0.038928986 -0.62064517 0.1317798 0.113576725 -0.39449525 0.089576684
-0.035281807 -0.27632454 -0.19487816 -0.16664708 -0.01842396 0.107083686 0.27934352 -0.046044428
-0.18589367 -0.13852406 0.16039519 0.0840424 0.05869014 0.026075626 0.11671121 0.019158289
0.044334948 0.08416848 -0.073565714 -0.070008315 -0.24261935 0.08653146 0.07282914 0.008689866
0.122392625 -0.30931702 0.03514219 -0.05361786 -0.18182142 -0.10104252 0.18937568 0.23270246
-0.051998887 0.27721748 -0.099549554 -0.61417323 -0.19291495 -0.11073933 0.2449922 0.061445292
0.094437435 -0.09750615 -0.005594 0.018036192 0.45950332 0.027677517 -0.14002918 0.09239097
0.181794 -0.36076504 0.3002185 -0.28023106 -0.39274597 -0.21795818 0.33209428 -0.06819804
00000000: aafb 393e b08b 443e c452 23be 1bf6 063f
00000010: f998 963d ff2f 113e 1fca 74be 6a09 1dbe
00000020: ba7b c83c 445d 0cbf 3b5b 3abe 671e 883c
00000030: d149 c63e 257f 023e 1162 48be f688 a8bd
00000040: 75a4 923d 4f4c c6bc 4853 05be cbc0 433e
00000050: a948 24be b3a4 203e 8102 66bb a8da 33be
00000060: 5b49 913c 3efb 543b bebf e83d dcce 1cbd
00000070: 3327 4b3e 9f70 1d3e 588c c8bd 72b6 9bbc
00000080: 8f84 debc 38fa 263e d995 163e 9395 ce3e
00000090: f980 003e a2b5 cc3d b600 12bd 3693 983e
000000a0: 6268 8fbd ec0c fb3e 40a0 983d 871d dfbc
000000b0: f291 8a3d 17aa 3d3e 9463 04be 2161 2d3e
000000c0: 4df7 303e 5f10 1d3e 7c54 45bd a6d9 093e
000000d0: 96fe 863e 4e2f 2b3e 61dc d93d f196 053e
000000e0: 26a4 6fbd b2bb 1dbc dbca 9bbd 95c0 013e
000000f0: ec83 99bc 0602 1bbd 15f5 4f3e 5659 acbd
00000100: 2118 a6be 5143 f13d bbcc 403c b1b1 9ebd
00000110: 340e 9e3d 0364 ddbd 3f53 4fbe c322 1f3e
00000120: 1659 b23c cc47 b33e 90cd 7d3d 505f 2dbe
00000130: c0db 58bc 7c80 a53d 45c7 e5bd 9b97 a2bd
00000140: b71f 1fbe 5c99 d5bd a188 a6bd 00ab 823d
00000150: f6f3 5bbd 4525 0a3e af29 b53d b8a1 0dbe
00000160: 7652 d93c 5b0e ebbd c8f3 2a3e 010f 413e
00000170: 1395 083e f8e1 52bd 3709 163c 49d6 233d
00000180: 7896 a53e 3d2d a53d b34e 45bd a019 0b3f
00000190: 0ead e0bd fab3 e0bd faa1 633e 4eb3 1fbd
000001a0: a46e 083e d6ca 7cbe 5ecf 8abc 65c8 2fbe
000001b0: 4c32 2c3e 1fad 39bd 739a 94bd ed2e 4e3e
000001c0: 0452 773c e33f 9c3d a4c2 9abd 8655 863e
000001d0: 91aa a43d c6de 883e 9ef6 f13d 62e7 31be
000001e0: bf7b 243e ebd1 d83c 5700 4abd 30f8 1dbe
000001f0: 6268 bc3d 9f87 0cbe 09cb d43d 6ef4 e5bd
00000200: 818e c13d b8da c4bd 62dd 07be 6b1e c6bb
00000210: e13a 053c ea53 29be 3746 313d bdbe 88bd
00000220: b2a9 2e3e 06f5 0bbf d4e5 4dbe 0807 ae3c
00000230: d706 233c d0f3 2ebe dced 95bc d1b1 ca3d
00000240: 7ba4 4d3e d6ee 22be 08da 96bc cbbc 98bc
00000250: 14fc 083c bcb1 903d 90ad 9c3d 3019 6bbc
00000260: 6bd7 823d 8393 043e 73bf 423d d584 233d
00000270: 8838 ecbc 5e38 503e e585 263e f591 29bd
00000280: c4ff fa3e afbe b63c 6434 1f3e 3eac f0bc
00000290: 9350 67be ce69 a83d f7bf 21bd ac2e 9d3d
000002a0: fcfd ae3d d743 033f 5a8c dd3d 2e3c 9fbd
000002b0: e2cd 893c dae5 f6bc 8941 913e 5c0c 113e
000002c0: e1a5 2e3c 497e 353a 537e 143e 8660 8abc
000002d0: d3ac 593e 0d4c d33d bae4 e0bd b73f ffbd
000002e0: a796 da3d 8399 85bd 4140 a03e 61cc bebd
000002f0: c77a 843d 495f 1f3e 15b8 5f3e 1fa3 a5be
00000300: 665d 1dbf d2af 1dbb 0074 1fbd 9ae2 1ebf
00000310: 49f1 063e ea9a e83d 48fb c9be fb73 b73d
00000320: a883 10bd 697a 8dbe 248e 47be 88a5 2abe
00000330: d8ed 96bc b14e db3d 1d06 8f3e 1599 3cbd
00000340: e95a 3ebe 40d9 0dbe a33e 243e 6c1e ac3d
00000350: 1265 703d 8d9c d53c 4906 ef3d d8f1 9c3c
00000360: 9098 353d 8660 ac3d 9fa9 96bd 8560 8fbd
00000370: 3571 78be 6837 b13d 7227 953d f15f 0e3c
00000380: fca8 fa3d cd5e 9ebe 42f1 0f3d 679e 5bbd
00000390: 652f 3abe 61ef cebd b3eb 413e 8e49 6e3e
000003a0: c9fc 54bd 73ef 8d3e a3e0 cbbd 753a 1dbf
000003b0: 7f8b 45be 4dcb e2bd 3cdf 7a3e 0fae 7b3d
000003c0: 6a68 c13d 4eb1 c7bd e04d b7bb a3c0 933c
000003d0: 0544 eb3e f6bb e23c cf63 0fbe 7a37 bd3d
000003e0: 3528 3a3e 32b6 b8be 3db6 993e 727a 8fbe
000003f0: 0016 c9be 6e30 5fbe 4308 aa3e 6aab 8bbd

net.4.bias f4 [64]
0.116480395 0.053721506 0.050816152 -0.14472267 0.0653018 0.13296296 0.20556311 0.11786732
0.12804519 0.06445893 -0.033134393 -0.019520018 -0.03540734 0.02906968 -0.030151013 0.10152565
-0.18669939 -0.10685144 0.010764039 0.18243699 0.06904579 0.1275941 0.16371755 0.15522547
0.014365933 0.0077637145 -0.09035103 0.01485352 -0.15635279 -0.15536855 0.084838256 -0.13548365
0.120302185 0.09034612 0.123691015 0.06783447 -0.16061068 -0.032574214 -0.12822425 -0.2272543
0.079766914 0.09285648 0.20711549 -0.008226477 -0.10178477 0.0034959917 -0.0066322554 -0.20390126
0.01738265 0.18772565 0.13219239 -0.016451707 -0.04236646 -0.10503509 0.12962931 0.1172267
-0.012394358 -0.17175351 0.13176079 0.015689922 -0.16147682 -0.016011178 -0.055361155 0.038290307
00000000: 468d ee3d 150b 5c3d 9924 503d 2e32 14be
00000010: f3bc 853d 7127 083e 237f 523e 6c64 f13d
00000020: 471e 033e 0b03 843d eeb7 07bd 72e8 9fbc
00000030: 4907 11bd 8a23 ee3c 42ff f6bc aeec cf3d
00000040: 202e 3fbe eed4 dabd a75b 303c c3d0 3a3e
00000050: e167 8d3d 07a8 023e 93a5 273e 6df3 1e3e
00000060: 175f 6b3c c266 fe3b f609 b9bd 2e5c 733c
00000070: f21a 20be ef18 1fbe aebf ad3d 3abc 0abe
00000080: fe60 f63d 6307 b93d b751 fd3d ccec 8a3d
00000090: 2077 24be 8a6c 05bd 384d 03be 5ab5 68be
000000a0: d65c a33d 8a2b be3d 1516 543e 58c8 06bc
000000b0: 8974 d0bd 021d 653b 6453 d9bb 7ecb 50be
000000c0: 0f66 8e3c 273b 403e 715d 073e bbc5 86bc
000000d0: 7488 2dbd a31c d7bd 8cbd 043e 8d14 f03d
000000e0: b511 4bbc 27e0 2fbe 4dec 063e 2788 803c
000000f0: 2e5a 25be e029 83bc 61c2 62bd 4cd6 1c3d

net.6.weight f4 [32, 64]
0.06863783 0.054428313 0.034778886 -0.40590426 0.22838825 0.10222762 0.0010730386 0.7562261
0.10463156 -0.072455786 0.4338717 0.034751907 -0.010203168 0.18985324 0.008607945 0.12060772
-0.049634445 -0.0066856206 0.19891325 0.009783924 0.16727798 -0.001612688 0.15321292 0.14143722
0.69465816 0.09406388 -0.09725289 -0.035308186 0.02947898 0.0049689375 0.16363108 0.010269836
0.1916449 -0.15160763 0.075844176 -0.060741425 -0.05124922 0.40968302 0.086437605 -0.49328434
0.09729517 0.19603369 0.1031384 -0.0672684 -0.15063713 0.488735 -0.029856043 0.15041642
-0.07113421 0.13158266 -0.013281337 -0.10993671 0.17140533 0.04015645 0.07708974 -0.32171202
0.038969554 -0.007844865 0.17696002 0.19893236 -0.5489215 -0.14227644 -0.26575485 -0.04156814
-0.022513578 0.16435072 0.074159786 -0.49272844 0.056626774 0.13424383 0.22308482 0.93591535
0.1109466 0.15677525 -0.12470312 0.049622234 -0.36743313 0.15285844 0.05907756 -0.01636912
0.056521717 0.046829265 0.1122609 0.18970077 0.20817895 0.17469239 0.20157473 0.010863195
1.0449429 -0.06384701 0.11641668 0.048876703 0.088928774 0.303177 -0.05434037 0.01496689
0.11052782 -0.17965075 0.1349733 -0.20988436 0.10953584 0.34228313 0.025627246 -0.3134867
0.0735807 0.22566417 0.03264046 0.010277166 -0.0047154487 -0.04632661 -0.092212014 -0.21951488
0.00700037 0.07525205 -0.024452955 -0.079213284 0.26487705 0.21587543 0.077889234 -0.10868705
0.07588458 -0.06006302 0.17917603 -0.34835923 -0.95444244 0.15381852 -0.4092721 0.1461013
-0.024095234 -0.037808526 0.00917225 -0.12292032 0.103296906 -0.09333388 0.064483315 -0.078385554
-0.042928196 -0.012192661 -0.04926811 -0.066255026 -0.105216414 -0.09779573 -0.011035594 -0.048400637
-0.017554477 0.02154196 -0.027664939 -0.1303215 -0.049739208 0.032548852 0.034238726 0.048527554
0.0033360533 0.07361605 -0.087698326 -0.11708865 -0.034049664 0.0008429885 0.07915269 -0.0720862
-0.09894106 -0.015290726 0.019890165 -0.12595838 -0.050388306 -0.10806553 0.029211491 0.010890966
-0.1235663 -0.096215226 -0.0062597953 -0.036041904 -0.106117755 -0.040610094 -0.12550253 -0.020473048
-0.02247755 -0.005412304 -0.0012580396 -0.033832118 0.08954897 -0.0448618 0.044865184 0.037804022
-0.025319934 -0.09160493 -0.117553115 0.022664499 0.02850346 0.065416664 -0.05974103 0.093994334
0.11957699 0.026345924 0.002027114 0.11527103 -0.10265072 0.08922445 -0.064036585 -0.6451446
0.101000756 0.021564672 -0.29622558 0.16429383 -0.09238382 0.07994165 0.12324341 -0.056289885
-0.08387852 0.19746344 0.070839666 -0.04308525 0.05808241 0.0932801 0.14016247 0.043694284
-0.33380517 -0.13383122 0.10173155 0.15438187 -0.029224558 -0.02242447 0.05241865 -0.0076328665
0.07556744 0.16454832 -0.078533106 0.29373237 -0.076781884 -0.22743441 0.05443391 0.4872114
0.08400263 0.0006388261 -0.056485888 0.20339257 0.121687904 -0.23914911 -0.09661457 -0.13227022
-0.109904066 0.03939008 0.080503054 0.2826351 -0.11045692 0.066689946 -0.052468687 0.35866824
-0.075412124 -0.03659779 0.051673923 0.0018003454 0.411804 0.13661593 0.22610645 0.025827745
00000000: fe91 8c3d 39f0 5e3d 4e74 0e3d afd2 cfbe
00000010: 9cde 693e b75c d13d 33a5 8c3a 0998 413f
00000020: 1249 d63d b363 94bd 6e24 de3e 0458 0e3d
00000030: 302b 27bc e368 423e 5708 0d3c 2e01 f73d
00000040: 7d4d 4bbd 0d13 dbbb eaaf 4b3e c04c 203c
00000050: eb4a 2b3e d460 d3ba d9e3 1c3e ebd4 103e
00000060: 1ed5 313f 90a4 c03d 862c c7bd 519f 10bd
00000070: e77d f13c 78d2 a23b e88e 273e d042 283c
00000080: 903e 443e 083f 1bbe 3154 9b3d 00cc 78bd
00000090: b4ea 51bd f9c1 d13e 3306 b13d c48f fcbe
000000a0: b142 c73d 0ebd 483e 3a3a d33d 04c4 89bd
000000b0: 9f40 1abe 793b fa3e a994 f4bc c306 1a3e
000000c0: d0ae 91bd 9bbd 063e f799 59bc 7f26 e1bd
000000d0: e184 2f3e 177b 243d 3ae1 9d3d 70b7 a4be
000000e0: 8a9e 1f3d c087 00bc 0235 353e edb4 4b3e
000000f0: 1f86 0cbf eab0 11be 0511 88be 5b43 2abd
00000100: 656e b8bc 8e4b 283e 16e1 973d e746 fcbe
00000110: 7af1 673d 3777 093e 5970 643e 2698 6f3f
00000120: f937 e33d b189 203e 5964 ffbd af40 4b3d
00000130: 3220 bcbe ec86 1c3e 50fb 713d 8818 86bc
00000140: 5183 673d 0bd0 3f3d 0be9 e53d eb40 423e
00000150: dd2c 553e 90e2 323e 9b69 4e3e 8bfb 313c
00000160: b0c0 853f 39c2 82bd de6b ee3d f032 483d
00000170: 4a20 b63d 043a 9b3e 0294 5ebd b037 753c
00000180: 695c e23d 5ef6 37be 7136 0a3e edeb 56be
00000190: 5454 e03d bc3f af3e 3bf0 d13c 5481 a0be
000001a0: 7ab1 963d 8214 673e 01b2 053d 8f61 283c
000001b0: 0d84 9abb f9c0 3dbd a7d9 bcbd 82c8 60be
000001c0: 5c63 e53b bf1d 9a3d 9051 c8bc 933a a2bd
000001d0: f79d 873e 730e 5d3e 6484 9f3d 5197 debd
000001e0: 6069 9b3d a404 76bd ec79 373e 245c b2be
000001f0: 5756 74bf 9a82 1d3e 1d8c d1be 949b 153e
00000200: 5e63 c5bc 1ddd 1abd 3447 163c a6bd fbbd
00000210: 548d d33d d525 bfbd d40f 843d 9b88 a0bd
00000220: 7ad5 2fbd bac3 47bc 5ccd 49bd b7b0 87bd
00000230: b47b d7bd 2149 c8bd a3ce 34bc bf3f 46bd
00000240: 68ce 8fbc c478 b03c 95a1 e2bc 0073 05be
00000250: 57bb 4bbd f251 053d e83d 0c3d d4c4 463d
00000260: b0a1 5a3b 03c4 963d 2e9b b3bd 2dcc efbd
00000270: a977 0bbd 00fc 5c3a ce1a a23d eea1 93bd
00000280: 9ca1 cabd f485 7abc b3f0 a23c 3cfb 00be
00000290: f863 4ebd 7651 ddbd f04c ef3c 0670 323c
000002a0: 5410 fdbd 7d0c c5bd f81e cdbb ada0 13bd
000002b0: 4454 d9bd c556 26bd bc83 00be 18b7 a7bc
000002c0: d722 b8bc b259 b1bb cee4 a4ba 8c93 0abd
000002d0: 7365 b73d 02c1 37bd 8ec4 373d 64d8 1a3d
000002e0: c06b cfbc 5e9b bbbd b0bf f0bd e6aa b93c
000002f0: 1780 e93c 2cf9 853d 03b3 74bd 1a80 c03d
00000300: c8e4 f43d 68d3 d73c 54d9 043b 3813 ec3d
00000310: 8a3a d2bd 4fbb b63d 9d25 83bd 3228 25bf
00000320: 7cd9 ce3d 65a8 b03c e1aa 97be a43c 283e
00000330: ba33 bdbd 73b8 a33d 0a67 fc3d 3990 66bd
00000340: 80c8 abbd db33 4a3e 6314 913d 297a 30bd
00000350: d2e7 6d3d a309 bf3d c086 0f3e c7f8 323d
00000360: 83e8 aabe 0d0b 09be a258 d03d 4816 1e3e
00000370: 5768 efbc 86b3 b7bc f0b4 563d 201d fabb
00000380: 1ac3 9a3d 5b7f 283e f7d5 a0bd 1764 963e
00000390: d23f 9dbd 91e4 68be 17f6 5e3d c673 f93e
000003a0: 9209 ac3d e576 273a bf5d 67bd 2446 503e
000003b0: 8237 f93d 81e3 74be dcdd c5bd d871 07be
000003c0: 6215 e1bd 7e57 213d c9de a43d 8cb5 903e
000003d0: 3d37 e2bd bd94 883d 68e9 56bd 5da3 b73e
000003e0: ac71 9abd 90e7 15bd 09a8 533d 91f9 eb3a
000003f0: f9d7 d23e 0ce5 0b3e 7388 673e b594 d33c

net.6.bias f4 [32]
0.127977 0.10543451 0.07446574 -0.101582706 0.06590942 -0.11700755 0.13564074 0.10747334
-0.055178154 -0.09656648 0.051819332 0.039347984 0.11881815 0.11404461 -0.042440444 0.04753282
-0.13948072 -0.07758596 0.063740656 0.0583033 -0.20093119 -0.015767947 -0.101336226 -0.110705376
0.033919334 -0.055310834 0.018550925 0.054768357 -0.07281377 -0.08152637 0.047519494 -0.110803954
00000000: 670c 033e 0cee d73d 7e81 983d 980a d0bd
00000010: 85fb 863d a8a1 efbd 68e5 0a3e fc1a dc3d
00000020: 7d02 62bd a6c4 c5bd 8240 543d 5a2b 213d
00000030: ee56 f33d 3890 e93d 08d6 2dbd c6b1 423d
00000040: 09d4 0ebe 63e5 9ebd 768a 823d 71cf 6e3d
00000050: e8c0 4dbe c82b 81bc 5e89 cfbd 80b9 e2bd
00000060: 00ef 0a3d 9d8d 62bd 1cf8 973c c954 603d
00000070: 631f 95bd 4cf7 a6bd cda3 423d 2fed e2bd

net.8.weight f4 [16, 32]
0.2420614 0.26404366 -0.15754928 -0.1621397 -0.075547405 -0.052811325 0.049247142 -0.13467121
0.67563295 -0.1244911 0.267084 -0.08804159 0.17457445 0.26570162 -0.16550604 0.10337192
0.1650567 0.015728375 -0.18972827 -0.34449854 0.27230552 -0.13584115 -0.115044504 0.081535354
0.169502 -0.080466166 0.15091668 -0.08876577 0.07577026 -0.14776549 0.24210386 -0.17625429
0.08928246 -0.027937502 -0.1565324 0.14253457 0.025218308 -0.13163902 0.037074376 -0.12578608
-0.12847522 -0.0005133023 -0.03702539 -0.121735126 0.118608475 0.02776297 -0.11632853 0.07331965
0.10309142 0.14341594 -0.031520914 -0.07954636 0.023270715 -0.0262808 0.0919161 -0.08298529
0.075506605 0.16410331 0.07123123 0.12177195 -0.121618174 0.0643888 -0.17506069 -0.005801171
0.06886955 0.2861982 -0.056402918 0.107064456 0.10282803 -0.0015711486 0.2047185 0.13951483
-0.3735299 -0.3391239 0.05642002 0.08628502 0.054879848 0.2493316 0.021852333 0.07468367
-0.14646524 0.1195873 0.002811251 -0.3212683 0.07945188 0.25105837 -0.10449517 -0.14914072
-0.09023998 0.054447263 -0.11747043 -0.012763828 -0.018869866 0.13526316 0.13003553 0.067036755
-0.19475596 0.042863153 0.09691371 0.093999036 -0.014840807 -0.026381254 -0.18300179 -0.07328044
0.08767058 0.23788522 0.0052134586 0.0675238 0.15038823 0.02446241 0.1267624 0.15389808
0.10801639 0.02611655 0.04444302 0.020603694 -0.1770306 0.09477432 -0.13790996 -0.1607641
-0.1528359 0.1254429 0.09952517 0.12741767 -0.2531793 -0.005415049 -0.30588007 0.016669689
-0.17581326 -0.22985627 0.008911617 0.21656783 -0.16926529 -0.15904091 0.071555935 0.26032877
-0.11895962 0.4123502 0.20661354 -0.08595955 -0.041835397 0.111091286 -0.10392389 0.06749908
0.09081153 -4.642672e-05 -0.07086405 0.5023419 -0.46565554 0.13704267 0.004679799 -0.09655803
0.112867154 -0.14953789 0.115727305 0.10565637 0.3135949 0.051817104 0.06467409 -0.06027613
0.102039054 0.25613186 -0.16140217 -0.4385334 0.04385511 -0.040337503 -0.14833301 -0.3005294
-0.9393392 -0.41371095 0.18669645 0.09002834 0.04758743 0.09706677 0.17561464 0.18038884
0.08166712 0.14079486 -0.14782572 -0.63214743 -0.34215468 0.13051242 0.008293346 -0.17043859
-0.39062446 -0.10097007 0.07168697 0.13876192 -0.010052672 -0.14734688 0.1465248 -0.00988394
0.007565829 -0.116981976 -0.15882778 -0.09849874 -0.012793133 0.09755306 -0.18391415 0.062114984
0.1690531 -0.15958805 -0.15281604 0.017124206 -0.13344121 0.0032933047 -0.15969487 -0.03486828
0.14968903 0.118803956 0.010881968 0.06898841 0.15119497 -0.17072709 0.13095696 0.060282573
-0.14835954 0.0775789 0.0077808322 -0.17538476 -0.12266151 0.008314105 0.00452531 0.046806857
0.09723355 0.10462586 0.056780126 -0.00325318 -0.013729571 0.16175373 -0.030275749 -0.15726049
-0.08566591 -0.18672237 -0.16499381 0.15848577 -0.1777043 -0.07977886 -0.1790875 0.06848658
-0.07964984 0.17938079 0.08230642 -0.08103201 -0.085180104 -0.034630347 -0.04619482 -0.15312795
0.017371684 -0.12792897 -0.10774879 0.040486917 0.053797975 -0.16978219 0.014324524 0.14774574
00000000: f2de 773e bb30 873e 9954 21be f307 26be
00000010: 99b8 9abd b050 58bd 5fb7 493d 40e7 09be
00000020: 48f6 2c3f 31f5 febd 3cbf 883e 264f b4bd
00000030: a5c3 323e 0b0a 883e 6a7a 29be a8b4 d33d
00000040: a004 293e cbd8 803c 2148 42be 1d62 b0be
00000050: a16b 8b3e f119 0bbe 749c ebbd 02fc a63d
00000060: ef91 2d3e 72cb a4bd e789 1a3e d4ca b5bd
00000070: 702d 9b3d d64f 17be 13ea 773e 017c 34be
00000080: b9d9 b63d 30dd e4bc 084a 20be 95f4 113e
00000090: a096 ce3c 61cc 06be 4ddb 173d 11ce 00be
000000a0: 028f 03be 228f 06ba efa7 17bd 4450 f9bd
000000b0: 00e9 f23d 2b6f e33c a73d eebd 9d28 963d
000000c0: 9821 d33d a1db 123e 131c 01bd 34e9 a2bd
000000d0: 3aa2 be3c d54a d7bc 823e bc3d 31f4 a9bd
000000e0: 35a3 9a3d b30a 283e aee1 913d 9263 f93d
000000f0: f312 f9bd 46de 833d 1c43 33be c017 bebb
00000100: 7b0b 8d3d 9288 923e bf06 67bd 9c44 db3d
00000110: 8197 d23d 00ef cdba baa1 513e fadc 0e3e
00000120: 503f bfbe a6a1 adbe ae18 673d 33b6 b03d
00000130: b1c9 603d c850 7f3e aa03 b33c c1f3 983d
00000140: fcfa 15be 30ea f43d f73c 383b 477d a4be
00000150: abb7 a23d b98a 803e 9001 d6bd 58b8 18be
00000160: bdcf b8bd 1804 5f3d 5694 f0bd 601f 51bc
00000170: fa94 9abc 6d82 0a3e 0928 053e 914a 893d
00000180: 1b6e 47be 4691 2f3d b27a c63d 9182 c03d
00000190: db26 73bc 801d d8bc d264 3bbe 0e14 96bd
000001a0: a28c b33d 2f98 733e a9d5 aa3b eb49 8a3d
000001b0: 5fff 193e 6465 c83c 01ce 013e 7597 1d3e
000001c0: b237 dd3d 60f2 d53c e209 363d 14c9 a83c
000001d0: 8247 35be 0a19 c23d 4538 0dbe 589f 24be
000001e0: 0481 1cbe 1b74 003e dad3 cb3d c779 023e
000001f0: b8a0 81be b970 b1bb 509c 9cbe df8e 883c
00000200: 6408 34be 715f 6bbe 0802 123c f5c3 5d3e
00000210: e153 2dbe 9fdb 22be eb8b 923d d049 853e
00000220: 1aa1 f3bd 911f d33e 8092 533e 900b b0bd
00000230: 985b 2bbd d483 e33d 0cd6 d4bd f53c 8a3d
00000240: 65fb b93d 50ba 42b8 2c21 91bd 7b99 003f
00000250: 676a eebe ea54 0c3e 0059 993b 37c0 c5bd
00000260: e526 e73d 7620 19be 7002 ed3d 5e62 d83d
00000270: 838f a03e 2c3e 543d d973 843d 1ae4 76bd
00000280: daf9 d03d b723 833e 9c46 25be 7387 e0be
00000290: 6aa1 333d f038 25bd 9ce4 17be fdde 99be
000002a0: 8978 70bf ecd1 d3be 5b2d 3f3e c760 b83d
000002b0: 09eb 423d f1ca c63d 53d4 333e dab7 383e
000002c0: 1741 a73d 872c 103e a05f 17be 6ad4 21bf
000002d0: e62e afbe 0ca5 053e d0e0 073c 7487 2ebe
000002e0: eeff c7be 65c9 cebd 9ed0 923d 9b17 0e3e
000002f0: f6b3 24bc 1ae2 16be 990a 163e 40f0 21bc
00000300: c6ea f73b 3f94 efbd c0a3 22be b5b9 c9bd
00000310: 4a9a 51bc e6c9 c73d fe53 3cbe 486c 7e3d
00000320: 411c 2d3e 0d6b 23be cf7b 1cbe 1048 8c3c
00000330: d0a4 08be 7cd4 573b 0d87 23be 0bd2 0ebd
00000340: 1548 193e 7d4f f33d 484a 323c cc49 8d3d
00000350: dbd2 1a3e 15d3 2ebe 9519 063e dcea 763d
00000360: 90eb 17be b0e1 9e3d 5af6 fe3b 1098 33be
00000370: f535 fbbd e237 083c 0d49 943b 8cb8 3f3d
00000380: 6222 c73d 1546 d63d 4792 683d 4e33 55bb
00000390: fff1 60bc c5a2 253e d904 f8bc e508 21be
000003a0: 9c71 afbd 2634 3fbe 23f4 28be 184a 223e
000003b0: 1ef8 35be 1963 a3bd b762 37be b142 8c3d
000003c0: 751f a3bd 99af 373e 4590 a83d 1cf4 a5bd
000003d0: e872 aebd 8dd8 0dbd c836 3dbd 93cd 1cbe
000003e0: 104f 8e3c d0ff 02be 66ab dcbd 9cd5 253d
000003f0: 445b 5c3d 62db 2dbe 69b1 6a3c a94a 173e

net.8.bias f4 [16]
0.15474483 -0.12442608 -0.112708405 -0.039697763 -0.12088186 -0.037892397 0.12002113 0.06181932
-0.063269265 0.10504208 -0.25210178 -0.06761995 0.06053393 0.16907379 -0.058799203 -0.17626458
00000000: 6e75 1e3e 1ad3 febd aad3 e6bd 1f9a 22bd
00000010: e990 f7bd 0f35 1bbd a3cd f53d 4136 7d3d
00000020: 5193 81bd 4d20 d73d 7c13 81be 547c 8abd
00000030: 6df2 773d ae21 2d3e 6fd7 70bd b47e 34be

net.10.weight f4 [5, 16]
0.23043345 0.22612709 0.333539 0.02923362 -0.45575505 1.0851187 0.026488315 -0.21344528
0.0136394845 -0.3975872 0.1148484 -0.17782463 -0.1822172 0.16576153 0.16859685 -0.08498292
-0.00856445 0.13395493 0.022799283 0.00029779057 0.016450526 6.783049e-05 -0.18685803 -0.21717718
-0.16986531 -0.005554174 -0.00038725088 -0.025309449 -0.19480138 -0.02323471 0.094448075 1.0922377e-06
0.025391279 0.0044235718 0.19097055 -0.02961258 -0.1581551 -0.006687476 0.12626487 -0.10432956
-0.10904912 0.10806213 0.02110202 0.1560931 0.06292192 -0.15519963 0.13606764 -0.08233417
0.29331732 0.21322632 -0.23030394 -0.49421772 0.024293419 -0.0011567608 0.028532378 -0.06574839
0.20459622 0.048493005 -0.82513654 -0.08156544 -0.22104798 -0.12330719 0.04851877 0.52655107
-0.0820883 0.030803317 0.21972539 -7.411641e-05 0.16145356 -0.001313635 0.21171832 -0.10208138
0.020766418 -0.056946598 0.00070653274 -0.24222285 0.042963445 -0.22487457 0.197326 0.0009795537
00000000: bff6 6b3e dc8d 673e a0c5 aa3e 587b ef3c
00000010: ba58 e9be 2be5 8a3f 06fe d83c 6691 5abe
00000020: 2578 5f3c 8d90 cbbe a335 eb3d a917 36be
00000030: 2597 3abe 64bd 293e a7a4 2c3e 860b aebd
00000040: e851 0cbc 7b2b 093e 90c5 ba3c c620 9c39
00000050: 41c3 863c 3840 8e38 b657 3fbe b263 5ebe
00000060: 2cf1 2dbe caff b5bb ef07 cbb9 c355 cfbc
00000070: 037a 47be b856 bebc fe6d c13d 0099 9235
00000080: 5f01 d03c 9cf3 903b c98d 433e 1596 f2bc
00000090: 69f3 21be 9d22 dbbb 944b 013e bdaa d5bd
000000a0: 2555 dfbd ae4f dd3d 25de ac3c dfd6 1f3e
000000b0: 35dd 803d a7ec 1ebe 5155 0b3e d19e a8bd
000000c0: b02d 963e 0058 5a3e ccd4 6bbe 1b0a fdbe
000000d0: fe02 c73c 749e 97ba bcbc e93c 18a7 86bd
000000e0: ac81 513e 9aa0 463d 263c 53bf c80b a7bd
000000f0: 675a 62be 7b88 fcbd 9ebb 463d 0dcc 063f
00000100: e91d a8bd 3d57 fc3c b1ff 603e f26e 9bb8
00000110: 1554 253e 472e acba b0cc 583e 0b10 d1bd
00000120: 561e aa3c d640 69bd 9c36 393a 4409 78be
00000130: 70fa 2f3d 8545 66be d40f 4a3e 5e64 803a

net.10.bias f4 [5]
0.14257 0.013819464 -0.121709496 -0.00032270193 0.13413563
00000000: dffd 113e 086b 623c d442 f9bd 5230 a9b9
00000010: da5a 093e
