5 DOF non-linear duffing/non_linear_5_dof_model_parameters.pth (torch, 27346 bytes, 12 tensors)

net.0.weight f4 [16, 11]
000000 df 53 f0 ba f3 ee 86 bd e4 6a 3a bf 4c 00 11 3f
       -0.0018335542 -0.06588545 -0.7281935 0.5664108
000010 94 98 ba 3f 2d cb 90 3e 41 75 26 3e 6a f6 3f 3e
       1.4577813 0.2828001 0.16255666 0.18746343
000020 5a f4 18 3e 4c 4e 1d 3e f5 08 e1 3d 60 5f 0a bb
       0.14936963 0.15361899 0.109880365 -0.0021113977
000030 89 cc d3 3e 19 9e 29 3e 79 71 da be 11 b0 3a bf
       0.41366985 0.16564216 -0.42664698 -0.72924906
000040 5c 4c 53 3e 68 a8 53 be f9 f6 91 bd 0b c1 37 bc
       0.20634598 -0.2066971 -0.071271844 -0.011215459
000050 a4 58 21 be bb 15 94 bd 9f 3c 0c ba a0 06 d7 bf
       -0.1575647 -0.07230707 -0.00053496094 -1.6798897
000060 b3 1b 94 3d 03 b8 16 bd 80 ba e6 bf 4b 9a d0 bd
       0.07231846 -0.03679658 -1.8025665 -0.10185679
000070 30 de c1 bd e8 62 d5 3d b6 4e 14 3e 63 e1 11 3e
       -0.09466207 0.104192555 0.14483151 0.14246134
000080 09 74 91 3d c6 30 9d 3a 34 49 49 3f 2d 50 7a bd
       0.0710221 0.0011992685 0.78627324 -0.061111618
000090 d3 9c 12 3f 91 3a f2 3f ff 89 34 3f 57 71 60 be
       0.57270545 1.8924123 0.70523065 -0.21918236
0000a0 74 89 42 3b d5 ba 28 bd 6a a6 ad bd 00 11 6d bd
       0.002968398 -0.041193802 -0.084790066 -0.05787754
0000b0 a5 3d 82 38 5e 96 9f 3e 2a 95 9a 3e d1 48 78 bf
       6.210365e-05 0.3116941 0.30191928 -0.9698611
0000c0 17 10 c3 bf e1 85 ab be 1d 31 b2 3d a5 14 3d 3b
       -1.5239285 -0.3350058 0.08700774 0.0028851416
0000d0 14 af 5d be 94 af d8 bd 06 80 33 be 74 dc ae 3b
       -0.21648818 -0.10580364 -0.17529306 0.0053363387
0000e0 e1 9d bf 3f 62 af 6e 3f 02 83 85 3e ed 39 8c be
       1.4970056 0.9323636 0.26076514 -0.27387944
0000f0 d7 0f 4b bf 0c ce 69 bc 7d 80 95 bd 70 70 d3 bd
       -0.79321045 -0.014270317 -0.07299898 -0.1032418
000100 9d 9d f8 bd ca 16 6f be 0b be bf bb a7 dc fe bf
       -0.12139437 -0.23348537 -0.0058515123 -1.9911088
000110 96 7e 08 3b 66 de 69 3e 10 9c 10 bf af 17 ca 3d
       0.0020827404 0.22838745 -0.5648813 0.098677985
000120 09 2f d0 3d 38 27 9f bd 07 d9 1d be 5a ad 4b be
       0.10165221 -0.07771152 -0.1541482 -0.19890347
000130 dd dc e5 bd fe 5c f9 3b dd 79 2d 3f 94 1b 7d be
       -0.11223767 0.0076099625 0.67764074 -0.24717551
000140 6e a8 e3 3d 5b 88 55 3f e9 e1 83 3d 73 67 15 3e
       0.1111611 0.83411187 0.06439573 0.14590244
000150 43 d7 65 be 2a 45 6a 3e f2 15 94 3d 3a 51 dd bd
       -0.22445397 0.22877946 0.07230748 -0.10806508
000160 a3 0e ba 3b 25 d9 15 bf e5 7b c1 bb ce e7 b6 3e
       0.0056780144 -0.5853446 -0.005904662 0.35723728
000170 b5 9a dc 3e 9c 38 2f be 35 58 c5 3c 66 d7 8f 3d
       0.43086782 -0.17111439 0.024089912 0.07023506
000180 83 a2 7b 3f 83 e4 17 bd 42 58 64 be e8 1c 18 bc
       0.9829485 -0.03708316 -0.22299293 -0.009284236
000190 c3 b5 a7 3f e0 c8 5f 3e e5 a6 27 be 02 7f 1d 3f
       1.3102344 0.21853971 -0.16372259 0.61521924
0001a0 4a ff 81 be 5e 5d 25 3d be f6 17 be bc cd fb bd
       -0.25390083 0.040372245 -0.14840218 -0.122951
0001b0 3d 9f 06 be 1d eb b7 3c a5 7d 7f 3a dc 93 06 c0
       -0.13146682 0.022450978 0.00097462005 -2.1027746
0001c0 7f a7 74 bd 30 5d 78 3e f0 d9 9e 3e e5 fc e7 3e
       -0.05973005 0.24254298 0.31025648 0.4531013
0001d0 8b 00 36 3d f5 d2 d4 bd d1 4b b7 3d cd e7 97 bd
       0.04443411 -0.10391799 0.08950008 -0.07417259
0001e0 33 2e f1 bd fe 5d 2d bb c6 cd 08 40 da cf 6f 3f
       -0.1177639 -0.0026453729 2.1375594 0.9367653
0001f0 0b 3c d4 be 50 c3 98 bf 40 9a ef bd 9d 58 26 3e
       -0.4145206 -1.1934605 -0.11699343 0.16244741
000200 7f bb a1 bc 87 24 92 3d c8 92 4d 3d a4 0b a6 bc
       -0.019742725 0.07135873 0.05018881 -0.020269223
000210 bc c2 25 bd c4 b9 e6 3e d0 b8 67 bd f7 00 13 3f
       -0.040468916 0.45063603 -0.056572735 0.5742335
000220 a3 b6 02 3f 7d 1e b8 3e 0e a7 a6 be 89 92 04 3d
       0.5105993 0.3596076 -0.32549328 0.03236631
000230 6c 31 8a 3e 9e 99 93 3c bf d8 a2 3c 8e 41 09 3c
       0.2699083 0.018017586 0.019878743 0.008377446
000240 3e 30 96 bf e7 ac c0 3e cf 16 e9 3e 2a 20 47 bf
       -1.1733472 0.37631914 0.45525214 -0.77783453
000250 fb 70 08 3e 1d 76 1c bd d8 65 a8 3c 1c a9 05 3d
       0.13324349 -0.03819858 0.020556375 0.03263198
000260 22 b8 ae 3c 36 7d 8b bd b5 5b e2 3b 6f fd 96 bf
       0.021328036 -0.068109915 0.006907905 -1.1796092
000270 a7 3f c0 bd 1c 91 8d 3e 67 91 4e bd 0f b1 7e 3e
       -0.09387141 0.27649772 -0.050431635 0.2487223
000280 fc 2b b6 bd 20 16 c9 3d 31 52 d6 be e0 51 6f bd
       -0.08895108 0.09818673 -0.41859582 -0.05842769
000290 0f ad c4 3d 0b d5 42 3b b7 a9 7c 3f 3a fe c5 3e
       0.09603321 0.0029729034 0.98696464 0.38670522
0002a0 65 c0 69 bf 18 0e ba bf 7f ac 48 bf 13 7a 92 be
       -0.91309196 -1.4535551 -0.7838821 -0.2860876
0002b0 a1 c4 c1 3d b2 86 2c 3d f5 71 19 3e 15 93 3f 3a
       0.09461332 0.042120643 0.14984877 0.00073079887

net.0.bias f4 [16]
000000 ce 29 5c 3e 8d af 42 bd e8 1a 81 3e 75 30 83 3e
       0.21500322 -0.0475307 0.2521584 0.25622907
000010 4c 6c 11 3e a7 cf a4 bd 12 b4 00 3e 79 64 aa bb
       0.14201468 -0.08047419 0.12568691 -0.0051999656
000020 04 1c c5 bd 4d 63 b0 bd c5 82 82 3e 9b 5b 6c 3e
       -0.09624484 -0.0861269 0.25490394 0.2308182
000030 16 41 a9 bd cd 90 17 3d 76 15 24 bd 02 15 3b 3e
       -0.08264367 0.037003327 -0.04005953 0.18269733

net.2.weight f4 [32, 16]
000000 8b fc 99 be 23 76 19 bc 95 61 6b bd 03 c8 11 3e
       -0.30075487 -0.009366545 -0.05746611 0.14236455
000010 71 79 6e 3d 25 a4 ab bd 69 75 53 bd 52 24 33 3e
       0.058221284 -0.083809175 -0.051625643 0.17494324
000020 b6 fa b7 bd e8 08 a3 3c 3c ec 2a 3e d2 87 7f be
       -0.08983366 0.019901708 0.16691679 -0.24954155
000030 86 69 fc bc 8f 5b 73 be 33 df ef bd 1d 7c b6 3d
       -0.030812036 -0.23765396 -0.11712494 0.089103915
000040 0c e7 9f 3e 39 7a ee bd a8 be 02 bf 88 c6 e4 3e
       0.31230962 -0.11644406 -0.5107217 0.44682717
000050 62 78 8b be 90 00 d9 bc be 0e 47 3c a8 37 a6 3d
       -0.27240282 -0.026489526 0.012149511 0.08116084
000060 40 bb 6f ba 0a 4e 12 3c e7 eb 88 bd 75 b3 3f be
       -0.0009145029 0.008929739 -0.0668562 -0.18720801
000070 f4 a0 bb 3a 66 39 9b bd 81 dd 3c 3c 16 cc 8e be
       0.0014314936 -0.07579307 0.01152742 -0.2789008
000080 d0 ed d9 bd 2a fb 26 be 5c 3e 1d 3e 18 d0 9b bd
       -0.10641062 -0.16306749 0.1535582 -0.0760805
000090 20 4c f9 3d e0 1b fa 3c 42 12 6f 3e 60 3e 30 be
       0.12172723 0.03053087 0.23346809 -0.17211294
0000a0 30 51 0f bd 70 26 e0 3d 70 95 fb bd 58 a9 8c bd
       -0.034989536 0.10944831 -0.12284362 -0.06868237
0000b0 58 45 60 bd e4 1a 7b 3e fc fc e0 3d d2 6a 6d be
       -0.05475363 0.24521977 0.10985753 -0.2318528
0000c0 e5 ba 5f be 3f f5 19 be 94 99 0d 3d c3 b3 1a 3e
       -0.21848638 -0.1503496 0.03457029 0.15107636
0000d0 22 61 77 bd 9d 8d a0 3c 93 00 d1 bd 29 e5 af 3d
       -0.060395367 0.019598776 -0.10205188 0.08588631
0000e0 26 cb a4 ba 73 08 15 be 81 03 0a be cf c4 96 3e
       -0.001257275 -0.14554004 -0.13477899 0.29447028
0000f0 25 dc 9e bd 2b b1 21 be e6 31 91 bd bd 51 25 bd
       -0.07756833 -0.1579024 -0.070895955 -0.040361155
000100 86 de 0f 3d 4f 40 1e 3e c4 10 6c be b8 62 14 3e
       0.035124324 0.1545422 -0.2305327 0.14490783
000110 6a 28 5a be 8f 7e 4a bd 4a b6 07 be e8 bf 2c be
       -0.21304479 -0.049437102 -0.13253132 -0.16870081
000120 c6 ad a6 3d a2 9b e7 3c e1 e7 83 3d 4c b0 05 be
       0.081386134 0.028272454 0.06440712 -0.13055533
000130 b9 fe 67 3d c4 8f 2c 3e d6 c2 43 bd 2c fe 92 3d
       0.056639407 0.16851717 -0.047793232 0.07177386
000140 d6 af a8 bc 8e a7 55 be 69 ef 3d 3e 1c d4 4c 3e
       -0.020591658 -0.20864698 0.18548359 0.20002788
000150 7f 60 6c bc a0 56 86 3e ce e8 5f 3c 89 3e c3 bd
       -0.014427303 0.26237965 0.013666345 -0.09533412
000160 e1 39 3e be 57 17 63 3d 91 60 91 3e e3 92 9f be
       -0.18576767 0.05544218 0.28393987 -0.31166753
000170 e7 aa 39 bd ce 74 f2 bc 3a be 1a 3e ae f2 7a be
       -0.045329 -0.029596712 0.15111628 -0.24506637
000180 64 06 54 3e a6 2f 1a bd 9d 26 62 be 7f c2 5f 3e
       0.20705563 -0.037643097 -0.22085042 0.21851538
000190 fb e1 bc bc 7f f7 01 bf 68 77 bd be be a0 88 3d
       -0.023056975 -0.50768274 -0.37005162 0.06671284
0001a0 cc 6d cc be 3c 2e 02 be ec 47 06 bd 0f 90 f0 3d
       -0.39927518 -0.1271295 -0.032783434 0.11746227
0001b0 c8 cd a1 bc c1 03 09 be 2e 67 b0 be ea 8f c0 b8
       -0.019751444 -0.13380338 -0.3445372 -9.1820795e-05
0001c0 50 de 25 be 48 41 13 3e f4 92 ca 3e 45 25 d2 be
       -0.16198087 0.14380372 0.3956524 -0.4104406
0001d0 53 a4 29 3e 62 dc dc 3d 91 de f8 3c 7f 48 bc 3c
       0.16566591 0.10784222 0.030379565 0.022983788
0001e0 29 9b f4 bc 24 94 3a bd 1b 80 89 bd b4 e8 82 bd
       -0.029859142 -0.045551434 -0.06713887 -0.06392041
0001f0 a0 07 91 bd 26 b9 a8 bb b2 af ee 3d 14 fb 1e 3d
       -0.070815325 -0.0051490245 0.11654605 0.038813666
000200 e5 bd c7 3d 06 bf ad 3d dd 11 05 bf 02 78 f5 3d
       0.097530164 0.084837005 -0.5198038 0.1198578
000210 f9 01 15 3e b6 39 94 3e 15 a8 59 be fc 73 a5 3c
       0.14551534 0.2895028 -0.21255524 0.020196907
000220 0f 5e 9f 3d 1e 31 d1 3d 44 f3 69 be 38 2b b4 3e
       0.07781612 0.102144465 -0.22846705 0.35189223
000230 b8 62 a5 bb 61 41 e2 bb 69 b5 b5 be a7 cc 2c bd
       -0.0050471686 -0.0069047664 -0.35489967 -0.04218736
000240 58 59 bd be 17 06 e3 3d 0c f5 5e 3e 98 19 9e 3e
       -0.36982226 0.11085146 0.21773165 0.308789
000250 74 e7 a1 be 8d 9e 00 be 47 b8 2f be c3 86 14 be
       -0.31621897 -0.12560482 -0.1716014 -0.14504533
000260 f8 18 dc bc 91 8b 3d be c6 09 51 3e d3 32 8d be
       -0.026867375 -0.18510272 0.20413885 -0.27577838
000270 12 38 19 3d d3 77 2c 3e f6 e9 b8 3d 88 70 7e 3e
       0.03740699 0.16842584 0.090289995 0.24847615
000280 6d 5e 5c be 27 c4 04 be cb ec b1 bd d4 6b 51 3e
       -0.21520396 -0.12965451 -0.08687743 0.2045129
000290 1b 43 6a 3e bd 60 a6 39 c9 e2 c4 3e 1a ae 77 be
       0.22877161 0.00031734063 0.38454273 -0.24187508
0002a0 3b 89 21 bf 89 5f 2c 3c 4e f2 86 bc 49 d3 97 be
       -0.6310002 0.010520824 -0.016472962 -0.29653385
0002b0 f2 84 23 be 43 80 f0 3d 3c a7 92 be fc 92 e2 be
       -0.15968683 0.11743214 -0.28643215 -0.44252765
0002c0 de 24 6a be 64 aa b5 bd ec f0 a0 3d 24 23 be 3d
       -0.22865626 -0.0887039 0.07858452 0.09284046
0002d0 f2 15 11 3e 48 5b 00 3d 78 db 23 be 6e 60 71 be
       0.14168528 0.031337053 -0.1600169 -0.23571941
0002e0 e2 12 5f 3e a0 10 36 3d 2e 69 44 3e 36 17 70 be
       0.21784547 0.04444945 0.19180748 -0.23446354
0002f0 fc 38 0b be 40 06 d8 bb bc d4 53 3e 86 f4 51 be
       -0.13595957 -0.006592542 0.2068662 -0.20503435
000300 30 29 08 be 38 36 42 be f8 38 02 3e 10 30 9e 3c
       -0.13296962 -0.18965995 0.12717044 0.019310027
000310 fc 72 c2 bd cc b7 2a 3e 20 51 3e be 70 45 ca bc
       -0.09494588 0.16671675 -0.18585634 -0.024691314
000320 54 1c ea bd f8 ba 64 bd 80 14 29 3b 40 3b b9 bb
       -0.114311844 -0.05584237 0.0025799572 -0.005652815
000330 c0 9a 7d 3e 7a f7 61 be 50 6d d6 bd 50 01 9c bc
       0.24766064 -0.22067061 -0.104700685 -0.019043595
000340 37 b5 4d be d4 ac a8 3d 70 2f 98 3e 1a 84 6c 3d
       -0.20088659 0.08236089 0.29723692 0.05774317
000350 2d bc 3d 3d 8e a9 3a be f2 8b d2 3d 91 98 07 be
       0.046322037 -0.18228742 0.10280599 -0.13241793
000360 99 ff 7b 3e ec 51 89 bd 20 07 6a 3d bc 7f 8a 3d
       0.24609222 -0.067050785 0.0571357 0.06762645
000370 c5 05 48 bd 14 5a 18 bd 20 f6 67 bd de d6 c7 bd
       -0.048833627 -0.03719528 -0.056631207 -0.097577795
000380 64 8f 97 bd e0 25 63 be 76 ad 06 3e 3c 39 44 be
       -0.074003965 -0.22182417 0.13152108 -0.19162458
000390 48 7f 6c be 52 a8 52 3e 80 ee 62 3d f4 f2 5e 3e
       -0.23095429 0.20572022 0.055403233 0.21772367
0003a0 2c 27 56 be 72 35 10 be 00 9f 88 bd d8 42 1e 3e
       -0.2091338 -0.14082888 -0.06670952 0.15455186
0003b0 98 59 42 be 3a 94 5c be e8 c5 96 bd 26 d0 04 be
       -0.1897949 -0.21540919 -0.07361966 -0.12970027
0003c0 08 0f 78 3e 2e 98 02 3e ca cb 2c be 0c af dc bd
       0.24224484 0.12753364 -0.16874614 -0.10775575
0003d0 c0 c2 16 bc e0 35 20 be 38 6e 41 be 26 68 65 3e
       -0.009201705 -0.15645552 -0.18889701 0.2240301
0003e0 fc 3f 2a be 48 db 13 3e 9c 64 93 bd e4 78 42 be
       -0.1662597 0.14439118 -0.07196924 -0.18991429
0003f0 38 fb e7 bd 44 99 ea bd f2 de 2d be e8 d0 1c be
       -0.11327213 -0.11455014 -0.16979578 -0.15314066

net.2.bias f4 [32]
000000 b2 cc 15 be c6 0d 59 3b e0 fb 27 be 73 fe 0e 3d
       -0.14628866 0.0033119782 -0.16404676 0.03491063
000010 cb 47 3e 3e 14 64 13 3e 58 f8 17 3e 81 ef 4c 3e
       0.18582074 0.14393646 0.1484083 0.20013238
000020 d0 e6 60 b9 35 5c 61 bd 47 c1 8e bd 00 4c 56 be
       -0.00021448289 -0.055019576 -0.069704585 -0.20927429
000030 d0 88 29 be 92 72 a7 bd 9a 86 34 be d2 88 30 be
       -0.16556096 -0.081761494 -0.17629471 -0.17239693
000040 6c ec e4 3d a6 79 a8 bd 92 b8 54 be 58 a1 51 be
       0.111779064 -0.082263276 -0.20773533 -0.20471704
000050 91 64 42 3e 72 c4 67 3c 65 fd 86 be c9 11 6a be
       0.18983676 0.014145957 -0.263652 -0.22858347
000060 1a 80 48 3e d6 b3 60 3e ec ae c8 3d 57 d1 69 3c
       0.19580117 0.21943602 0.09798989 0.014271102
000070 c7 03 3e bc d7 ac c7 3c f8 97 df 3d d5 c3 71 bd
       -0.01159758 0.024374409 0.109176576 -0.05902465

net.4.weight f4 [64, 32]
000000 02 a7 b7 3d 64 0e 44 bd 3e bf 80 3d bf c6 3a be
       0.08967401 -0.047865286 0.062864766 -0.18239878
000010 90 a9 e4 bd 08 53 f4 bd 04 d0 b2 bd 58 a9 15 3e
       -0.11165154 -0.119298995 -0.08731082 0.14615381
000020 18 ea b1 bd 57 8b fc 3c 88 5a 85 bc 18 a5 e4 3c
       -0.08687228 0.030828161 -0.01627852 0.027910754
000030 73 c0 a1 bd 2d f1 f1 bd de 2c 13 be 20 92 6b 3c
       -0.07898035 -0.11813579 -0.14372584 0.014378101
000040 8d 7d 36 be 23 e8 27 be 75 01 22 3e 72 c1 97 3d
       -0.17821331 -0.16397147 0.15820868 0.07409944
000050 30 b7 ed bc 9b f3 c8 bd e5 29 20 3e 00 83 fa bb
       -0.029018015 -0.09812089 0.15640981 -0.007645011
000060 ce 18 27 be c8 02 e2 3d 8b 41 18 3e 84 00 04 3d
       -0.16318056 0.11035687 0.14868753 0.032227054
000070 17 e4 e3 3d 2e 1c 11 be 6b 40 33 bc ed 38 21 3e
       0.11127489 -0.14170906 -0.010940651 0.15744372
000080 80 0b 32 be 85 6b 2b be 70 73 80 3c 10 44 41 3d
       -0.173872 -0.16740234 0.015680045 0.04718405
000090 6c e6 35 3d a4 f7 4e bd 33 28 17 3e 3d 04 03 3e
       0.0444092 -0.050529137 0.14761429 0.12794586
0000a0 7c cc 32 be 8c 0b 2c be 05 89 19 3e 50 50 93 bd
       -0.17460817 -0.1680128 0.14993675 -0.07193053
0000b0 cc c8 0a 3d 98 bf 7f 3d 8c 93 26 3d c8 b8 ba bd
       0.0338829 0.062438577 0.040668055 -0.091172755
0000c0 05 bb f6 bd 85 01 0c be e4 9a 95 3d 38 83 b8 bc
       -0.1204739 -0.13672455 0.07304934 -0.022523507
0000d0 2e b6 d2 bd 21 37 12 be e6 87 c3 3d e0 d4 c4 3c
       -0.10288654 -0.14278843 0.09547405 0.024027288
0000e0 1b 75 2d be 00 2e 1e bc 44 4b 45 bd 60 89 a1 bb
       -0.16939203 -0.009654522 -0.048167482 -0.0049297065
0000f0 70 2f 33 3d f4 3e 7c 3d 94 2a 2a be f0 fd d2 3c
       0.04374641 0.061583474 -0.16617805 0.025755852
000100 3d 6a 87 3d cb 89 62 bd 25 30 0b 3e 94 a4 ac bd
       0.0661206 -0.05530719 0.13592584 -0.08429828
000110 6d 41 00 bd 23 ef 1b 3e 3b b5 0b 3e 15 f1 da bd
       -0.031312395 0.15227942 0.13643353 -0.10690514
000120 bd d1 c0 3a 0a 94 ef bd 5a 38 a0 be 5e 30 23 be
       0.0014710944 -0.11698158 -0.31292993 -0.1593642
000130 50 29 7f 3c ba 31 16 3e c8 5c 79 bd c0 e6 e7 3c
       0.0155738145 0.14667407 -0.0608795 0.028308272
000140 0e b8 04 bd 13 3a 21 bd 55 e2 18 3e bc 15 8c 3d
       -0.03240209 -0.039362025 0.14930089 0.06840083
000150 a4 7e a1 bd 93 9c e3 bd 1d ad 1e be b9 ac d4 bd
       -0.07885483 -0.111138485 -0.15495725 -0.10384507
000160 2f 44 0d be 44 38 33 3e 22 b1 8a bc 00 71 4d 3d
       -0.13795541 0.17501932 -0.016930167 0.050156593
000170 9e 14 2d 3d 3c a1 e5 bc a7 bc f8 3d 0a cf 25 3e
       0.04225599 -0.028030984 0.121453576 0.1619226
000180 bf f8 06 be f2 60 85 3e 46 2f e5 3d 2d 2d 14 bd
       -0.13180827 0.26050526 0.11190657 -0.036175895
000190 e2 4d cf bc 5e 59 1c be ea 19 04 bd 56 18 8c bd
       -0.025305692 -0.15268466 -0.032251276 -0.06840579
0001a0 fa 79 09 3d 32 b0 53 3e 6d f4 1c be 8c 81 07 bd
       0.03356359 0.20672682 -0.15327616 -0.03308253
0001b0 12 be e6 3d e5 88 11 bd 7c f3 6c bd a0 46 eb 3b
       0.11266722 -0.035530943 -0.057849392 0.00718005
0001c0 c3 06 ea bc 35 ae d8 3e 4c e0 26 be d0 f1 a1 3c
       -0.028567677 0.4232041 -0.162965 0.019768625
0001d0 7f 30 90 3d 14 d9 c2 3c d1 73 21 3e a7 bc 1a be
       0.070405 0.023785152 0.15766837 -0.15111028
0001e0 9f 2f 3b be 36 54 6c be 1b 70 bf 3d 7f 81 a9 bd
       -0.18279885 -0.23078999 0.09347554 -0.082766525
0001f0 a4 ef 3c bd 45 7d 32 bd ad f6 b9 3b 72 20 10 be
       -0.046126977 -0.043576498 0.005675158 -0.14074877
000200 ea a0 0c be 92 00 80 be 12 0d 8b bd bd 6b 41 3c
       -0.13733259 -0.25000435 -0.06789602 0.011805472
000210 3c d1 a9 bd b2 7c 4d be 0b ec e7 3d c8 7e a2 3c
       -0.082918614 -0.20067099 0.113243185 0.019835845
000220 bd 14 a0 3e 89 57 ee 3d 5a 20 4a be 9d 92 07 be
       0.31265822 0.1163779 -0.19738904 -0.13239522
000230 21 56 0e be 13 c4 d5 bc a2 cf c7 3d 30 c8 89 bd
       -0.13900043 -0.026094472 0.097564 -0.06727636
000240 30 cc a4 bd cd 2e 1c 3f 74 38 3e bd f7 e3 1b be
       -0.08046758 0.6100891 -0.046440557 -0.1522368
000250 c3 f0 34 3d c6 b4 16 be 0f 45 42 be 67 57 03 3e
       0.04417492 -0.14717397 -0.18971656 0.1282631
000260 2c a1 50 3d 60 ed cc bd 8b c9 b5 3d b3 c2 b6 bd
       0.050934955 -0.10006213 0.08876332 -0.08923855
000270 ff 59 00 3e 0c 3e d5 bd e8 2c 33 be 50 ac 25 3d
       0.12534331 -0.10412225 -0.17497599 0.040447533
000280 d8 3e 28 be 5f 91 12 3e 6e 5d cf 3d 3f 9b c7 bd
       -0.16430223 0.14313267 0.10125242 -0.09746408
000290 69 cf be bd 18 46 e1 3c 80 38 5c bc 2f 84 20 be
       -0.09316904 0.027499244 -0.013441205 -0.15675424
0002a0 a3 17 14 3e 37 6f 0e 3e 61 da 10 3e 72 e8 ab 3d
       0.14462142 0.13909613 0.14145805 0.08393945
0002b0 8c 07 fc bd 53 80 be bd 51 da 98 bd 50 d8 48 3d
       -0.12306127 -0.0930182 -0.074635155 0.049034417
0002c0 8a 28 c3 3d 90 d1 08 bc 0a 1b 32 be e6 79 e5 bd
       0.095292166 -0.008350745 -0.17393127 -0.11204891
0002d0 0d 1c ad bd f7 b3 f3 bd de 63 ba 3d 70 3d 01 3c
       -0.08452616 -0.1189956 0.091010794 0.007888183
0002e0 ff 30 01 be 2b a2 db bd 43 40 04 be 1c d0 fa bd
       -0.12616347 -0.107242905 -0.12915139 -0.12246725
0002f0 e0 c3 87 3d 84 2f be bd dc 00 1b be 40 2c 51 3c
       0.06629157 -0.09286407 -0.15137047 0.012766898
000300 c5 1b 80 3c 84 31 18 be a0 15 43 3d 11 b7 93 3b
       0.015638242 -0.14862639 0.047628045 0.004507907
000310 cc 3d de 3b 51 10 0a 3e d7 9d be bd cf e1 12 be
       0.006782269 0.13482787 -0.09307449 -0.14343952
000320 7c cb ce 3d df 1d 12 3e 38 9b 24 3e ce 37 c1 3d
       0.10097405 0.14269207 0.16074836 0.09434472
000330 df 63 26 3e 2c 90 0d 3d 0b f0 1d be 64 60 57 3d
       0.16249035 0.03456132 -0.154236 0.05258216
000340 93 bd ec bd 1c 95 2e be 42 16 8c 3d 24 bf bf bd
       -0.11559596 -0.17049068 0.06840183 -0.09362629
000350 f0 54 a2 bd bc 2e 54 3e 7c c1 66 3d de b2 9a 3d
       -0.07926357 0.20720953 0.056336865 0.075536475
000360 3a 67 a7 bd 16 4b e7 3d e8 b1 0b 3c 80 1d 29 bd
       -0.08173986 0.112936184 0.008526303 -0.0412879
000370 12 40 20 bd c4 a6 e2 3d 19 f0 d9 bd 3d 16 62 3b
       -0.039123602 0.11066964 -0.10641498 0.0034498118
000380 27 57 1b 3e 8c 17 96 bb 4e bd b1 3d 4e 17 ee bd
       0.15169965 -0.0045804437 0.08678685 -0.11625539
000390 1c 74 ca 3d 80 01 60 bd 42 7d 16 bd a1 77 9c bd
       0.09885427 -0.05468893 -0.03674055 -0.07640005
0003a0 3c ec 75 be 3e cd 1d be 8e 40 2c 3e 8e 0e c2 3d
       -0.24015898 -0.15410325 0.168215 0.09475432
0003b0 0a 34 b3 3d 96 d7 cb 3d 3a 36 dc 3d 7e 0e d5 3d
       0.0875016 0.09953229 0.107525304 0.10403155
0003c0 18 24 9e bd dd 75 68 be aa 68 f0 3d 7f ea 61 3d
       -0.07721728 -0.22701211 0.11738713 0.055155274
0003d0 cd 7e 01 3d 98 2c 2e 3e 44 5b e4 3a dc ba 28 be
       0.031615067 0.17009199 0.0017422219 -0.16477531
0003e0 e7 ea 06 be 61 53 ea bd 58 69 04 3e fa 02 9f 3c
       -0.13175546 -0.114416845 0.1293081 0.019410599
0003f0 dd 0b 20 be 9d a2 4b 3e 1d c4 a7 3e 5d be 9f bc
       -0.15629525 0.19886251 0.3276681 -0.019499952

net.4.bias f4 [64]
000000 d3 84 34 bd 40 b0 20 be b0 8f c7 bc b7 f8 04 3e
       -0.044071984 -0.15692234 -0.024360508 0.12985502
000010 9d 83 9f 3d 50 bf 2a be 18 84 23 be 13 77 b1 3c
       0.07788775 -0.16674542 -0.15968359 0.021663224
000020 60 9d 13 bd 27 66 c7 3d 61 cb 8e bc 4b 4d d4 3d
       -0.036038756 0.09736281 -0.017430963 0.10366305
000030 e8 32 cd bd 5b 63 43 bd 97 56 ea bc fc 57 ba bd
       -0.10019475 -0.047702175 -0.028605742 -0.09098813
000040 10 cc d6 bb 96 a5 61 bd 0e 4c cc bd 6c d4 22 be
       -0.006555088 -0.055089556 -0.09975444 -0.15901345
000050 03 63 83 bc b4 5e ba 3d 49 81 81 3c 17 d3 f8 bc
       -0.016038423 0.091000944 0.015808718 -0.030374093
000060 6b 31 eb bd 3e b4 c4 3c 52 c7 f1 bd 7f cb 6e bc
       -0.11484035 0.024011727 -0.118055955 -0.014574884
000070 b0 de b9 bd 12 e0 0f 3d 10 d9 f4 bd d7 c9 32 be
       -0.090756774 0.0351258 -0.11955464 -0.17459808
000080 92 03 05 be 6b 33 1c be de 6a 23 3d 9c 11 f1 bb
       -0.12989643 -0.1525399 0.03989684 -0.0073568355
000090 12 30 65 bd 8f 00 dd bb 88 e5 22 bd fd 46 0c bd
       -0.055954047 -0.0067444514 -0.03976968 -0.034247387
0000a0 70 5c 26 3d 1b 1a 88 bd d6 a8 a8 3d 9d b1 f0 3d
       0.0406155 -0.06645604 0.08235328 0.11752627
0000b0 06 d0 cc bd 2b 6d cc 3d 85 49 43 bd 41 7d ce bc
       -0.10000615 0.0998176 -0.047677536 -0.02520621
0000c0 3f c7 a2 3d eb a4 2e be 1f 93 9b 3d 4b 32 19 3d
       0.079481594 -0.17055099 0.075964205 0.03740148
0000d0 ad f0 ca 3d 65 f9 85 3c d0 57 c1 bd 88 0d d5 bc
       0.099091865 0.016354272 -0.09440577 -0.026007429
0000e0 ea 5c 6d bd 4f 1b 31 be ae 09 01 3c 6f 32 03 bd
       -0.057949938 -0.17295574 0.007875843 -0.03203052
0000f0 94 6d a4 bd a7 13 d3 bd ed 97 62 bd 8a 4c 25 bd
       -0.08028713 -0.10306483 -0.05532067 -0.040356196

net.6.weight f4 [32, 64]
000000 ee ce cc 3d 04 cc 50 3d f9 b6 30 3d 12 93 b4 3d
       0.10000406 0.050975814 0.043143246 0.08817114
000010 9f 32 d6 bd c0 7d 2a bb ad de 8c bc a5 e1 d2 bc
       -0.10458874 -0.0026014894 -0.017196024 -0.025742361
000020 a6 a8 09 3d 7b c3 46 3d 09 99 1c bd 41 d4 83 3d
       0.0336081 0.04852627 -0.038231883 0.064369686
000030 e6 fb b4 bc f5 fa 9b bd 03 e3 3f 3c 40 b5 16 3c
       -0.02209277 -0.07616226 0.011711839 0.009198487
000040 59 8c 9c bd b1 d8 1e bd 68 c1 8a bd 15 cf fc 3c
       -0.07643957 -0.03878087 -0.067751706 0.030860463
000050 7b d0 20 3d 96 65 8c 3d dc 2a 25 3e b2 7a c9 bd
       0.039261322 0.068553135 0.16129631 -0.098378554
000060 2e 9b 90 3b 83 ce f2 bd 9b 92 4b bd d2 a3 21 3e
       0.00441303 -0.11855795 -0.04970036 0.15785149
000070 ac 4d 11 3d d5 16 3e 3e 1a 48 c8 bd 1a 7e e2 3d
       0.035474464 0.18563397 -0.09779377 0.11059208
000080 92 94 b2 3d 38 c3 77 bd d6 a8 8e bd 81 d7 9c 3c
       0.08719744 -0.06048891 -0.06965797 0.019145729
000090 2e 86 a0 3d 9f 22 5e bd 21 58 5c bd 9d 5d ca ba
       0.07838093 -0.054232236 -0.053794984 -0.0015439276
0000a0 d0 1c 2a bc 92 09 62 bd 26 e9 70 3c 93 d6 63 bd
       -0.010382846 -0.05518491 0.014704024 -0.055624556
0000b0 54 df 18 bd b5 d2 47 3d 17 46 da 3c 94 d7 9c bd
       -0.037322357 0.04878493 0.02664475 -0.07658306
0000c0 f5 41 81 bd 29 c0 a4 bd da 58 d6 3d dd 2d 9c bd
       -0.063114084 -0.08044464 0.10466166 -0.07625935
0000d0 51 0e b3 bd 7c 7a 19 bd ac 1c 91 3d 14 e6 07 bd
       -0.08742965 -0.037470326 0.07085547 -0.033178404
0000e0 56 3b 9e bd 25 79 7c 3d e2 1c 17 bd b1 cf 7a 3d
       -0.07726161 0.06163897 -0.03689278 0.061233226
0000f0 e8 82 86 bc 80 15 7c bc 52 b1 88 bd 95 aa b7 bd
       -0.016419843 -0.015385985 -0.06674446 -0.08968083
000100 9c 9b da bd d0 28 59 bd 76 b8 cf bb 89 3f a3 bd
       -0.106742114 -0.053017437 -0.006339128 -0.07971103
000110 3f 05 59 3d 18 9a b1 3c 1e ae df bd 31 32 d6 bc
       0.05298352 0.021679923 -0.10921882 -0.02614698
000120 17 c7 42 bd 2f 78 05 3d 22 3d 40 3e 26 a5 07 3e
       -0.047553148 0.03258532 0.1877332 0.13246593
000130 67 4d cd bc a8 af 73 bd 00 9a 10 be 30 3a 36 3c
       -0.025061322 -0.05949369 -0.14121246 0.011122271
000140 0a 81 6b 3d 77 fc 7e bd 03 46 d4 3d 46 fd 27 bd
       0.057496108 -0.062252488 0.10364916 -0.041013025
000150 28 95 6e 3d 52 7a 89 3d 58 50 bb 3d 5b 5c 0b 3e
       0.058247715 0.06712784 0.09146184 0.1360945
000160 a3 46 83 3d bc f7 7c bd 0e 40 71 3e 39 6a 84 be
       0.06409957 -0.061759695 0.23559591 -0.2586229
000170 86 bb 67 be 9d 51 a2 3c e6 23 b0 3d 1b 22 92 bd
       -0.22630128 0.019814307 0.08600597 -0.07135411
000180 a8 f0 48 3d cc d6 9f 3d 06 1f 9d bb 67 dc 32 bd
       0.049057633 0.07804641 -0.004794958 -0.043667223
000190 c0 5f 29 bc 64 b1 da 3d 4a 7b 9d bd e1 c7 8a 3c
       -0.01033777 0.10678366 -0.07689531 0.016941013
0001a0 41 96 2d 3c 33 3b 1f 3e 04 32 6e be 6b 50 ed 3d
       0.010594905 0.15549926 -0.23261267 0.11587604
0001b0 14 c6 a1 3d 54 fb b9 3d a3 b2 47 bc d8 46 c8 3d
       0.078991085 0.0908114 -0.012188586 0.097791374
0001c0 06 84 06 3e 1e 73 55 3d 49 5d 8c be e0 67 35 3d
       0.131363 0.052111737 -0.2741492 0.044288516
0001d0 aa 5f 90 bd 72 e4 97 3d 10 18 86 3c 46 26 cc 3d
       -0.070494965 0.07416619 0.016368896 0.099682376
0001e0 b4 20 a7 bd 44 1f ec bb dd e5 b1 3e fa 15 3f bd
       -0.081605345 -0.0072058756 0.34745684 -0.046651818
0001f0 08 d7 e3 bb d0 21 cd 3c ed 81 f1 bc 6d c3 1f 3c
       -0.006953124 0.025040537 -0.029480899 0.009751183
000200 40 d7 c8 bd 48 16 93 bc ef 88 79 bd 18 2a 1b 3d
       -0.09806681 -0.01795496 -0.060921606 0.03788194
000210 30 7d 3c bd d0 61 eb bc 20 d2 14 3e b1 17 bf bd
       -0.046017826 -0.028733164 0.14533281 -0.09330691
000220 d5 2f dc bc 46 0a 5d 3d b4 2b 76 3d 70 54 a3 bd
       -0.026878277 0.053964876 0.060100272 -0.079750896
000230 b7 3c ac bc bc 6f 37 bd 73 35 a0 ba 2c 18 16 3d
       -0.021025045 -0.044784293 -0.001222296 0.036644146
000240 aa c7 05 3e 40 6c 03 3d 59 ae 41 3d cc 34 67 bc
       0.13064447 0.032085657 0.04728541 -0.014111709
000250 a4 c8 af bd a5 13 44 3d 99 e5 7e bc a6 5a 78 bc
       -0.08583191 0.047870297 -0.01555767 -0.015158331
000260 df e4 01 bc d8 f7 59 3d c1 e1 87 bd 25 8f 7f bd
       -0.007928102 0.053214878 -0.06634856 -0.062392373
000270 80 2c 8a 3d 3a c7 a8 3d b0 98 a3 bd df 8c e4 bd
       0.06746769 0.082411245 -0.07988107 -0.111596815
000280 f0 2a b7 bd f8 82 52 3d f5 84 32 bd 7e d0 ca bd
       -0.089437366 0.051394433 -0.04358383 -0.09903048
000290 30 f7 12 bc 20 ba 3e bd e9 ba 5d 3c 33 a4 37 bd
       -0.008970067 -0.04656422 0.013533332 -0.044834327
0002a0 db 1c 0b 3d 2a 69 b9 3d e1 59 3f 3d 42 64 7a bd
       0.033963066 0.090532616 0.046716575 -0.06113077
0002b0 50 52 87 bc 33 61 36 bd c1 75 ab 38 7a 80 96 3d
       -0.016518742 -0.04452629 8.175849e-05 0.07348724
0002c0 ea de 1d bd 7e b7 02 bd ef cf 1f bc ad 2c ee bb
       -0.038542666 -0.031913273 -0.009754165 -0.0072685094
0002d0 13 d4 3f bd 85 80 a9 3c b1 ff 6c bd a0 bf d2 3b
       -0.04683311 0.020691166 -0.057861034 0.006431535
0002e0 48 9d 03 bd 31 92 90 bd 98 ec b0 bd bf f2 03 3d
       -0.032132417 -0.07059134 -0.08638877 0.032213923
0002f0 bb 9e c0 3d 0c 78 23 bd 05 e7 63 3d d4 2d 40 bd
       0.094052754 -0.039909407 0.05564024 -0.046918705
000300 5b 63 01 3c 4e 15 e7 bd 80 72 57 bd ea 90 29 3d
       0.007897223 -0.112833604 -0.05259943 0.041397966
000310 21 9a dc 3d 48 2c 33 3d 69 66 b4 3d 8a b8 1e bc
       0.10771585 0.0437434 0.08808596 -0.009687552
000320 80 b7 dd 3d 99 59 b3 bd 25 52 3b 3d a6 38 47 bd
       0.108260155 -0.08757324 0.045732636 -0.04863801
000330 14 a3 e7 bc 30 b0 c7 3c ff 5a fd 3d 14 b0 ac bd
       -0.028276004 0.024376005 0.12370872 -0.08432022
000340 9c 54 3d 3e b4 50 7b bd 54 cb c3 3c a6 f0 38 bd
       0.18489307 -0.06135626 0.023900665 -0.045151375
000350 82 9e 6b bd 5e 47 82 3c 88 98 56 3d 1a 8f eb 3d
       -0.05752421 0.015903171 0.05239156 0.11501904
000360 e0 db c9 3c 47 23 90 3d a7 bd f3 bd e9 56 34 be
       0.024640977 0.070379786 -0.11901408 -0.17611279
000370 6c 06 7b 3d 94 ed 48 bd ae a5 cd bd a9 70 ea 3b
       0.06128542 -0.049054697 -0.100413665 0.0071545434
000380 34 38 47 bd e0 32 ea 3d fb c1 8a bd cf 78 5e 3d
       -0.048637584 0.11435485 -0.0677528 0.05431443
000390 70 5a 77 bd d3 03 0e 3e 18 47 7d bd 05 57 16 3d
       -0.060388982 0.13868646 -0.06183538 0.036704082
0003a0 c2 42 ce 3d c8 88 95 3e 1d 79 19 3e 5e 9d 86 bd
       0.10071327 0.29205918 0.14987607 -0.06572984
0003b0 a8 42 dc bd 48 fd 9f bd f3 82 81 bd 7d 9d ca 3d
       -0.10754901 -0.078119814 -0.06323805 0.0989332
0003c0 59 a9 0f 3d 83 e4 8b bd 17 fc 28 be 9c da 82 bd
       0.035073612 -0.068306945 -0.16502415 -0.06389353
0003d0 73 99 94 3d 9f d8 ac 3d 6e 2c 9a bd 30 d4 b4 bd
       0.072558306 0.08439755 -0.075280055 -0.08829534
0003e0 50 53 b7 bc 4f d7 83 3d 3b 98 8b bd c2 0a 1c bd
       -0.022378594 0.06437551 -0.06816145 -0.038096197
0003f0 c4 0b 6c ba 58 84 c3 bd e4 d5 02 3e 14 72 be 3d
       -0.0009004439 -0.09546727 0.12776905 0.092991024

net.6.bias f4 [32]
000000 fa 81 60 3d a2 69 06 3d 4a f8 9d 3d f9 e8 ce 3d
       0.054811455 0.032815583 0.07713373 0.1010303
000010 7d 26 d1 bd 6e 5c c2 bd 8a d1 d5 bd 34 4e c8 bd
       -0.10212419 -0.09490286 -0.10440357 -0.09780541
000020 2d de fe 3c f4 cf 3c 3b d1 b8 f0 bc 0b 48 08 bd
       0.031111801 0.0028810473 -0.029385002 -0.03327183
000030 5a 48 e5 bd ee cf f6 bd a8 56 77 bc a0 36 29 3d
       -0.111954406 -0.12051378 -0.015096344 0.04131186
000040 fa 9e 8f 3c 09 c6 45 bd 35 56 9c bc 7e 59 49 3c
       0.01753186 -0.048284564 -0.019084075 0.012289403
000050 93 71 ab 3c 9d ed bf 3c dd a8 1c bd 23 ee 20 bd
       0.02092818 0.023428733 -0.038246978 -0.039289605
000060 ce 9a 9e bd 13 d4 9f 3d 4c e8 93 3c cf 47 5f 3c
       -0.077443704 0.07804122 0.018055104 0.01362796
000070 55 7e 5a bc 3c 21 97 bd 0e 05 fa bd 19 b2 22 bd
       -0.013335784 -0.07379386 -0.12207995 -0.03972063

net.8.weight f4 [16, 32]
000000 6e 74 9f 3d 7a 57 db bd f1 ce ce bd 22 8b e4 bd
       0.07785879 -0.10710044 -0.10098065 -0.1115935
000010 9f 72 ac 3c 45 b3 a8 3d fa cb 06 be 1a fd b9 bd
       0.02105075 0.08237318 -0.13163748 -0.090814784
000020 2d 95 8a 3d 7b b6 fc 3d 0a f4 e6 3d 58 3a 2b bd
       0.06766734 0.12339493 0.112770155 -0.041803688
000030 00 e6 8b bc 1a 0c d6 bd b0 2a 5f 3d 04 29 fb 3d
       -0.017077446 -0.10451527 0.05448407 0.122636825
000040 fa 8a bb bc 10 50 00 be e9 1e 30 3e cf fc 7b 3d
       -0.022893418 -0.12530541 0.17199291 0.061520394
000050 76 55 49 3d ff de 1e 3e 40 ab 4e bd e2 4c d4 bc
       0.049153768 0.15514754 -0.050456285 -0.025915567
000060 5a 03 04 3d 4c 8c 00 3e 3a 54 9b 3d c1 42 0b bd
       0.03222976 0.12553519 0.07584424 -0.03399921
000070 b4 71 fd 3d 60 d0 bb 3b ba 9e 9f bd c0 2b d1 3b
       0.12375203 0.0057316273 -0.077939466 0.0063833892
000080 23 65 32 3e e1 98 23 be 13 81 1d 3e 0d 4b 0b be
       0.17421393 -0.15976287 0.15381269 -0.13602848
000090 d3 9c e1 bd 19 0d 1e be f2 db ef 3d 28 86 f8 3c
       -0.1101624 -0.15434684 0.11711873 0.030337408
0000a0 dc 9f f2 bd b1 7d 88 bd f2 40 f7 3d 79 94 2d 3e
       -0.11846897 -0.06664599 0.12072934 0.16951169
0000b0 c0 55 00 3c 34 47 40 3d af 01 84 bd ae 8c 92 3d
       0.007832944 0.046942905 -0.064456336 0.07155739
0000c0 0c 9d 4e 3d 57 48 1d be df 02 26 3e ab 40 07 3e
       0.05044274 -0.15359627 0.16212033 0.13208263
0000d0 e3 c2 10 3e d0 46 ce 3c 34 0e 29 bd 63 37 07 3e
       0.14136843 0.02518025 -0.04127331 0.13204722
0000e0 e9 57 01 be 28 d4 1c be 50 51 3b 3c f8 ec 71 3d
       -0.12631191 -0.15315306 0.011432961 0.05906388
0000f0 28 3d 25 3d 80 d9 8d 3c c8 08 27 3d 90 dd d1 bc
       0.040341526 0.017315626 0.04077986 -0.025618345
000100 70 ee d7 bd 7e 36 22 be bc 9a 1b bd 02 a1 a6 3d
       -0.10543525 -0.158411 -0.037989363 0.081361786
000110 c8 e3 a3 bd 96 05 a3 bd 00 5d 08 bd 37 35 17 3e
       -0.0800243 -0.0796005 -0.033291817 0.14766394
000120 d6 f9 c8 3d 8c e9 ae bd 20 26 48 bc ac 6d 2d be
       0.098132774 -0.08540639 -0.012216121 -0.16936368
000130 1c d2 3c 3d f9 d1 a5 bd 06 ab 92 3d 94 db 17 3d
       0.046098813 -0.0809669 0.071615264 0.03707464
000140 78 e9 93 3c 40 10 02 3b f2 10 fe 3d a0 56 e7 3b
       0.018055663 0.0019846112 0.12405576 0.007059887
000150 22 b1 cd 3d 42 55 a6 3d e8 5e 89 3c 20 32 3b bc
       0.10043551 0.081217304 0.016768888 -0.011425525
000160 c7 0d 0d be 80 28 fc 3a db 9c 21 be 00 c0 aa bc
       -0.13774787 0.0019238144 -0.15782492 -0.020843506
000170 50 d1 c8 bd 31 28 1d 3e 54 47 fd bd 99 94 e0 bd
       -0.09805548 0.15347363 -0.123671204 -0.10965843
000180 7e 07 9b 3d c1 92 2c be 69 87 87 bd bd 25 97 bd
       0.075697884 -0.16852857 -0.06617624 -0.07380245
000190 4c 94 89 bb 0d 68 d6 3d b9 ae 2a 3e c0 db 32 bc
       -0.0041985866 0.10469065 0.16668214 -0.01091665
0001a0 02 53 f5 bc 3a 39 35 3d 47 97 74 3d d5 42 9e 3d
       -0.029946808 0.04424403 0.05971458 0.07727591
0001b0 ef 0a 05 3e cd b7 85 bd 99 32 2f 3e 27 57 9b bd
       0.12992452 -0.06529198 0.17109145 -0.07584982
0001c0 00 e8 69 bb b0 d1 ce bd a8 12 da bd 27 74 b5 3d
       -0.0035691261 -0.100985885 -0.1064809 0.08860045
0001d0 d1 b6 b1 3d 1e 31 dd bc 1f 9c 2e 3c 63 db c2 bd
       0.086774476 -0.02700096 0.010657339 -0.09514501
0001e0 24 d7 f5 bd 91 d8 08 3c bc f8 1a 39 e6 46 63 3d
       -0.120039254 0.008352415 0.00014779245 0.055487536
0001f0 aa 83 04 3d 3a fc 65 bd 2a b1 b9 3d 44 79 e8 bd
       0.032352127 -0.056148745 0.090669945 -0.113512546
000200 d2 80 71 bd 21 57 aa ba f4 be 35 be 7d eb 7f bd
       -0.058960743 -0.0012995937 -0.17748624 -0.06248044
000210 c0 c2 19 be 3b 3c 21 3e 75 6a 17 3e b9 65 17 3e
       -0.15015697 0.15745632 0.14786704 0.14784898
000220 64 e5 43 bd f3 4c d6 3d 75 6f ef 3d a0 7f 39 bc
       -0.047826186 0.10463896 0.116911806 -0.011321932
000230 10 cf 2c 3c 79 08 1d be 25 cf 8f 3d 05 79 de bd
       0.010547414 -0.15335263 0.070219316 -0.108629264
000240 b1 f7 7a be 8e 76 e1 3d de bc 07 bd 35 c3 e6 bd
       -0.2450855 0.11008941 -0.033139102 -0.112677015
000250 f5 65 23 be 53 6c 1e 3e 24 a8 b5 3d 08 0b 29 3e
       -0.15956862 0.1547101 0.08869961 0.16508114
000260 f3 87 2f be 1d b8 8d be fa d1 05 3d b6 79 2e be
       -0.17141704 -0.2767953 0.032670952 -0.17038617
000270 f2 89 af be 40 59 e5 3c 5c 24 8b bd b8 b0 0c bd
       -0.3428493 0.02799666 -0.067940444 -0.03434822
000280 7e cb ee 3d c0 f6 c9 bc bb e5 1e 3e 98 dd 38 bd
       0.11659907 -0.024653792 0.15517323 -0.045133203
000290 b8 84 c7 bc 3d f8 17 3e fa 14 0b be 28 da 19 3d
       -0.024355277 0.14840789 -0.1358222 0.037561566
0002a0 23 35 a3 bd a3 7b da bd 7a 98 00 be 41 57 22 3e
       -0.079691194 -0.10668113 -0.12558165 0.15853597
0002b0 dc bd e9 bd 4f 81 2a 3e de 81 01 be 63 cd 1a 3e
       -0.11413166 0.1665089 -0.12647197 0.15117411
0002c0 03 ff 1e be 23 3b 26 be 49 f0 1b 3e 12 f6 99 3d
       -0.15526967 -0.16233496 0.1522838 0.07517637
0002d0 0a a1 e5 3d 75 28 2b be 82 c5 be 3d 01 c3 12 3e
       0.112123564 -0.16714652 0.093150154 0.143322
0002e0 c0 3f fe bd 88 de 3c bd 1e cb f1 3d 80 57 36 3c
       -0.12414503 -0.04611066 0.1180632 0.01112926
0002f0 a8 89 84 3d 74 e5 25 3d e8 1f 93 bc 40 70 d0 3c
       0.06471568 0.040502027 -0.01795955 0.02544415
000300 15 19 1a bd c2 8c 1e 3e 52 2c 89 bd b6 f3 b7 3d
       -0.037621576 0.15483382 -0.066979066 0.08982031
000310 1e 9e 0a be c8 fa c7 3d e8 ec 19 3d a0 55 b9 3c
       -0.1353688 0.097646296 0.037579447 0.022623837
000320 d9 f7 12 3d 4d 4c 4b bd 33 b9 de 3b f8 db 44 bd
       0.035880897 -0.049633313 0.00679698 -0.04806134
000330 b8 b3 de 3c 0e 77 ff 3d a1 90 b9 bb 52 1d 35 3e
       0.027185306 0.1247388 -0.005662993 0.17686966
000340 e1 16 26 3d 07 61 00 bc 40 b1 15 be 5f f0 b6 bd
       0.040549163 -0.007835633 -0.14618397 -0.08932566
000350 b4 4a a5 3d 60 3f 3f bd d8 78 89 bd a8 3c 37 3c
       0.08070889 -0.0466913 -0.06712502 0.011183895
000360 3a bd f3 3c 95 46 cd 3b 0a db 84 bd ca a6 de 3c
       0.029753316 0.0062645175 -0.06487091 0.02717914
000370 4c 58 e6 bd 66 da cc bd b6 84 81 3d 69 e2 5c bc
       -0.1124731 -0.10002594 0.06324141 -0.013481715
000380 f0 f1 e0 bc 70 c9 c0 3c 26 7b 9a 3d b0 e2 1a bc
       -0.027459115 0.023533553 0.0754302 -0.009453461
000390 a2 a3 9d bd b0 ab 37 3d 98 21 0d 3d f0 d6 b3 bc
       -0.07697226 0.04484147 0.034455866 -0.021953076
0003a0 91 8b 29 3e a0 f2 78 bd 86 a0 34 be 32 d4 d5 bd
       0.16557147 -0.06077826 -0.1763936 -0.10440864
0003b0 54 ec 3d 3d e7 df 2c 3e a0 26 14 be 14 5a 4c bd
       0.04636796 0.16882287 -0.1446786 -0.049890593
0003c0 0e 28 9b bd da 61 db 3d 80 33 e3 bd 3e cd 9e 3d
       -0.07575999 0.10712023 -0.11093807 0.077539906
0003d0 05 55 0e be 2f 67 0f be f0 0b 31 bd 70 ff 92 3d
       -0.1389962 -0.14004205 -0.043224275 0.07177627
0003e0 39 60 d4 bd d2 8d 6b bd 8c 53 4b bd 93 e6 d2 bd
       -0.103699155 -0.057508297 -0.049640223 -0.10297885
0003f0 60 6e d4 3b 29 78 08 3e 8c 65 4d bd 43 ec 31 be
       0.0064828843 0.13327087 -0.05014567 -0.17375283

net.8.bias f4 [16]
000000 19 10 be bd 3d 88 0c be 51 32 b5 bd 8b 38 a4 3d
       -0.09280414 -0.13723846 -0.08847488 0.08018597
000010 81 87 1b 3d db 1d fc bd c8 3f c1 3d c1 fa af bd
       0.037971023 -0.12310382 0.094359934 -0.085927494
000020 09 09 fe 3d 24 3d 20 3d 50 78 24 be af 26 1c be
       0.12404067 0.03912081 -0.1606152 -0.15249132
000030 f6 89 5c 3d 87 d0 d1 3d 74 df 17 3d 6f 78 38 3d
       0.053842507 0.102448516 0.037078336 0.04503673

net.10.weight f4 [10, 16]
000000 97 90 d5 bc b0 77 ff bd e0 9e 30 3d fa 26 3c be
       -0.026069922 -0.124740005 0.043120265 -0.18374243
000010 e1 91 13 3c 6c fa c2 bd 62 5f 71 be b0 8a de 3c
       0.009006948 -0.095204204 -0.23571542 0.02716574
000020 bd e2 35 3d eb 6a 31 be 34 97 21 be 18 6a 37 bd
       0.044405688 -0.17325942 -0.15780336 -0.044778913
000030 4e 6e ae bd 35 06 19 3e 8b 1f 50 bc 3e d1 b5 bd
       -0.08517133 0.14943774 -0.012702833 -0.088778004
000040 9e 85 3b be b8 51 3d be 2c 25 af 3d 17 ea d3 bd
       -0.1831269 -0.18488204 0.08552012 -0.103473835
000050 1f 82 b8 bc 98 70 39 3d 25 ed e3 3d 00 d6 e3 3a
       -0.022522984 0.045273393 0.11129216 0.0017382503
000060 00 4c 14 3d 8e 1d 61 be 3c 54 34 3e dc b7 5a be
       0.03620529 -0.2198393 0.17610258 -0.213592
000070 7f 49 1b bd 33 9f 8b be c6 61 a7 3d 34 3f dd bd
       -0.03791189 -0.27269897 0.08172946 -0.10803071
000080 69 88 72 be 58 71 0d be 56 4e 0c 3e 1d 1c d2 3d
       -0.23684849 -0.13812768 0.13701758 0.102592684
000090 08 72 b7 3d 74 e4 73 be f7 21 be bd 48 6a 25 3d
       0.089572966 -0.23817617 -0.09283822 0.04038456
0000a0 70 6b a7 bb 3d 2c ca bd 1c 2b 79 3e 46 19 1f be
       -0.005109243 -0.09871719 0.24332851 -0.15536985
0000b0 11 1a af 3d b7 57 0b 3e 68 c1 98 3c 92 b8 09 be
       0.08549894 0.1360768 0.01864691 -0.13449314
0000c0 40 2e 20 be 6e f6 3a 3e d4 64 60 be 50 26 bb 3c
       -0.15642643 0.18258068 -0.21913463 0.022845417
0000d0 ea 6f 0c bc f8 f6 6d bd a2 97 f2 bd 3c d2 5c be
       -0.008571604 -0.058096856 -0.11845328 -0.21564573
0000e0 61 75 27 be f3 e9 17 3a a0 61 69 3c 84 a2 84 3d
       -0.1635337 0.0005795054 0.014244467 0.0647631
0000f0 ae 70 26 3d da 3d bd bd 8c da 08 3e 10 02 aa 3d
       0.040634803 -0.09240313 0.13364619 0.08301175
000100 4e 42 4b be f0 ca 5a 3e a0 dc dd bc 83 70 5b 3d
       -0.19849512 0.21366477 -0.027082741 0.053574096
000110 86 cc 11 be e8 e8 07 3e 55 88 b4 3d 90 fc 81 3d
       -0.14238176 0.1327244 0.08815066 0.063470006
000120 62 77 3e 3e c6 95 02 be 32 5e 7e 3e f2 3b 2b 3e
       0.18600228 -0.12752447 0.2484062 0.16722086
000130 80 ad 40 3b 48 f1 0f 3e b4 00 34 bd 29 c5 8e 3c
       0.002940029 0.14056885 -0.043945983 0.017427998
000140 a8 05 d3 bc 66 19 1e 3e 22 ae 0c 3e de 64 d4 3d
       -0.025759533 0.15439376 0.13738301 0.103708014
000150 23 e9 ad be 00 5a 43 3b bb 34 99 be 60 8e 84 bc
       -0.33966932 0.0029808283 -0.29923043 -0.016181171
000160 3c c1 a2 3e 55 c6 47 3e 20 4d 58 3c 00 ca d1 3d
       0.3178805 0.19509251 0.013201982 0.102436066
000170 43 49 72 bb 0f ce 85 be 09 03 0f 3c 6e 4a 00 bd
       -0.0036969937 -0.26133773 0.008728751 -0.03132098
000180 da 17 d0 bc 08 61 de bd 40 8b 8a 3c 47 ff 4b 3d
       -0.025401998 -0.10858351 0.016912103 0.049804
000190 bd ce e5 3c f0 8e 86 bc f6 52 67 be dc 85 36 be
       0.028052682 -0.01642558 -0.22590241 -0.17824501
0001a0 d8 5b 5c be cf ae 2f be 88 ce 49 3d 1a 77 7c be
       -0.2151941 -0.17156528 0.04926923 -0.24654809
0001b0 0f 66 bf 3d 12 ef ea bd 9c d9 69 3e 9e db 16 bc
       0.09345638 -0.1147138 0.22836918 -0.009207634
0001c0 8a 32 45 3e 10 a2 29 bd 40 f3 0d 3c 98 67 b9 3d
       0.1925756 -0.04141432 0.008663952 0.09052962
0001d0 7c d1 84 be 00 8d 91 bc 60 8c ea bd c0 16 b9 bb
       -0.25941074 -0.01776743 -0.11452556 -0.005648464
0001e0 3a 68 74 be 77 cc 86 bd 00 58 52 bd 4e 09 1d 3e
       -0.23867884 -0.06581967 -0.051353455 0.1533558
0001f0 eb 18 bc be 79 56 33 be 53 42 a7 3d 64 20 e3 bd
       -0.3673776 -0.17513455 0.08166947 -0.110901624
000200 ba c9 6a 3e 00 f3 05 3b 20 da 21 bc 65 0d 54 be
       0.22928515 0.0020439029 -0.009878665 -0.20708235
000210 2e 54 f6 bd a0 7d 4e be e8 84 cd 3d a8 04 5f bd
       -0.12027775 -0.2016511 0.100351155 -0.0544478
000220 5d c5 e7 3d 7c 97 9a 3e 18 4c 5d 3d 18 ea 35 be
       0.11316941 0.30193698 0.054027647 -0.17765081
000230 3d 85 fc bd 51 44 fa bb 3d c8 bc 3e 70 9a 81 bd
       -0.12330101 -0.0076375385 0.3687152 -0.06328285
000240 9a ec 6b be 62 29 44 be 78 cb 32 bd 8b da 89 bd
       -0.23039475 -0.19156411 -0.043651074 -0.06731137
000250 d9 1a b7 3d b8 82 a8 3d e0 03 cc 3d 04 51 eb 3d
       0.08940668 0.082280576 0.099616766 0.11490062
000260 f6 d6 1c bd 5f 1d 0e bd b0 f5 ef 3d d4 8d 68 be
       -0.03829094 -0.03469598 0.11716783 -0.22710353
000270 16 17 d0 bc 1a 59 81 be 4b 77 65 3d f5 35 41 bd
       -0.025401633 -0.25263292 0.05602197 -0.047170598

net.10.bias f4 [10]
000000 4d 02 08 3d 71 7d 14 3d fd 0d a2 bb e4 df fb 3c
       0.03320532 0.036252443 -0.004945515 0.030746408
000010 66 1f 38 bd 13 f6 78 3c 31 ec 67 3d 36 82 98 3d
       -0.04495182 0.015195387 0.056621734 0.07446711
000020 1f 64 23 bd b4 f2 f5 3c
       -0.039890405 0.030022956
